experiments/models_mr=0.1_cr=0.1_pr=0.1/residual_synthetic_n=100_seed=16_B=100_lambda=1e2_dim=2_epoch=300_spe=10_bs=100_lr=0.1_seed=20.model (torch, 84927 bytes, 5 tensors)

_BaseModel__x0_s f4 [100, 2]
-0.4784326 -1.6086872 -0.5267936 -1.7910196 -0.43090844 -1.7867447 -0.53889436 -1.721835
-0.39784458 -1.8119136 -0.46849698 -1.806395 -0.39558205 -1.8336449 -0.36107 -1.8269032
-0.337325 -1.8311454 -0.32087457 -1.9052076 1.7518215 -2.5756142 2.1079588 -2.4219117
2.2528775 -2.3921711 1.9766792 -2.33759 2.3360903 -2.39058 1.7836952 -2.453793
2.0584352 -2.4539428 1.9204499 -2.5666897 1.971851 -2.3109133 1.8985391 -2.5385811
-1.9222511 -1.2458407 -1.8224298 -1.1907225 -1.9762673 -1.1220742 -1.6580725 -1.2358556
-2.1737092 -1.0608975 -2.2266111 -1.0947788 -2.0688589 -1.107106 -1.9624643 -1.0116522
-2.0633214 -1.2783989 -2.063811 -1.222719 2.1084795 -0.6020595 2.573042 -0.52569383
2.6092238 -0.6052765 2.6125946 -0.73394346 2.5485735 -0.61647624 2.5788414 -0.7788699
2.1915817 -0.4847921 2.604734 -0.7267489 2.609972 -0.5354947 2.5751765 -0.7805303
-5.4336886 -0.45966354 -5.2447343 -0.9836897 -5.9226356 -0.6031833 -5.2568045 -0.62337524
-5.8039794 -0.7827061 -5.720295 -0.86555356 -5.3451347 -0.30208594 -5.1991167 -0.5373785
-5.8750753 -0.84443957 -5.7853193 -0.7293864 1.2945799 0.75400597 1.5111923 0.73651195
1.232389 0.7857174 1.2482953 0.69251126 1.4834739 0.7219936 1.4440242 0.70441383
1.4418715 0.94588625 1.6698023 0.7204438 1.1643302 0.839865 1.1235003 0.77689165
0.73249334 3.290528 0.6165286 2.6484323 0.3572807 2.9523888 1.0606604 2.6899042
0.4466577 3.0218 0.14040788 2.7533054 0.63870007 2.7001252 0.59911454 2.9178317
0.6761686 2.6207457 0.5428225 2.6904318 -0.32183385 -0.15499318 -0.2422978 -0.14483115
-1.0755968 0.062274594 -0.9133411 -0.089078024 -1.1473967 0.068906896 -1.068771 0.046661977
-0.7159394 -0.20210706 -0.90586483 -0.08626245 -0.93390447 -0.12303301 -0.86065114 -0.01372022
1.0450939 -1.2184548 1.0869114 -1.0830187 1.0025815 -1.1623769 1.0787796 -1.1552958
0.78023547 -1.1121747 1.0670719 -1.2023925 1.0661458 -1.0693748 1.1827828 -1.2136056
1.0813688 -1.2583317 1.097974 -1.1383177 1.518074 6.4210715 1.7145487 6.0364738
1.85853 5.8401895 2.1850097 6.084978 2.275657 6.2322736 1.9795079 6.0367975
1.9245026 6.2231 2.4921958 5.7417493 1.324785 6.2100945 1.6527429 6.2020416
00000000: 1ef5 f4be 76e9 cdbf f2db 06bf 2140 e5bf
00000010: 08a0 dcbe 0db4 e4bf fbf4 09bf 1765 dcbf
00000020: 49b2 cbbe c9ec e7bf d6de efbe f437 e7bf
00000030: bb89 cabe e0b4 eabf 2bde b8be f7d7 e9bf
00000040: ddb5 acbe f962 eabf ac49 a4be d8dd f3bf
00000050: b03b e03f ddd6 24c0 cce8 0640 9a00 1bc0
00000060: 252f 1040 5519 19c0 d303 fd3f 139b 15c0
00000070: 8182 1540 43ff 18c0 2050 e43f f20a 1dc0
00000080: 67bd 0340 660d 1dc0 4dd1 f53f a544 24c0
00000090: 9d65 fc3f 01e6 13c0 5403 f33f 1d78 22c0
000000a0: 530c f6bf b577 9fbf 6145 e9bf 9869 98bf
000000b0: 54f6 fcbf 21a0 8fbf b83b d4bf 8430 9ebf
000000c0: 0d1e 0bc0 7dcb 87bf cc80 0ec0 b621 8cbf
000000d0: 2f68 04c0 a6b5 8dbf 0832 fbbf d27d 81bf
000000e0: 750d 04c0 93a2 a3bf 7b15 04c0 0e82 9cbf
000000f0: 54f1 0640 9220 1abf b8ac 2440 df93 06bf
00000100: 86fd 2640 67f3 1abf c034 2740 b8e3 3bbf
00000110: d41b 2340 63d1 1dbf bd0b 2540 0564 47bf
00000120: e042 0c40 ac36 f8be f6b3 2640 370c 3abf
00000130: c809 2740 2e16 09bf b1cf 2440 d5d0 47bf
00000140: c7e0 adc0 0559 ebbe ddd4 a7c0 17d3 7bbf
00000150: 3b86 bdc0 396a 1abf be37 a8c0 8595 1fbf
00000160: 33ba b9c0 6d5f 48bf a80c b7c0 eb94 5dbf
00000170: 580b abc0 02ab 9abe 2a5f a6c0 a391 09bf
00000180: 9e00 bcc0 312d 58bf 5621 b9c0 11b9 3abf
00000190: cbb4 a53f 8906 413f c06e c13f 0c8c 3c3f
000001a0: ecbe 9d3f c724 493f 24c8 9f3f 6b48 313f
000001b0: 79e2 bd3f 93d4 383f c9d5 b83f 7754 343f
000001c0: 3f8f b83f 9a25 723f 15bc d53f 016f 383f
000001d0: c608 953f 6501 573f dcce 8f3f 5fe2 463f
000001e0: af84 3b3f 0398 5240 d1d4 1d3f ea7f 2940
000001f0: 7fed b63e f0f3 3c40 b8c3 873f 6427 2c40
00000200: 51b0 e43e 2c65 4140 15c7 0f3e 2836 3040
00000210: d981 233f dace 2c40 925f 193f c1bd 3a40
00000220: 6319 2d3f 4cba 2740 6af6 0a3f 0930 2c40
00000230: 68c7 a4be 88b6 1ebe ea1c 78be 9e4e 14be
00000240: 28ad 89bf a513 7f3d b9d0 69bf 8a6e b6bd
00000250: e5dd 92bf 0f1f 8d3d 7dcd 88bf a120 3f3d
00000260: ce47 37bf 27f5 4ebe c2e6 67bf 5eaa b0bd
00000270: 5d14 6fbf bbf8 fbbd a253 5cbf c6ca 60bc
00000280: a3c5 853f 54f6 9bbf ea1f 8b3f 5ba0 8abf
00000290: 9754 803f c4c8 94bf 7315 8a3f bce0 93bf
000002a0: 83bd 473f be5b 8ebf d095 883f ffe7 99bf
000002b0: 7777 883f 46e1 88bf 6d65 973f 6e57 9bbf
000002c0: 4b6a 8a3f 0311 a1bf 698a 8c3f 65b4 91bf
000002d0: 4050 c23f 6b79 cd40 5576 db3f cb2a c140
000002e0: 50e4 ed3f d5e2 ba40 33d7 0b40 24b8 c240
000002f0: 5da4 1140 c96e c740 8460 fd3f 722d c140
00000300: 1a56 f63f a323 c740 2380 1f40 69bc b740
00000310: 8e92 a93f 18b9 c640 148d d33f 2077 c640

_BaseModel__v_s f4 [100, 100, 2]
-0.057624362 0.30711168 -0.08443037 0.27696815 -0.03225217 0.28836668 -0.15451668 0.2182996
-0.037108164 0.29565278 -0.0376307 0.29383034 -0.076583706 0.288332 -0.036585122 0.30362782
-0.035260662 0.29340255 -0.04083503 0.2938172 -0.03375432 0.30616817 -0.06323993 0.32652426
-0.02574858 0.29266593 -0.052783996 0.26873875 -0.04428003 0.33614564 0.05970364 0.28170747
-0.03795607 0.30170047 -0.026807673 0.30787912 -0.057897046 0.28959432 -0.055871524 0.31140006
-0.0802767 0.28552327 -0.03548667 0.29152116 -0.06195964 0.27288562 -0.020013606 0.27533248
-0.036809925 0.2906435 -0.04322812 0.2817326 -0.032581195 0.29546252 -0.03557684 0.27593365
-0.026311459 0.31381556 -0.027456615 0.295309 -0.09514239 0.27980238 -0.06258746 0.27778506
-0.01987767 0.2934038 -0.058361195 0.26688066 -0.056607738 0.27964664 -0.048305094 0.2836351
-0.043408524 0.29932272 -0.05159446 0.31019026 -0.016654223 0.20914817 -0.028278036 0.30618098
-0.028809465 0.29669863 -0.04771497 0.30450845 -0.05776739 0.3203107 -0.03477411 0.3097683
-0.030152049 0.3016509 -0.02258908 0.29348856 -0.045951664 0.3169436 -0.037359267 0.2851483
-0.017685778 0.3369956 -0.060040995 0.34184265 -0.0553483 0.27339262 -0.033026677 0.3018263
-0.0381759 0.29879385 -0.01912773 0.3028686 -0.046134867 0.29815468 -0.024832468 0.29611614
-0.05224479 0.3160717 -0.027249008 0.28706488 -0.03463357 0.3305321 -0.022021813 0.29394224
-0.01946135 0.28418058 -0.04513531 0.29314554 -0.023790447 0.3297574 -0.031315595 0.29982275
-0.02484836 0.296436 -0.039907657 0.2928595 -0.044916414 0.33333468 -0.037865087 0.31234846
-0.030921873 0.30160648 -0.02298511 0.311129 -0.020289559 0.2475761 -0.08316534 0.26436862
-0.028797694 0.29860815 -0.07187819 0.27802664 -0.03409438 0.24455817 -0.061138973 0.289836
-0.058979664 0.25142926 -0.045664985 0.26750094 -0.025522232 0.26406428 -0.040085655 0.26290014
0.19281712 0.3561122 -0.05252199 0.26053602 -0.06396903 0.263673 0.0057666837 0.29249027
-0.07309076 0.27906975 0.07179304 0.30998337 -0.064821444 0.27687308 -0.016258465 0.28216308
0.20132336 0.37385803 -0.05969372 0.26823404 -0.023550501 0.28750166 -0.055120543 0.29498133
-0.032293428 0.2923186 -0.028376715 0.30943984 -0.05767294 0.34048364 -0.029297182 0.30034027
-0.02844354 0.3290783 -0.029258914 0.2982012 -0.025585474 0.33089748 -0.032733552 0.29857945
0.013024578 0.03579847 0.015688654 0.06486848 0.0086564105 0.03684564 0.011783506 0.079882436
0.0080691315 0.03567089 0.009201625 0.039676275 0.008142603 0.046614863 0.009339871 0.038551163
0.00896494 0.03665641 0.0076144272 0.037766036 0.007888783 0.034375798 -0.002352017 0.040078335
0.0007269569 0.03757965 0.008957371 0.0369359 0.010535372 0.033182077 0.011893842 0.03510393
0.006702741 0.03891026 0.009232692 0.035863813 0.0056822128 0.03902766 -0.030648254 0.04184449
-0.0014249994 0.032750115 0.008127301 0.038108278 0.007456574 0.03660433 0.0025734557 0.027343988
0.010108246 0.036800027 -0.020557068 0.08422666 0.0075645368 0.037211325 0.009532606 0.041699626
00000000: 8607 6cbd be3d 9d3e d4e9 acbd c5ce 8d3e
00000010: da1a 04bd cca4 933e 9f39 1ebe ee89 5f3e
00000020: bbfe 17bd cd5f 973e a622 1abd ee70 963e
00000030: ebd7 9cbd 40a0 933e 48da 15bd 1b75 9b3e
00000040: 7c6d 10bd dc38 963e a242 27bd 356f 963e
00000050: f841 0abd 13c2 9c3e f083 81bd 302e a73e
00000060: b0ee d2bc 4fd8 953e 0834 58bd 2098 893e
00000070: fa5e 35bd 481b ac3e ce8b 743d f63b 903e
00000080: d377 1bbd 7c78 9a3e c49b dbbc 55a2 9d3e
00000090: 7425 6dbd b545 943e 8ad9 64bd d46f 9f3e
000000a0: 1c68 a4bd 1b30 923e 785a 11bd 4342 953e
000000b0: 64c9 7dbd aab7 8b3e 93f3 a3bc 61f8 8c3e
000000c0: 01c6 16bd 3acf 943e f80f 31bd 413f 903e
000000d0: dc73 05bd dd46 973e 05b9 11bd 2d47 8d3e
000000e0: 218b d7bc 6fac a03e b2ec e0bc be32 973e
000000f0: 03da c2bd 4242 8f3e db2d 80bd d839 8e3e
00000100: 7fd6 a2bc 0639 963e 260c 6fbd 95a4 883e
00000110: 84dd 67bd d82d 8f3e 90db 45bd 9f38 913e
00000120: 23cd 31bd d440 993e b654 53bd 42d1 9e3e
00000130: 706e 88bc f02a 563e 57a7 e7bc c1c3 9c3e
00000140: d401 ecbc e2e8 973e c670 43bd 88e8 9b3e
00000150: 809d 6cbd c4ff a33e 4c6f 0ebd f399 9e3e
00000160: 6e01 f7bc fd71 9a3e bc0c b9bc 2244 963e
00000170: d037 3cbd 6e46 a23e 0806 19bd f5fe 913e
00000180: c4e1 90bc b08a ac3e 8ced 75bd 0006 af3e
00000190: e6b4 62bd 1efa 8b3e fb46 07bd fa88 9a3e
000001a0: 555e 1cbd 82fb 983e c2b1 9cbc 9811 9b3e
000001b0: eaf7 3cbd bba7 983e 766d cbbc 899c 973e
000001c0: a2fe 55bd 26d4 a13e 5039 dfbc 2bfa 923e
000001d0: eedb 0dbd 813b a93e 1767 b4bc 997f 963e
000001e0: 696d 9fbc 1e80 913e cedf 38bd 2c17 963e
000001f0: 2fe4 c2bc f6d5 a83e c844 00bd 5e82 993e
00000200: ca8e cbbc 76c6 973e 3676 23bd aef1 953e
00000210: 46fa 37bd d8aa aa3e 6c18 1bbd 23ec 9f3e
00000220: de4f fdbc 2a6c 9a3e 454b bcbc 4d4c 9f3e
00000230: 4a36 a6bc 9784 7d3e 9752 aabd 535b 873e
00000240: 24e9 ebbc 2be3 983e df34 93bd 8259 8e3e
00000250: 8ca6 0bbd 756d 7a3e dc6c 7abd 6265 943e
00000260: a994 71bd 56bb 803e 350b 3bbd e2f5 883e
00000270: 0014 d1bc 6f33 873e db30 24bd d99a 863e
00000280: da71 453e 5754 b63e 4c21 57bd fa64 853e
00000290: 3202 83bd 2600 873e 73f6 bc3b 49c1 953e
000002a0: 9cb0 95bd 3be2 8e3e 3b08 933d 24b6 9e3e
000002b0: 1bc1 84bd 4fc2 8d3e 7930 85bc ae77 903e
000002c0: b627 4e3e 526a bf3e 6781 74bd f955 893e
000002d0: fbec c0bc 6b33 933e 14c6 61bd cb07 973e
000002e0: 1d46 04bd c9aa 953e 4976 e8bc e66e 9e3e
000002f0: 763a 6cbd df53 ae3e a500 f0bc 33c6 993e
00000300: 6d02 e9bc f37c a83e 64b0 efbc d4ad 983e
00000310: a198 d1bc 656b a93e 9e13 06bd 68df 983e
00000320: 0a65 553c 6ba1 123d 7e85 803c c4d9 843d
00000330: 9ed3 0d3c 74eb 163d 9b0f 413c 6799 a33d
00000340: 6434 043c a41b 123d 6ac2 163c 9783 223d
00000350: 8d68 053c 3aef 3e3d 4206 193c d3e7 1d3d
00000360: afe1 123c 0825 163d 7282 f93b 8fb0 1a3d
00000370: f43f 013c a3cd 0c3d 4c24 1abb 2e29 243d
00000380: 4091 3e3a 1eed 193d f0c1 123c 194a 173d
00000390: 8e9c 2c3c eee9 073d 64de 423c 23c9 0f3d
000003a0: aba2 db3b 5d60 1f3d b844 173c efe5 123d
000003b0: db31 ba3b 78db 1f3d 0c12 fbbc 2165 2b3d
000003c0: 0cc7 baba fc24 063d 5f28 053c 6d17 1c3d
000003d0: 4756 f43b 6cee 153d 6ca7 283b 8000 e03c
000003e0: 0e9d 253c a0bb 163d 4c67 a8bc 077f ac3d
000003f0: efdf f73b e76a 183d a62e 1c3c 3acd 2a3d

_BaseModel__beta_s f4 [2]
2.5647388 -0.3990383
00000000: ae24 2440 c04e ccbe

_BaseModel__prior_b_sigma_s f4 [100]
1.1788 -2.696924 1.2601534 -2.5302794 -1.4660597 -1.1682302 1.3079203 -2.4214866
-2.0752597 -1.2542795 -2.722336 -1.412351 -1.1138064 -2.663529 -2.5471733 -1.5747546
-1.1648983 -2.7872424 -2.199963 0.09597961 1.9910034 2.1661205 2.491617 2.6303928
2.5447412 2.8498366 3.4363134 3.9865236 3.5160115 3.0120912 -2.8627722 -2.5506275
-0.9391999 -1.1077203 -1.5594655 -2.5153103 1.5338956 1.7052366 1.7367738 2.0250733
1.8449775 1.6672783 1.6630318 1.6384833 1.8894897 1.6879339 1.7604941 1.7528577
2.0931666 -0.8747389 1.6067369 -0.17306843 -2.9390943 1.639804 1.6937113 1.810261
1.8806143 2.961749 1.7632266 2.040179 2.305065 2.4506416 2.516697 2.3059807
2.3928044 2.4831994 2.6143317 2.95825 3.260779 3.815665 4.098227 3.8619573
4.003286 -1.1665292 -0.94240326 -2.5896428 -0.8229565 -0.7706891 -1.161597 -1.133949
-0.2602809 -0.91058856 -0.95389533 2.2732794 -1.6539816 -1.1921959 -1.407906 -0.94788855
-1.0474604 -0.34721622 -1.6808076 -0.9802996 -1.9927509 -1.2918519 -0.6186933 -0.9865711
-0.9142227 -0.8488861 -2.1957173 -1.9322065
00000000: ebe2 963f 679a 2cc0 b54c a13f 19f0 21c0
00000010: d8a7 bbbf 9188 95bf ef69 a73f a3f9 1ac0
00000020: 0ed1 04c0 3b8c a0bf c13a 2ec0 ebc7 b4bf
00000030: 3591 8ebf 4277 2ac0 e304 23c0 8f91 c9bf
00000040: 631b 95bf 2e62 32c0 32cc 0cc0 f590 c43d
00000050: 33d9 fe3f b8a1 0a40 a776 1f40 5b58 2840
00000060: 0add 2240 b963 3640 8fec 5b40 3423 7f40
00000070: 5506 6140 1ac6 4040 a937 37c0 7b3d 23c0
00000080: 686f 70bf c7c9 8dbf 919c c7bf d8fa 20c0
00000090: b156 c43f 3145 da3f 9b4e de3f cd9a 0140
000000a0: 3928 ec3f 6069 d53f 3ade d43f d2b9 d13f
000000b0: ccda f13f 380e d83f df57 e13f a45d e03f
000000c0: 71f6 0540 e3ee 5fbf 8ea9 cd3f da38 31be
000000d0: 1f1a 3cc0 19e5 d13f 88cb d83f a2b6 e73f
000000e0: f8b7 f03f 4c8d 3d40 69b1 e13f 4b92 0240
000000f0: 2f86 1340 50d7 1c40 9011 2140 3095 1340
00000100: b523 1940 bdec 1e40 3651 2740 f853 3d40
00000110: 9ab0 5040 db33 7440 ad24 8340 4f2a 7740
00000120: eb1a 8040 d450 95bf 5741 71bf b5bc 25c0
00000130: 47ad 52bf e14b 45bf 36af 94bf 3e25 91bf
00000140: 8a43 85be 551c 69bf 7c32 74bf 697d 1140
00000150: abb5 d3bf e099 98bf 4436 b4bf d3a8 72bf
00000160: 2f13 86bf 53c6 b1be b424 d7bf eaf4 7abf
00000170: 7612 ffbf 675b a5bf af62 1ebf ec8f 7cbf
00000180: 800a 6abf 9950 59bf a286 0cc0 8b52 f7bf

_BaseModel__prior_c_sigma_s f4 [100]
3.7369757 3.6995764 -1.1911805 4.028566 -2.1037884 -2.2308235 2.9947672 -2.2339036
-1.9291713 -1.5691344 -1.7456018 -3.2484727 -2.0142503 3.5706334 -3.2317977 3.9109178
-2.6550894 -2.2459118 4.4213424 -3.3410704 3.2483733 -1.9137508 3.1589863 4.314676
-2.0585437 2.989696 -0.99188703 3.3028672 -3.2385468 -2.7627146 4.479219 3.442891
-1.9707783 3.796134 3.4593089 3.5786126 3.471611 -2.1316392 3.226276 -3.2817488
-2.0607839 -1.9562944 -1.9838228 -1.946342 -1.8910332 -2.6410189 -2.206075 -1.8197466
-3.3569777 -3.5485342 -3.3639445 -2.1486855 -2.2878685 -1.9953732 -2.0657396 -2.0728924
-3.1187377 -2.0959885 -3.5408769 -2.029118 2.5183256 -2.2156627 -3.3156433 -2.6027632
-1.8843349 -2.015635 -3.5551622 -2.4001746 -2.0521529 -2.8647234 4.952059 4.932754
-2.3484297 4.7330127 3.250626 3.355718 3.2130816 4.086347 3.1920614 3.3344173
4.567695 3.456103 4.283088 3.8237536 4.1964765 4.6104693 3.968466 3.3728795
5.266147 4.130166 -3.3869355 -3.1664944 -2.2889483 -2.1438935 -3.508166 -3.3079324
-3.126921 -2.8065665 -3.4967093 -1.791557
00000000: 9c2a 6f40 dcc5 6c40 9a78 98bf 03ea 8040
00000010: 78a4 06c0 d0c5 0ec0 44aa 3f40 47f8 0ec0
00000020: 16ef f6bf 65d9 c8bf e16f dfbf fae6 4fc0
00000030: 7ae9 00c0 4285 6440 c6d5 4ec0 7a4c 7a40
00000040: fcec 29c0 05bd 0fc0 a37b 8d40 19d4 55c0
00000050: 59e5 4f40 c9f5 f4bf d52c 4a40 d311 8a40
00000060: 2ebf 03c0 2e57 3f40 4fec 7dbf 2d62 5340
00000070: 5a44 4fc0 51d0 30c0 c355 8f40 5358 5c40
00000080: 7742 fcbf dcf3 7240 5165 5d40 fd07 6540
00000090: e02e 5e40 c76c 08c0 4e7b 4e40 2c08 52c0
000000a0: e2e3 03c0 db67 fabf e8ed fdbf bc21 f9bf
000000b0: 600d f2bf 7406 29c0 5530 0dc0 75ed e8bf
000000c0: b9d8 56c0 2f1b 63c0 de4a 57c0 1084 09c0
000000d0: 706c 12c0 6468 ffbf 1435 04c0 45aa 04c0
000000e0: 6699 47c0 ad24 06c0 ba9d 62c0 12dd 01c0
000000f0: 3f2c 2140 6bcd 0dc0 8033 54c0 ac93 26c0
00000100: e331 f1bf 2a00 01c0 c787 63c0 769c 19c0
00000110: 7956 03c0 a157 37c0 4477 9e40 1fd9 9d40
00000120: ac4c 16c0 d774 9740 420a 5040 15c4 5640
00000130: 21a3 4d40 5bc3 8240 bc4a 4c40 1867 5540
00000140: 8f2a 9240 cb30 5d40 0f0f 8940 61b8 7440
00000150: 8949 8640 f788 9340 59fb 7d40 42dd 5740
00000160: 4784 a840 522a 8440 8dc3 58c0 d8a7 4ac0
00000170: 217e 12c0 8d35 09c0 cb85 60c0 2ab5 53c0
00000180: 791f 48c0 c99e 33c0 16ca 5fc0 bd51 e5bf
