experiments/models_mr=0.1_cr=0.1_pr=0.1/residual_synthetic_n=100_seed=16_B=100_lambda=1e1_dim=2_epoch=300_spe=10_bs=100_lr=0.1_seed=40.model (torch, 84927 bytes, 5 tensors)

_BaseModel__x0_s f4 [100, 2]
000000 32 de 8f bf fc 52 59 3f 9e 07 9f bf 85 ca 55 3f
       -1.1239684 0.8489225 -1.24242 0.83512145
000010 5c 96 a2 bf 0d 9e 5c 3f fc f2 9b bf 9f ac 63 3f
       -1.2702136 0.86178666 -1.2183528 0.88935274
000020 98 ad a5 bf 4f 44 54 3f fb 2e a6 bf c6 18 6b 3f
       -1.2943602 0.8291673 -1.2983087 0.91834676
000030 d5 5a a8 bf e0 82 46 3f 4e 06 a5 bf 4a ba 4b 3f
       -1.315272 0.7754345 -1.2892549 0.7958113
000040 2f 42 a6 bf d4 aa 46 3f b7 10 af bf 94 66 3d 3f
       -1.2988948 0.77604413 -1.3676976 0.73984647
000050 ac f7 cd bf b3 49 b2 bf cf 4d b2 bf 85 6e d7 bf
       -1.6091208 -1.3928741 -1.3929995 -1.6830603
000060 e4 17 aa bf 3f 75 e6 bf 33 15 b5 bf a3 1b ce bf
       -1.3288541 -1.8004531 -1.4147094 -1.6102184
000070 0c d0 a9 bf 77 ed f0 bf 47 14 cc bf f0 ec b7 bf
       -1.3266616 -1.8822469 -1.5943688 -1.4369183
000080 af 39 b7 bf 2c a8 d1 bf 5f 5d ca bf 40 b2 c7 bf
       -1.4314479 -1.6379447 -1.5809745 -1.5601273
000090 84 22 b7 bf 2a ea ce bf e4 c1 c6 bf 17 b6 c4 bf
       -1.4307408 -1.6165211 -1.5527921 -1.536807
0000a0 39 5a 79 bf 7e 63 19 40 0d fa 64 bf c8 f8 11 40
       -0.97403294 2.3966975 -0.8944405 2.2808094
0000b0 13 fc 57 bf 3e 58 1d 40 7b 63 78 bf be 45 11 40
       -0.8436901 2.4585109 -0.97026795 2.2698817
0000c0 fd b7 59 bf 09 a2 29 40 0e 21 5b bf d4 0d 2c 40
       -0.8504637 2.6505148 -0.8559731 2.688344
0000d0 d7 98 58 bf f8 0b 24 40 88 bb 3e bf c8 56 1e 40
       -0.84608215 2.5632305 -0.745049 2.4740467
0000e0 39 df 80 bf 57 2e 22 40 bf 34 72 bf 96 62 22 40
       -1.0068122 2.5340784 -0.94611734 2.5372672
0000f0 84 3a ad 3e a4 ab aa bf 92 af 0a 3f 57 99 d2 bf
       0.33833706 -1.333363 0.5417415 -1.6453046
000100 a1 06 ea 3e dd c3 e3 bf 95 6f 95 3e 68 8e e5 bf
       0.45708182 -1.7794148 0.29186693 -1.7934084
000110 dd 58 de 3e d4 77 d6 bf af 0b 87 3e ce 1e df bf
       0.43427172 -1.6755319 0.263761 -1.7431276
000120 e2 cc 03 3f 0e 2c aa bf f4 e0 b5 3e a0 35 e8 bf
       0.514845 -1.3294694 0.35523188 -1.8141365
000130 04 62 0a 3f 38 23 da bf 68 df 8a 3e 19 71 e2 bf
       0.5405581 -1.7041998 0.2712357 -1.7690765
000140 86 36 2e 40 d3 a3 86 c0 9c e0 3b 40 79 b2 94 c0
       2.7220778 -4.207498 2.935584 -4.646786
000150 7e 2a 13 40 36 cc 8a c0 65 52 39 40 bb 47 8b c0
       2.2994685 -4.337428 2.895654 -4.352506
000160 52 c2 1a 40 fe 21 8f c0 0e 30 1f 40 5d 68 91 c0
       2.4181104 -4.4728994 2.487308 -4.5439897
000170 1e e3 33 40 1f 3e 81 c0 e6 e1 3c 40 d9 53 88 c0
       2.8107371 -4.038833 2.9512877 -4.2602353
000180 f2 6e 15 40 34 71 90 c0 c5 03 1c 40 96 5e 8d c0
       2.3348966 -4.5138187 2.43773 -4.417796
000190 04 96 b5 3f 03 55 5e be 8d bc b6 3f 7f ff be be
       1.4186406 -0.21712117 1.4276291 -0.37304303
0001a0 e9 8e b9 3f a7 df 3e be 5b b7 af 3f 22 b8 60 be
       1.4496738 -0.18640004 1.3727831 -0.21945241
0001b0 82 54 b2 3f 8b 13 9a be a3 ea b3 3f dd 88 aa be
       1.393204 -0.30093035 1.405598 -0.33307543
0001c0 86 83 d2 3f f2 85 b7 be 5e d4 ba 3f 7b 39 07 bf
       1.6446388 -0.3584438 1.4596059 -0.52822083
0001d0 cc 2d c0 3f 64 da d1 bd e4 1f bb 3f 70 d2 10 be
       1.5013976 -0.10246733 1.4619107 -0.14142776
0001e0 24 24 6f 40 2a f6 45 3e 47 d7 53 40 5b 37 e3 3e
       3.7365808 0.19332185 3.3100145 0.4437817
0001f0 04 62 6a 40 db f4 fd 3e 9a 4c 44 40 9f c2 59 3f
       3.6622324 0.49600872 3.0671754 0.85062593
000200 03 57 6b 40 50 f3 e7 3e 30 02 64 40 72 c0 6c 3f
       3.6771858 0.4530282 3.5626335 0.9248115
000210 48 e6 55 40 78 b9 f8 3e 4d 12 61 40 2a 76 3c 3f
       3.3421803 0.48579 3.516742 0.73617804
000220 01 b4 50 40 1a 48 ea 3e a0 f2 54 40 f8 fa 1b 3f
       3.2609866 0.45758134 3.3273087 0.6092982
000230 a7 5d 8e 3e 22 f8 99 3f ca 3a 95 3e 86 25 94 3f
       0.27805826 1.2028849 0.29146415 1.1573951
000240 b5 4c e5 3e e9 a5 e5 3f 3f 8c 66 3e c2 70 c4 3f
       0.44785085 1.7941257 0.22514437 1.5346911
000250 ec fa d8 3e d0 1a ec 3f 09 3f c7 3e db e8 e2 3f
       0.42378938 1.8445683 0.3891528 1.7727312
000260 c7 a5 76 3e c5 3e b7 3f 1e f6 90 3e 2f 1c ca 3f
       0.24086677 1.4316031 0.28312773 1.5789851
000270 dc 31 a3 3e 0a b6 cf 3f 4b c8 b5 3e 3d 40 c7 3f
       0.31873977 1.6227429 0.35504374 1.5566479
000280 9d 2d d0 be ab 43 aa be a3 7d a4 be 0e 1b ce be
       -0.406598 -0.33254752 -0.32127103 -0.40255016
000290 06 81 d5 be 37 f9 a0 be 75 eb c0 be d2 29 ca be
       -0.417 -0.31440136 -0.3767964 -0.3948503
0002a0 8c 8b cb be 78 84 cc bd 0b 1e d2 be 40 66 ad be
       -0.39754903 -0.09986204 -0.41038546 -0.33867073
0002b0 15 02 ac be 98 57 9c be e9 b1 d2 be e3 ab 01 bf
       -0.33595338 -0.3053558 -0.4115136 -0.50652903
0002c0 e7 86 e0 be 87 74 be be 50 3d c7 be fa 88 ca be
       -0.43852922 -0.37198278 -0.38913965 -0.3955763
0002d0 4f 08 a3 c0 d4 23 b5 bd de c3 99 c0 e1 84 01 3e
       -5.094764 -0.08844724 -4.8051596 0.12648346
0002e0 81 b9 92 c0 8c c1 75 3e e0 d7 95 c0 94 d2 f9 3e
       -4.5851445 0.23999614 -4.682602 0.4879347
0002f0 57 02 9b c0 46 18 1e 3f bb 0a 97 c0 89 a6 a3 3e
       -4.8440356 0.6175579 -4.72006 0.31962994
000300 06 d5 9b c0 36 07 8c 3e 4a ac 8e c0 cd cf 57 3f
       -4.869754 0.27349252 -4.4585314 0.84301454
000310 3a 9e 9d c0 01 49 8e be 2c e3 9c c0 af e6 6b 3d
       -4.925565 -0.27790073 -4.902731 0.057593044

_BaseModel__v_s f4 [100, 100, 2]
000000 2a 4d ad 3d f4 40 5b 3c 22 13 cb 3d 06 9d a1 3c
       0.084619835 0.013382185 0.09915759 0.019728195
000010 15 13 ea 3d 70 11 3f 3d fa c7 ff 3d e8 0f f8 3c
       0.11429421 0.04664749 0.124893144 0.030281022
000020 6e 4a c1 3d af 51 05 3d d0 6e f8 3d 1e b4 71 3d
       0.094380245 0.032548603 0.12130511 0.059009664
000030 a0 ff ce 3d 4c 8c 42 3d 3e c7 15 3e 26 53 87 3d
       0.1010735 0.04749708 0.14626786 0.06607656
000040 68 25 f0 3d a6 df 46 3d a5 aa c9 3d 51 c0 37 3d
       0.11725885 0.04855313 0.09847001 0.04486114
000050 ec 9c f8 3d bc c6 74 3d db 5d bd 3d be 9d 75 3d
       0.121393055 0.05975984 0.09246417 0.059964888
000060 17 01 f3 3d 2d 66 1e 3d 7a b9 ef 3d 04 83 38 3d
       0.11865442 0.03867166 0.11705299 0.04504682
000070 b0 9d de 3d 11 80 4e 3d 88 0b d7 3d 7d 8b 47 3d
       0.1086992 0.050415102 0.10500246 0.04871701
000080 b5 a3 fb 3d 86 ce c0 3c d9 e3 d6 3d 20 b5 77 3d
       0.12287084 0.023535978 0.10492677 0.06047547
000090 9a c6 ca 3d 02 ab 54 3d 8b 1d 91 3d 0a 4b 9d 3c
       0.099011615 0.0519209 0.07085713 0.01920082
0000a0 eb e0 12 3e bb 77 05 3d 49 bc f2 3d 7a be 4e 3d
       0.14343612 0.032584887 0.11852319 0.05047462
0000b0 d8 ca b0 3d 94 17 88 3d 12 b2 e5 3d 1a 1c a2 3c
       0.086324394 0.06645122 0.11215605 0.01978879
0000c0 54 2b bd 3d ca 71 2c 3d eb ca d9 3d 8d 14 93 3d
       0.0923678 0.042100705 0.10634407 0.07181654
0000d0 ac 48 c0 3d a5 36 8a 3d 8b 33 e6 3d ba d5 8b 3d
       0.09388861 0.06748704 0.112403 0.068278745
0000e0 d5 6f e5 3d 40 4b 2c 3d 2e 5a 07 3e 18 76 be 3c
       0.11202971 0.04206395 0.13217995 0.02324967
0000f0 4f f5 d1 3d 64 0d 4c 3d 3a 35 d9 3d 2d 49 31 3d
       0.10251867 0.049817458 0.10605855 0.043282676
000100 14 9c db 3d ca 1a 0a 3d 04 99 d4 3d aa 07 3d 3d
       0.10723129 0.033716954 0.10380748 0.046149887
000110 65 9b f3 3d 16 2d e6 3c de 60 04 3e 84 31 b4 3c
       0.118948735 0.02809767 0.12927577 0.021996267
000120 12 cb c9 3d a8 12 45 3d 10 f4 eb 3d 40 1c 07 3b
       0.09853186 0.048113495 0.115211606 0.0020616204
000130 96 c2 d2 3d 7d c4 69 3d 87 18 d7 3d 98 bf 20 3d
       0.102910206 0.05707215 0.10502725 0.039245218
000140 36 a2 d9 3d 96 98 4c 3d 29 46 b3 3d f2 ca 7a 3d
       0.106266424 0.049950205 0.08753616 0.0612287
000150 62 f4 d5 3d 51 ed 3b 3d ec b7 a8 3d 14 4d 7f 3c
       0.10447003 0.04588062 0.08238205 0.015582342
000160 ed 6e d3 3d fc 45 62 3d 82 fb d6 3d aa 52 5c 3d
       0.10323892 0.055242524 0.1049719 0.053789772
000170 20 88 e9 3d 63 8b 71 3d 31 5e e1 3d 07 1d 2d 3d
       0.11402917 0.05897082 0.11004294 0.04226401
000180 a4 77 dd 3d eb 57 7b 3d 0f a3 c2 3d 98 8b 20 3d
       0.10813835 0.061363142 0.09503757 0.039195627
000190 b1 06 b2 3d c8 7b 3f 3d b4 f7 c6 3d 54 6d 59 3d
       0.086926825 0.046748906 0.09715214 0.05308278
0001a0 5d 8b e9 3d 53 22 1f 3d f6 c6 83 3d ca b2 8f 3d
       0.114035346 0.038851094 0.06434433 0.07016523
0001b0 52 9a cf 3d 64 17 42 3d af 6f e4 3d c4 5f 34 3d
       0.10136856 0.04738559 0.111541145 0.04403664
0001c0 c2 00 d9 3d 80 5e ad 3c 1b c4 d4 3d a6 fa 19 3d
       0.10595848 0.021163225 0.10388967 0.037592553
0001d0 5d b0 d4 3d 08 19 e9 3c 48 4c ef 3d 4e c0 37 3d
       0.10385201 0.028454319 0.11684471 0.04486113
0001e0 51 fc 00 3e 3f 9a 0b 3d c2 c3 cd 3d cc bb 21 3d
       0.12596251 0.034082647 0.100471035 0.039485738
0001f0 a1 89 dc 3d 80 0f 4f 3d d6 6e ca 3d cd e1 3a 3d
       0.10768438 0.05055189 0.098844215 0.045625497
000200 fc 6c 0f 3e 46 eb e5 3c d5 77 ec 3d e0 20 62 3d
       0.14006418 0.028066289 0.11546294 0.055207133
000210 47 db cd 3d 83 7b 48 3d 20 be d2 3d 1a a4 6c 3d
       0.100515895 0.048945915 0.1029017 0.057773687
000220 50 81 0c 3e 58 43 da 3c 94 c7 dd 3d af 1c 40 3d
       0.13721204 0.02664344 0.10829082 0.046902355
000230 5b b9 07 3e 98 e4 bb 3c 78 45 ff 3d 1c bb 91 3c
       0.13254301 0.02293615 0.12464422 0.017789416
000240 cd d9 e3 3d 02 e6 1f 3d 12 6e ec 3d 25 f0 0e 3d
       0.111255266 0.039037712 0.11544432 0.03489699
000250 ea a5 df 3d 7a d6 59 3d 5f 62 e1 3d a4 7d 14 3d
       0.109203175 0.053183056 0.11005091 0.036252633
000260 c6 3a 06 3e e2 72 0b 3d 36 8e da 3d 27 90 58 3d
       0.13108358 0.034045108 0.10671656 0.05287185
000270 a2 3a 9e 3d 6c 0a e2 3c 94 75 e2 3d a8 ee 4c 3d
       0.07726027 0.02759286 0.110575825 0.050032288
000280 8e cc da 3d b0 d5 76 3c 7e 93 a4 3d 7e 31 00 3d
       0.10683547 0.0150655955 0.080359444 0.0312972
000290 14 84 97 3d 86 a9 9b 3c a3 8d 00 3e 08 f5 4a 3d
       0.07398239 0.019001734 0.1255403 0.049550086
0002a0 f6 20 f8 3d 56 01 59 3d 8b fd d2 3d bf 6e 39 3d
       0.12115662 0.05297979 0.10302266 0.04527163
0002b0 de 43 04 3e 40 94 b7 3a b1 c7 09 3e 56 7b 3d 3d
       0.12916514 0.0014005974 0.13455082 0.0462602
0002c0 92 1c df 3d e0 fb 29 3d ce f8 e1 3d 4d 09 46 3d
       0.10894121 0.041499972 0.11033784 0.048348714
0002d0 6c 4b d9 3d e1 01 7c 3d f6 21 d6 3d 33 75 21 3d
       0.10610089 0.06152523 0.10455696 0.03941841
0002e0 78 76 de 3d 0b f9 05 3d 88 69 e2 3d 88 e1 5d 3d
       0.1086244 0.03270821 0.11055285 0.05417016
0002f0 5d 6c f0 3d dd d7 61 3d 30 f4 e6 3d 3e cf 32 3d
       0.11739419 0.055137504 0.11277044 0.043654673
000300 f6 92 d5 3d 6c ae f6 3c 09 4a df 3d 18 88 4e 3d
       0.10428421 0.030112468 0.10902793 0.050422758
000310 94 08 d5 3d 0b 40 3c 3d 19 fb d0 3d 73 d4 69 3d
       0.10402027 0.045959514 0.10204143 0.057087373
000320 0a 1d e3 3c ef e7 68 bd ea 90 a7 3c 7a bf 51 bd
       0.027723808 -0.056861814 0.020454843 -0.051207997
000330 aa 69 25 3d 34 d2 6f bd 3e c4 0f 3d ca fc 80 bd
       0.040383972 -0.058550075 0.03509926 -0.06298216
000340 01 7c 18 3d 7e 1e 56 bd 3c f2 17 3d be 60 11 bd
       0.037227634 -0.052275173 0.037096247 -0.03549265
000350 20 b4 c3 3c 0d 4e 6b bd 5b 43 80 3c 55 16 1f bd
       0.023889601 -0.057447482 0.015657118 -0.038839657
000360 f3 5a da 3c b4 8f 4a bd 60 b6 ca 3c 2c da 25 bd
       0.026654696 -0.049453452 0.024745166 -0.040491268
000370 47 6d fe 3c a7 13 41 bd 5b 81 65 3d d4 0f 72 bd
       0.031057967 -0.047137883 0.056031566 -0.059097126
000380 27 8d 3d 3d c9 ed 92 bd 2f d3 f0 3c 85 85 57 bd
       0.04627719 -0.0717426 0.029397575 -0.05261757
000390 f6 a7 42 3d 56 b4 11 bd 21 e4 ff 3c 0d 2d 6b bd
       0.04752346 -0.035572372 0.03123671 -0.05741601
0003a0 43 1b 03 3d cf 93 47 bd f3 12 08 3d 43 c7 65 bd
       0.03200842 -0.048724946 0.033221196 -0.056098234
0003b0 08 b6 fb 3c b9 2c 3a bd 7c 02 1a 3d 1e 18 62 bd
       0.030726448 -0.045452807 0.037600026 -0.05519878
0003c0 b2 dc 15 3d ac 6f 6f bd 01 18 f0 3c 96 f5 5b bd
       0.036587425 -0.058456108 0.029308321 -0.053701006
0003d0 4a f0 de 3c 5c 57 45 bd 2a 44 19 3d 7c 16 84 bd
       0.027214188 -0.048179016 0.037418522 -0.06449601
0003e0 60 49 f0 3c bd 18 25 bd 7b 2d 23 3d 6e 0f 4f bd
       0.029331863 -0.040306795 0.039838295 -0.050551824
0003f0 4e 9a ff 3c 02 fc 5a bd 71 e4 3b 3d ab 98 78 bd
       0.031201508 -0.05346299 0.045872156 -0.06069247

_BaseModel__beta_s f4 [2]
000000 6d 07 1c 40 c9 7f ce be
       2.4379532 -0.40331867

_BaseModel__prior_b_sigma_s f4 [100]
000000 37 59 a6 be 5e ab 1b 3f 1c 78 72 bf e8 09 98 bf
       -0.3248994 0.6080836 -0.9471452 -1.1878023
000010 3e fd b8 3f f1 f5 03 3f 53 34 90 3e f5 03 90 bf
       1.4452283 0.5154715 0.2816492 -1.1251208
000020 df e1 b1 3e 08 0d 89 bf ac 8f ec be 50 ae 9d bf
       0.34742638 -1.0707102 -0.46203363 -1.2318821
000030 76 ae a2 bf b7 27 73 be 90 ab d9 be e6 5c a3 bf
       -1.2709491 -0.23745619 -0.42513704 -1.2762725
000040 9a 6a e1 be f0 6f 40 bf 6e db ad 3d e0 40 85 bf
       -0.44026643 -0.75170803 0.084891185 -1.0410423
000050 d2 1a 94 bf 5a be f7 3e 60 e1 24 3f c3 c5 92 bf
       -1.1570685 0.48387414 0.64406395 -1.1466602
000060 c9 42 87 bf 70 00 8a bf db 49 88 3f 91 ed 06 bf
       -1.0567256 -1.0781384 1.0647539 -0.5270625
000070 72 51 d1 40 71 9d 46 3e c0 ab ab be 12 e0 8c bf
       6.541192 0.19395997 -0.33529472 -1.1005881
000080 64 80 15 bf a0 4d 36 40 a8 42 33 3f 19 20 97 3f
       -0.58399034 2.8484879 0.70023584 1.180667
000090 73 be d5 3f 4c 26 ac be 1b e6 7c bf ae b0 8f bf
       1.6698745 -0.33622968 -0.98788613 -1.1225793
0000a0 9b 5a 01 40 17 ff 80 bf 94 b4 dc be 40 e6 9f 3e
       2.021155 -1.0077847 -0.4310652 0.31230354
0000b0 20 25 bb be 93 71 87 be 8b fc e2 be 51 3e 57 bf
       -0.36551762 -0.26453838 -0.443333 -0.8407946
0000c0 8b e1 4d bf 87 d4 53 bf b6 37 16 3f 2f 89 93 bf
       -0.80422276 -0.82746166 0.5867876 -1.152624
0000d0 45 61 96 bf 14 e6 5b be ec 7a f3 be ad 3c 9a bf
       -1.1748434 -0.21474487 -0.4755472 -1.2049767
0000e0 f3 53 8a bf ed ad 09 be 8b cf 10 be f1 87 a0 bf
       -1.0806869 -0.13445254 -0.14141671 -1.2541486
0000f0 26 ab 95 bf 2b a1 0a 3f 83 1d 3b bf 4b 34 e4 be
       -1.1692855 0.5415217 -0.73091906 -0.44571146
000100 ee a7 28 3f 9f 80 5f 3e 76 47 a4 3e f7 3e 98 40
       0.6588124 0.21826409 0.3208577 4.757686
000110 2c 3f 9a be 02 31 0a bf fc ed b6 be cc 8c 6d bf
       -0.3012632 -0.5398103 -0.35728443 -0.92792964
000120 92 40 30 40 42 5e d1 be 30 17 b9 be ec 78 8c bf
       2.753941 -0.40892226 -0.36150503 -1.0974402
000130 98 a1 72 3d 57 0e cb be 56 d9 16 3f ee 6a 9b bf
       0.05923614 -0.39659378 0.5892538 -1.2142007
000140 ae e4 d5 3e 32 43 17 bf c8 a4 3b bf c2 7a 00 bf
       0.4177603 -0.59086907 -0.7329831 -0.50187314
000150 ec 00 32 40 f5 0b 16 3f 60 73 02 bf fd 13 9f bf
       2.7813063 0.58611995 -0.509573 -1.2427975
000160 af b6 0b bd c1 fc 2c 3f f6 03 1a bf 48 c0 e2 be
       -0.034109768 0.6757317 -0.60162294 -0.44287324
000170 e0 56 10 40 e9 f8 19 3f f5 3f 62 bf 67 db a2 40
       2.2553024 0.6014543 -0.8837884 5.0892825
000180 0a b0 ac bf a9 39 1d be c4 78 c6 be 53 5f 34 bf
       -1.3491223 -0.15354027 -0.38764012 -0.70457953

_BaseModel__prior_c_sigma_s f4 [100]
000000 b1 c1 83 be 2c 03 27 be c2 45 50 bc 5a 00 3e bd
       -0.25733712 -0.16309804 -0.012711944 -0.046387054
000010 02 11 00 3e 8a 7e 41 3e 77 b1 b0 3e a0 79 c5 bc
       0.12506488 0.18895927 0.34510395 -0.024105847
000020 b7 45 97 be b4 06 44 3e 8d 86 4a be 14 0d 7f 3e
       -0.29545376 0.19143182 -0.1977789 0.24907333
000030 c3 78 c1 3e e9 18 99 3f 58 67 24 3f 65 94 8a 40
       0.37787446 1.1960727 0.6422019 4.3306146
000040 3a cc 99 be 9d c1 cd 3e e1 1d e9 3e c6 1f 6a 3d
       -0.30038625 0.40186778 0.45530608 0.057159208
000050 7d 87 70 3f 79 db 9d 3e 9b 6f 34 3e 98 d6 98 bd
       0.9395674 0.30831507 0.17620699 -0.074628055
000060 da a9 a0 be 7c 7b 46 3f d0 5d 31 3e c9 c9 08 3f
       -0.31379586 0.7753217 0.17320943 0.534329
000070 5e ec b3 3e 5b 1b 40 3d fa b4 49 bd 12 d7 0f 3f
       0.3514127 0.04690109 -0.04924486 0.56187546
000080 18 c4 c0 bb 36 fa a8 40 2e 45 5b be b7 07 44 be
       -0.005882751 5.2805433 -0.21413109 -0.19143568
000090 dd 76 1b 3f 6c 5d 7f be fc 3b 39 40 a2 cf 56 3e
       0.60728246 -0.24937981 2.8942862 0.20977643
0000a0 4b 93 1c 3f 8a d2 22 3e 42 fe b0 3f c8 56 ba bc
       0.6116225 0.15900627 1.3827593 -0.022746459
0000b0 19 b8 ad 3f ed 59 06 3f c7 7d cd 3e 66 4d e6 3e
       1.3571807 0.52480966 0.40135023 0.44980925
0000c0 d7 fd c8 3e 6c d9 40 be 54 73 4d be 61 6f 62 be
       0.39256164 -0.1883294 -0.20063525 -0.221128
0000d0 bc 92 27 3f a4 6e 73 3c cb 00 c1 40 b3 a6 4f 3e
       0.65458274 0.014857922 6.031347 0.20278434
0000e0 28 31 01 be 50 ce d7 bb e5 35 a6 be 6c c8 b5 3c
       -0.12616408 -0.0065858737 -0.32462993 0.022190295
0000f0 ee 93 13 3f cf 61 3d 3e 06 17 74 3f 3b 05 9d 3e
       0.576476 0.18494342 0.9534763 0.30668053
000100 d6 d5 97 be ce 2a a0 3f e6 b5 bc 3e fa 46 42 40
       -0.2965533 1.2513063 0.36857527 3.035582
000110 c2 3b 8e be 92 a9 29 40 4e ab 77 be 19 83 91 be
       -0.27779967 2.6509748 -0.24186441 -0.28420332
000120 04 b9 12 3f ca b7 a1 3e 69 df 88 be 56 47 5b 3f
       0.5731356 0.31585532 -0.26732948 0.85655725
000130 0a 69 58 be bd e5 9a 40 91 37 28 3f 8a 7a 27 3f
       -0.21133819 4.840544 0.6570979 0.65421355
000140 ca 67 84 3f 21 22 6b bd c1 51 8e be 1c 49 60 be
       1.0344174 -0.057405595 -0.27796748 -0.21902889
000150 10 07 ae 3f 61 18 32 3f f8 d9 5b be a8 59 ee bb
       1.3595905 0.6956845 -0.21469867 -0.0072738715
000160 6b 80 33 3f 71 58 e1 3e 05 62 e6 3e c8 3a 0b 3f
       0.70117825 0.44012788 0.44996658 0.5438657
000170 a4 e1 fa bd 25 e7 a8 3f 92 02 52 3f f9 e9 1e 3e
       -0.12250069 1.319554 0.8203517 0.15518941
000180 08 a7 86 3f 7e e4 eb 3e 7c 05 1d 3f 7e c7 de 3e
       1.0519724 0.46072763 0.61336493 0.43511575
