experiments/models_mr=0.1_cr=0.1_pr=0.1/residual_synthetic_n=100_seed=16_B=100_lambda=1e10_dim=2_epoch=300_spe=10_bs=100_lr=0.1_seed=20.model (torch, 84935 bytes, 5 tensors)

_BaseModel__x0_s f4 [100, 2]
-1.3753818 -1.0542684 -1.2094584 -1.8442662 -0.82401145 -0.99399126 -0.91782534 -1.1133313
-1.4766723 -0.8248545 -0.6323569 -1.6337166 -0.5260068 -1.1801231 -0.42815313 -1.4589554
-0.270118 -1.0254484 -0.5569351 -1.8306285 1.8202642 -2.3305757 1.5193185 -2.647075
0.7193852 -3.673096 0.92449987 -2.6682148 1.319022 -3.1226099 1.4676111 -2.9396698
2.1936183 -2.5865667 1.5945454 -2.265049 1.6127294 -2.936556 0.68066406 -2.5753717
-2.187251 0.30174837 -3.4406335 -0.009369296 -2.8714526 -0.18915613 -2.6383615 -0.1603502
-4.0042253 -0.96691257 -3.8559005 -0.0706078 -2.7268074 0.20454879 -2.4832907 0.4402624
-3.0685928 -0.13530885 -3.6192973 -0.22835784 2.591158 -0.56006736 3.1509657 -0.28267255
3.185609 -0.5735027 2.3642654 -0.5865568 2.3918297 -1.2872754 2.8679838 -0.39519486
2.483891 -0.43645844 2.98192 -1.2309853 3.7675173 -0.81043583 2.083854 -0.5726126
-5.1021495 -3.1542153 -3.8471706 -2.4735556 -4.234645 -2.1461382 -4.812004 -3.2838705
-5.2744455 -2.664586 -4.4661245 -2.457905 -4.394583 -3.4009912 -4.1033983 -3.1040328
-4.788226 -3.01783 -5.0133615 -2.605024 1.106923 2.0760067 2.1437507 2.4074416
1.1244383 2.4086268 0.7450017 2.4993486 1.8383305 2.5594933 2.351982 3.0406759
0.7884356 3.4685147 2.0501287 2.82951 1.3680933 2.263965 1.4600424 2.6264677
-0.8535855 3.1524649 -0.27365032 3.556415 -0.31795922 4.073191 1.0330228 3.8218262
-0.43841255 3.5445113 0.14968796 4.0524054 -0.3083439 3.333983 0.06727237 3.2616985
0.12401402 3.1583586 0.120385595 3.7867067 0.21171927 0.53312707 0.65049255 0.69670755
-0.3728759 0.6478823 -0.8966453 0.9051102 -1.0262703 1.1784157 -0.12301576 0.95123804
0.14738913 0.8313499 -0.6237501 1.0960497 -1.0981939 0.8069888 -0.08131145 1.3308462
-0.3112542 -0.9653487 0.3531395 -0.7704468 -0.26505482 -1.1508682 0.034761596 -1.0935984
-0.66495013 -0.43702275 -0.17554006 -0.8601769 0.029779287 -0.5192926 1.06834 -0.72141576
0.0930253 -1.0367328 0.41314268 -0.623178 1.8702571 5.217988 2.6351917 5.704617
2.7342422 5.251109 2.636439 4.808147 2.4354565 5.3363605 2.215887 4.978768
2.0549324 5.6508613 3.4305718 5.5967765 2.083772 4.805605 1.0571539 6.060062
00000000: 830c b0bf 44f2 86bf 88cf 9abf ea10 ecbf
00000010: 6af2 52bf 3676 7ebf 9af6 6abf a481 8ebf
00000020: 9903 bdbf aa29 53bf 24e2 21bf a01d d1bf
00000030: 62a8 06bf 460e 97bf e336 dbbe 0dbf babf
00000040: e84c 8abe e541 83bf 4c93 0ebf 0952 eabf
00000050: 6bfe e83f 2728 15c0 0779 c23f ad69 29c0
00000060: a129 383f 0114 6bc0 06ac 6c3f 08c4 2ac0
00000070: b7d5 a83f d7d8 47c0 aeda bb3f 8d23 3cc0
00000080: 3e64 0c40 4f8a 25c0 101a cc3f 90f6 10c0
00000090: eb6d ce3f 89f0 3bc0 0040 2e3f e4d2 24c0
000000a0: ecfb 0bc0 c37e 9a3e 5733 5cc0 ad81 19bc
000000b0: e1c5 37c0 25b2 41be eada 28c0 d832 24be
000000c0: 9d22 80c0 9587 77bf 13c7 76c0 d29a 90bd
000000d0: 0384 2ec0 3d75 513e 3cee 1ec0 136a e13e
000000e0: d363 44c0 678e 0abe 91a2 67c0 a3d6 69be
000000f0: 88d5 2540 9360 0fbf 6ca9 4940 75ba 90be
00000100: 05e1 4b40 13d1 12bf 2050 1740 9628 16bf
00000110: bd13 1940 71c5 a4bf 0c8d 3740 fb56 cabe
00000120: 12f8 1e40 7b77 dfbe c7d7 3e40 ed90 9dbf
00000130: 011f 7140 b978 4fbf dd5d 0540 bd96 12bf
00000140: cf44 a3c0 aade 49c0 0b38 76c0 bc4e 1ec0
00000150: 3682 87c0 545a 09c0 f0fb 99c0 ef2a 52c0
00000160: 42c8 a8c0 9488 2ac0 7eea 8ec0 514e 1dc0
00000170: 6da0 8cc0 d7a9 59c0 0a4f 83c0 79a8 46c0
00000180: 2639 99c0 2024 41c0 756d a0c0 b7b8 26c0
00000190: a7af 8d3f 4bdd 0440 3633 0940 8613 1a40
000001a0: 98ed 8f3f f126 1a40 6eb8 3e3f 54f5 1f40
000001b0: 6a4e eb3f bdce 2340 e086 1640 6f9a 4240
000001c0: ead6 493f 25fc 5d40 4f35 0340 b116 3540
000001d0: ae1d af3f cde4 1040 abe2 ba3f 0c18 2840
000001e0: 9484 5abf fcc1 4940 e51b 8cbe 4e9c 6340
000001f0: 8dcb a2be 9557 8240 173a 843f cd98 7440
00000200: 9c77 e0be 46d9 6240 cd47 193e 4ead 8140
00000210: 40df 9dbe fa5f 5540 19c6 893d abbf 5040
00000220: 10fb fd3d 8c22 4a40 b98c f63d 6759 7240
00000230: f0cc 583e 047b 083f ae86 263f 6d5b 323f
00000240: 97e9 bebe 9ddb 253f 8c8a 65bf 4db5 673f
00000250: d35c 83bf 53d6 963f b0ef fbbd 5684 733f
00000260: 2ded 163e 59d3 543f 16ae 1fbf 5b4b 8c3f
00000270: 9e91 8cbf d196 4e3f 9e86 a6bd 2b59 aa3f
00000280: b65c 9fbe 1821 77bf b3ce b43e 003c 45bf
00000290: 44b5 87be a64f 93bf 2d62 0e3d 08fb 8bbf
000002a0: 2c3a 2abf 72c1 dfbe c6c0 33be 8e34 5cbf
000002b0: b1f3 f33c 5cf0 04bf 5dbf 883f b4ae 38bf
000002c0: 0c84 be3d a9b3 84bf 7087 d33e 9888 1fbf
000002d0: 9664 ef3f c2f9 a640 fba6 2840 398c b640
000002e0: d3fd 2e40 1609 a840 6bbb 2840 57dc 9940
000002f0: 85de 1b40 77c3 aa40 18d1 0d40 1152 9f40
00000300: 0384 0340 dbd3 b440 7d8e 5b40 cb18 b340
00000310: 855c 0540 84c7 9940 d250 873f 07ec c140

_BaseModel__v_s f4 [100, 100, 2]
-0.23788899 0.020662459 -6.6259804 2.715653 -3.943035 -5.599061 -5.8689103 -5.068556
1.3257724 -8.034801 -3.8281968 -1.9831724 -4.8390107 0.12519206 -14.196622 -5.62065
1.7739098 -7.4265513 -0.18351576 5.3764153 -3.498786 -3.3444097 -0.040447116 2.8462992
5.6877346 -0.11731928 -1.603441 -8.575771 6.9798813 -8.21149 5.329804 2.388939
-1.976197 -3.0158353 6.484496 0.027788818 8.716333 -4.2918816 4.74138 -8.25599
-5.1230993 7.4655538 3.0702639 -3.6662407 -8.955271 5.8440537 -3.722997 2.5465403
0.9452824 4.704066 4.466928 3.8170877 -5.5268693 -5.4441776 -6.553393 -1.98376
-2.7327325 -3.64932 -10.233696 -6.0329947 -2.980316 2.7204998 -0.9997665 -3.4091172
-0.7026884 -4.6994295 9.926352 -4.3439465 6.8696523 3.9503453 8.539233 -3.7117436
6.772807 -5.396018 -1.5384053 5.641778 7.787184 2.6916132 7.4590325 -3.146811
-9.606997 -2.1126401 -11.376151 -8.645903 -11.268216 -6.252148 -2.019797 2.0805116
-5.487964 -4.807596 0.25325435 1.3082564 -11.293869 -1.6997234 0.32351083 -3.7025998
-10.321711 -7.822292 -2.0906165 -7.347417 -4.456905 4.1364064 -1.1781018 3.5700908
6.5361724 3.5716658 -1.5337052 -3.010038 6.8739734 7.3946624 -4.4320817 -3.1985877
7.725293 -1.8809015 1.871889 0.06669764 0.42258188 8.021436 -0.7788571 9.65764
-11.549745 2.3715172 7.0953603 -8.366964 2.2878032 7.8554683 -4.5984974 -1.6192162
-0.3888958 4.4344907 -10.973074 12.581818 4.0030665 11.54604 -8.812586 3.171802
-0.0606193 10.3159685 -2.8663318 4.3719673 5.1436486 0.21908776 -0.70069593 6.587068
1.7152089 4.588347 -4.558883 3.9043477 -0.69737566 -1.9740111 -1.1007462 1.2408978
-3.605165 1.0889857 -3.9931586 3.7513392 -0.56942123 -3.154098 6.0426707 -4.920629
11.883992 -0.4227516 6.428132 -0.21920301 -3.286354 3.514957 6.928477 2.7550008
3.974238 -5.267304 5.557891 -6.540594 3.604195 -4.2251306 -0.622771 -7.2248025
-0.17625245 -2.226633 -4.4504876 -5.4408665 -3.969885 15.981596 0.01787392 -1.1908212
6.544581 5.9609995 8.316798 4.0799065 8.404038 2.6703937 0.7676795 2.250874
-8.540334 4.576569 -1.083582 10.129594 5.243991 8.419705 6.028119 4.700284
1.808416 0.12576348 -10.612149 2.9082181 -3.022533 -1.0673445 -9.035771 -5.87373
-6.9371963 -12.102963 -6.9224095 -0.58101964 -6.9924293 -10.16558 -18.255304 -2.2644134
-5.7242856 -9.392079 -4.033355 5.8653903 -6.2590914 -4.254244 -3.4274507 -7.0430546
5.7830377 1.5919399 -0.27516392 -9.195575 5.9528465 -8.57408 4.01898 3.5738332
-4.080738 -2.9351723 7.308787 -4.152854 7.1776586 -6.2493205 3.4925568 -6.295649
-9.237579 12.158567 4.4183693 -4.034147 -5.78004 4.7628255 -0.43516588 0.5351494
3.8393006 5.7778783 -0.22425765 -2.0668228 -6.8882985 -2.9418705 -6.714572 -3.2979257
00000000: 2c99 73be 5144 a93c 0808 d4c0 42cd 2d40
00000010: af5a 7cc0 822b b3c0 1dce bbc0 9c31 a2c0
00000020: e9b2 a93f 8b8e 00c1 2d01 75c0 98d8 fdbf
00000030: 2dd9 9ac0 5932 003e 5d25 63c1 5ddc b3c0
00000040: 7a0f e33f 4fa6 edc0 8eeb 3bbe 980b ac40
00000050: 1cec 5fc0 cf0a 56c0 e0ab 25bd c429 3640
00000060: ec01 b640 1745 f0bd 8e3d cdbf 5c36 09c1
00000070: 305b df40 4362 03c1 c18d aa40 60e4 1840
00000080: 06f4 fcbf 7203 41c0 fe80 cf40 60a5 e33c
00000090: 1a76 0b41 1857 89c0 63b9 9740 8918 04c1
000000a0: 6ef0 a3c0 d1e5 ee40 347f 4440 b0a3 6ac0
000000b0: ca48 0fc1 7d02 bb40 9545 6ec0 84fa 2240
000000c0: 07fe 713f b587 9640 13f1 8e40 2a4b 7440
000000d0: 1ddc b0c0 b436 aec0 65b5 d1c0 d9eb fdbf
000000e0: 17e5 2ec0 758e 69c0 38bd 23c1 4b0e c1c0
000000f0: 7fbd 3ec0 ab1c 2e40 b3f0 7fbf fa2e 5ac0
00000100: 63e3 33bf ba61 96c0 56d2 1e41 9c01 8bc0
00000110: 31d4 db40 75d2 7c40 b3a0 0841 358d 6dc0
00000120: d6ba d840 2eac acc0 77ea c4bf 7289 b440
00000130: 9c30 f940 6443 2c40 65b0 ee40 5a65 49c0
00000140: 42b6 19c1 7f35 07c0 b704 36c1 9e55 0ac1
00000150: 9d4a 34c1 9911 c8c0 5b44 01c0 1a27 0540
00000160: 679d afc0 d4d7 99c0 8eaa 813e f274 a73f
00000170: b0b3 34c1 8990 d9bf 36a3 a53e 65f7 6cc0
00000180: ba25 25c1 3750 fac0 a9cc 05c0 0a1e ebc0
00000190: f79e 8ec0 715d 8440 0acc 96bf 5e7c 6440
000001a0: 5328 d140 2c96 6440 7450 c4bf 76a4 40c0
000001b0: 97f7 db40 13a1 ec40 9dd3 8dc0 a9b5 4cc0
000001c0: 9a35 f740 61c1 f0bf 0f9a ef3f c698 883d
000001d0: a75c d83e cd57 0041 2e63 47bf b285 1a41
000001e0: c1cb 38c1 f0c6 1740 310d e340 16df 05c1
000001f0: 5e6b 1240 ff5f fb40 e426 93c0 7a42 cfbf
00000200: 5a1d c7be 59e7 8d40 b691 2fc1 204f 4941
00000210: 1f19 8040 94bc 3841 5a00 0dc1 cefe 4a40
00000220: f14b 78bd 350e 2541 fb71 37c0 28e7 8b40
00000230: c598 a440 8b58 603e cf60 33bf 43c9 d240
00000240: f78b db3f bdd3 9240 5fe2 91c0 d5e0 7940
00000250: 3687 32bf 65ac fcbf 40e5 8cbf bdd5 9e3f
00000260: 06bb 66c0 e263 8b3f e98f 7fc0 f115 7040
00000270: 97c5 11bf bedc 49c0 8f5d c140 cb75 9dc0
00000280: d524 3e41 e672 d8be 42b3 cd40 c176 60be
00000290: a053 52c0 0ef5 6040 15b6 dd40 ef51 3040
000002a0: ea59 7e40 c18d a8c0 3eda b140 8c4c d1c0
000002b0: 22ab 6640 4534 87c0 ec6d 1fbf 9531 e7c0
000002c0: 867b 34be 2881 0ec0 656a 8ec0 941b aec0
000002d0: 9912 7ec0 9eb4 7f41 546c 923c d46c 98bf
000002e0: 356d d140 82c0 be40 9b11 0541 988e 8240
000002f0: f176 0641 bbe7 2a40 a586 443f 520e 1040
00000300: 35a5 08c1 4173 9240 d1b2 8abf d112 2241
00000310: c6ce a740 1db7 0641 5ae6 c040 ba68 9640
00000320: 2d7a e73f 24c8 003e 5dcb 29c1 3f20 3a40
00000330: 2e71 41c0 bf9e 88bf 8592 10c1 99f5 bbc0
00000340: 83fd ddc0 bda5 41c1 6184 ddc0 b4bd 14bf
00000350: fbc1 dfc0 37a6 22c1 dd0a 92c1 26ec 10c0
00000360: 592d b7c0 f545 16c1 3f11 81c0 47b1 bb40
00000370: 7a4a c8c0 c422 88c0 5a5b 5bc0 b460 e1c0
00000380: a50e b940 b0c4 cb3f 49e2 8cbe 1321 13c1
00000390: b87d be40 6f2f 09c1 7c9b 8040 afb9 6440
000003a0: 6895 82c0 ddd9 3bc0 95e1 e940 2ee4 84c0
000003b0: 61af e540 6ffa c7c0 0d86 5f40 f575 c9c0
000003c0: 20cd 13c1 7e89 4241 4863 8d40 bb17 81c0
000003d0: 16f6 b8c0 1169 9840 10ce debe 8dff 083f
000003e0: 1ab7 7540 61e4 b840 cca3 65be d346 04c0
000003f0: f16c dcc0 9b47 3cc0 c6dd d6c0 3711 53c0

_BaseModel__beta_s f4 [2]
3.3631787 -1.7839899
00000000: 523e 5740 c859 e4bf

_BaseModel__prior_b_sigma_s f4 [100]
-0.8001493 -0.8001492 -0.8001493 -0.8001535 -0.8001482 -0.8001492 -0.8001528 -0.8001535
-0.8001461 -0.8001463 -0.8001491 -0.80014926 -0.8001493 -0.80014896 -0.8001493 -0.80014896
-0.8001489 -0.80014896 -0.80014867 -0.8001492 -0.80014926 -0.8001494 -0.80014634 -0.80014634
-0.80014896 -0.8001485 -0.80014884 -0.8001466 -0.8001416 -0.80014175 -0.8001463 -0.8001461
-0.80014145 -0.80014616 -0.8001464 -0.80014634 -0.80014163 -0.80014193 -0.80014205 -0.8001425
-0.8001424 -0.80014694 -0.8001418 -0.8001418 -0.8001463 -0.80014163 -0.8001417 -0.8001416
-0.8001418 -0.80014163 -0.80014163 -0.80014145 -0.8001494 -0.80014884 -0.8001461 -0.80014634
-0.8001463 -0.80014145 -0.8001463 -0.8001415 -0.80014163 -0.8001419 -0.8001418 -0.8001419
-0.8001418 -0.80014205 -0.80014193 -0.8001418 -0.800142 -0.80014205 -0.80014217 -0.8001425
-0.80014217 -0.800142 -0.8001417 -0.80014163 -0.80014646 -0.80014646 -0.80014175 -0.80014163
-0.80014163 -0.8001418 -0.8001418 -0.8001467 -0.80014205 -0.80014205 -0.80014193 -0.80014163
-0.8001419 -0.8001418 -0.80014193 -0.80014205 -0.8001425 -0.8001423 -0.80014265 -0.80014265
-0.80014235 -0.8001424 -0.80014265 5.8131046
00000000: 96d6 4cbf 94d6 4cbf 96d6 4cbf dcd6 4cbf
00000010: 83d6 4cbf 94d6 4cbf d0d6 4cbf dcd6 4cbf
00000020: 60d6 4cbf 63d6 4cbf 92d6 4cbf 95d6 4cbf
00000030: 96d6 4cbf 90d6 4cbf 96d6 4cbf 90d6 4cbf
00000040: 8fd6 4cbf 90d6 4cbf 8bd6 4cbf 94d6 4cbf
00000050: 95d6 4cbf 97d6 4cbf 64d6 4cbf 64d6 4cbf
00000060: 90d6 4cbf 88d6 4cbf 8ed6 4cbf 68d6 4cbf
00000070: 14d6 4cbf 17d6 4cbf 63d6 4cbf 60d6 4cbf
00000080: 12d6 4cbf 61d6 4cbf 65d6 4cbf 64d6 4cbf
00000090: 15d6 4cbf 1ad6 4cbf 1cd6 4cbf 24d6 4cbf
000000a0: 22d6 4cbf 6ed6 4cbf 18d6 4cbf 18d6 4cbf
000000b0: 63d6 4cbf 15d6 4cbf 16d6 4cbf 14d6 4cbf
000000c0: 18d6 4cbf 15d6 4cbf 15d6 4cbf 12d6 4cbf
000000d0: 97d6 4cbf 8ed6 4cbf 60d6 4cbf 64d6 4cbf
000000e0: 63d6 4cbf 12d6 4cbf 63d6 4cbf 13d6 4cbf
000000f0: 15d6 4cbf 19d6 4cbf 18d6 4cbf 19d6 4cbf
00000100: 18d6 4cbf 1cd6 4cbf 1ad6 4cbf 18d6 4cbf
00000110: 1bd6 4cbf 1cd6 4cbf 1ed6 4cbf 24d6 4cbf
00000120: 1ed6 4cbf 1bd6 4cbf 16d6 4cbf 15d6 4cbf
00000130: 66d6 4cbf 66d6 4cbf 17d6 4cbf 15d6 4cbf
00000140: 15d6 4cbf 18d6 4cbf 18d6 4cbf 6ad6 4cbf
00000150: 1cd6 4cbf 1cd6 4cbf 1ad6 4cbf 15d6 4cbf
00000160: 19d6 4cbf 18d6 4cbf 1ad6 4cbf 1cd6 4cbf
00000170: 24d6 4cbf 20d6 4cbf 26d6 4cbf 26d6 4cbf
00000180: 21d6 4cbf 22d6 4cbf 26d6 4cbf f404 ba40

_BaseModel__prior_c_sigma_s f4 [100]
-10.614908 -10.614908 -10.614908 -10.614908 -10.614908 -10.614908 -10.614908 -10.614908
-10.614907 -10.614908 -10.614907 -10.614908 -10.614907 -10.614907 -10.614908 -10.614908
-10.614907 -10.614907 -10.614908 -10.614908 -10.614908 -10.614908 -10.614908 -10.614907
-10.614908 -10.614908 -10.614908 -10.614908 -10.614908 -10.614908 -10.614908 -10.614908
-10.614908 -10.614908 -10.614908 -10.614908 -10.614908 -10.614908 -10.614908 -10.614908
-10.614908 -10.614908 -10.614907 -10.614908 -10.614908 -10.614908 -10.614908 -10.614908
-10.614907 -10.614908 -10.614908 -10.614908 -10.614907 -10.614908 -10.614908 -10.614907
-10.614908 -10.614908 -10.614908 -10.614907 -10.614908 -10.614908 -10.614908 -10.614908
-10.614908 -10.614907 -10.614908 -10.614908 -10.614908 -10.614907 -10.614908 -10.614908
-10.614908 -10.614908 -10.614908 -10.614908 -10.614908 -10.614908 -10.614907 -10.614908
-10.614908 -10.614908 -10.614908 -10.614908 -10.614908 -10.614908 -10.614908 -10.614908
-10.614908 -10.614908 -10.614907 -10.614908 -10.614908 -10.614908 -10.614908 -10.614908
12.652285 12.652285 12.652285 12.652285
00000000: aad6 29c1 aad6 29c1 aad6 29c1 aad6 29c1
00000010: aad6 29c1 aad6 29c1 aad6 29c1 aad6 29c1
00000020: a9d6 29c1 aad6 29c1 a9d6 29c1 aad6 29c1
00000030: a9d6 29c1 a9d6 29c1 aad6 29c1 aad6 29c1
00000040: a9d6 29c1 a9d6 29c1 aad6 29c1 aad6 29c1
00000050: aad6 29c1 aad6 29c1 aad6 29c1 a9d6 29c1
00000060: aad6 29c1 aad6 29c1 aad6 29c1 aad6 29c1
00000070: aad6 29c1 aad6 29c1 aad6 29c1 aad6 29c1
00000080: aad6 29c1 aad6 29c1 aad6 29c1 aad6 29c1
00000090: aad6 29c1 aad6 29c1 aad6 29c1 aad6 29c1
000000a0: aad6 29c1 aad6 29c1 a9d6 29c1 aad6 29c1
000000b0: aad6 29c1 aad6 29c1 aad6 29c1 aad6 29c1
000000c0: a9d6 29c1 aad6 29c1 aad6 29c1 aad6 29c1
000000d0: a9d6 29c1 aad6 29c1 aad6 29c1 a9d6 29c1
000000e0: aad6 29c1 aad6 29c1 aad6 29c1 a9d6 29c1
000000f0: aad6 29c1 aad6 29c1 aad6 29c1 aad6 29c1
00000100: aad6 29c1 a9d6 29c1 aad6 29c1 aad6 29c1
00000110: aad6 29c1 a9d6 29c1 aad6 29c1 aad6 29c1
00000120: aad6 29c1 aad6 29c1 aad6 29c1 aad6 29c1
00000130: aad6 29c1 aad6 29c1 a9d6 29c1 aad6 29c1
00000140: aad6 29c1 aad6 29c1 aad6 29c1 aad6 29c1
00000150: aad6 29c1 aad6 29c1 aad6 29c1 aad6 29c1
00000160: aad6 29c1 aad6 29c1 a9d6 29c1 aad6 29c1
00000170: aad6 29c1 aad6 29c1 aad6 29c1 aad6 29c1
00000180: c26f 4a41 c26f 4a41 c26f 4a41 c26f 4a41
