experiments/models_mr=0.1_cr=0.1_pr=0.1/residual_synthetic_n=100_seed=16_B=100_lambda=1e4_dim=2_epoch=300_spe=10_bs=100_lr=0.1_seed=10.model (torch, 84927 bytes, 5 tensors)

_BaseModel__x0_s f4 [100, 2]
00000000: 62aa c33f 8ad4 97bf 660f b53f 553f 43bf
00000010: f28e c63f ef5b 8dbf 3720 cc3f 3914 a5bf
00000020: af49 d63f 52bf 9fbf 64c2 a43f ab49 07bf
00000030: 4454 cc3f 4b19 73bf 8335 a23f 4649 2cbf
00000040: e4de 953f 6d3c 07bf 1064 c23f 4423 0bbf
00000050: 079a 253f fc0b bb3f 0bc4 f13e bf0b da3f
00000060: f1c2 bb3e e438 d23f 3b5e 053f 7447 c63f
00000070: 4072 2d3f d97f 0140 f3d4 603f d726 e03f
00000080: 3817 553f 774c ec3f e3e5 523f 0d5d ec3f
00000090: 99be 0b3f dd6c cd3f b580 013f cee6 ca3f
000000a0: 1888 413f 9f26 33c0 aeea 6f3f d7f2 33c0
000000b0: 90cb ff3e 9b37 30c0 756a a13f 5a5d 17c0
000000c0: 9740 013f 04a4 34c0 d728 123f b305 37c0
000000d0: e808 643f ebd7 35c0 9ae3 813f 792d 35c0
000000e0: 934f 7f3f b74d 2fc0 5e11 7f3f 45ac 32c0
000000f0: 47f2 9abe 8d24 f93f c2de 14bf 28ce 1f40
00000100: 7485 b9be 8df3 2b40 2f5a 1dbf 3d82 1140
00000110: 002e 49bf a571 0b40 d748 f2be 5991 2740
00000120: c545 37bf 55b5 e13f eaf1 95be bdc1 2d40
00000130: 485d aabe 23d0 3440 f7c8 40bf 14d8 1240
00000140: 3ff4 8ac0 ddee 4240 3a15 5ac0 5320 3940
00000150: 38ac 7fc0 ea4d 6540 7407 70c0 73d3 4140
00000160: 8e00 87c0 971d 5f40 5c35 82c0 ea4e 5940
00000170: c473 90c0 2551 3b40 597c 7fc0 d62d 3840
00000180: 8c41 72c0 ece4 3240 d03a 85c0 1704 5540
00000190: f302 8abf 5b54 563e ea04 cbbf d176 503d
000001a0: 452e 57bf 9b6d e43e e37c 15bf 455e 803e
000001b0: eee4 b4bf 0038 b33e 1f51 e3bf 9437 c33e
000001c0: 8739 1ebf 1e05 a83e 8d2b dcbf dc83 cc3e
000001d0: 494e 97bf 740f 1e3c e195 7dbf 4bc6 353f
000001e0: bf87 1940 ece1 863f 5627 ae3f 6a38 293f
000001f0: 3acc 1a40 f34a 463f 0f54 473f 24f3 623e
00000200: 6b57 1c40 e643 713f ee66 0940 9214 4e3f
00000210: a09e bd3f 0460 1d3f cbda 1240 e592 3a3f
00000220: 15ed a63f bbdf 083f 0cfc d13f 0384 0a3f
00000230: da5d 5d3d f142 15bf bb7e 3dbe b0eb 2bbf
00000240: ceef e6bd cf6a bfbf 007b 84bd f06f c5bf
00000250: f985 4f3e f105 b5bf 52f5 c1be e2ec c2bf
00000260: ae75 94bd fee9 b3bf 3348 b73d 79ad b4bf
00000270: c892 a63e 2bab b5bf 9069 3ebe 669e b7bf
00000280: 3dd4 8f3e 150e 8e3e 3a10 f83e dd61 1d3f
00000290: 719b 3c3f 74a4 2abb 5da4 933e 7e5d b03e
000002a0: 4864 5d3f 3068 40bd bb09 043f a6bb 813e
000002b0: 7f8b 983d 4b59 623e 6206 8c3d 4096 243f
000002c0: b00a 233f cbf2 093e 5d61 e53e 1131 d13e
000002d0: 907f 45c0 717d 58c0 433c 43c0 582e 56c0
000002e0: f3b5 43c0 3c4c 56c0 9fd4 3cc0 74b5 60c0
000002f0: 63e9 54c0 6f10 5bc0 47a5 37c0 014f 61c0
00000300: 9c44 3fc0 6871 61c0 0f6c 6bc0 d2f2 59c0
00000310: d343 1cc0 b6fa 46c0 47dd 3cc0 653b 7cc0
1.5286372 -1.1861737 1.4145324 -0.7626851 1.5512373 -1.1043681 1.5947331 -1.2896796
1.6741236 -1.2480261 1.2871823 -0.52846783 1.5963216 -0.9496047 1.267258 -0.67299306
1.1708646 -0.5282658 1.5186787 -0.54350686 0.6468815 1.4613032 0.4721988 1.7034835
0.36672166 1.6423612 0.5209691 1.5490556 0.67752457 2.0234282 0.87824935 1.7511853
0.83238554 1.8460835 0.8238203 1.8465897 0.54587704 1.6048847 0.50587016 1.5851686
0.7559829 -2.7992322 0.9371747 -2.8116968 0.49959993 -2.753394 1.2610613 -2.3650727
0.5048918 -2.8225107 0.57093567 -2.8597229 0.8907609 -2.8413036 1.0147583 -2.8309004
0.99730796 -2.7391183 0.99635875 -2.7917645 -0.30262968 1.946428 -0.581524 2.4969578
-0.3623463 2.6867402 -0.61465734 2.273574 -0.78585815 2.1788113 -0.47321197 2.6182463
-0.71590835 1.7633463 -0.29286128 2.7149498 -0.33274293 2.8252037 -0.7530665 2.2944384
-4.342315 3.045829 -3.4075456 2.892598 -3.9948864 3.5828805 -3.750455 3.0285308
-4.2188177 3.486181 -4.0690136 3.3954415 -4.5141315 2.9268277 -3.9919646 2.8777976
-3.7852507 2.7952223 -4.1634293 3.3283746 -1.078215 0.20930617 -1.5860875 0.050894562
-0.84054977 0.44614872 -0.58393687 0.25071922 -1.4132364 0.35003662 -1.7759131 0.3812834
-0.6180653 0.32816404 -1.7200791 0.3994435 -1.1820766 0.009647239 -0.9905682 0.71005696
2.3989103 1.0537696 1.3605754 0.66101706 2.418715 0.77458113 0.7786264 0.22163063
2.4428356 0.9424423 2.1469073 0.8050014 1.4814034 0.61474633 2.294604 0.72880393
1.3041102 0.53466386 1.6405044 0.54107684 0.054044582 -0.5830527 -0.18505375 -0.67156506
-0.11276208 -1.495447 -0.06468773 -1.5424786 0.2026595 -1.4142438 -0.37882477 -1.5228541
-0.07249008 -1.4055784 0.08949318 -1.411544 0.3253386 -1.4192861 -0.18594956 -1.4345214
0.28091612 0.2774512 0.4844988 0.6147745 0.73674685 -0.0026037963 0.28836337 0.3444633
0.8648114 -0.04697436 0.5157735 0.25338477 0.07448482 0.22104375 0.06837155 0.64291763
0.6368818 0.13471524 0.44800845 0.40857747 -3.0859108 -3.3826563 -3.050553 -3.3465786
-3.0579803 -3.348403 -2.9504774 -3.511075 -3.3267448 -3.422878 -2.8694627 -3.520447
-2.9885626 -3.5225468 -3.6784704 -3.4054456 -2.4416397 -3.1090522 -2.9510057 -3.9411252

_BaseModel__v_s f4 [100, 100, 2]
00000000: 133f 85be 2fd0 4a3e 8b9e 6cbe 17a1 1fc0
00000010: 55b8 2bbe 76c4 e23e 0da6 f3be 89af 373e
00000020: 0fc3 85be cfd6 3e3e 86de e740 234e 8bc0
00000030: 2ea7 bcbe ac03 493e ecad 0140 9464 a53e
00000040: 28d8 763f 4297 b0bf c8b3 abc0 6aeb 89c0
00000050: 98ad 16be 8472 3cbd 8aa4 afbe 601b 93be
00000060: 1dfa 95be c20f b73f 84e5 f8be e71b af3e
00000070: 74b4 9bbe e719 713e e86f 85be c37c 473e
00000080: 8080 82be f011 523e 6d72 89be a891 053e
00000090: 1a24 5bbe 6c12 4d3e 286a 4bbe f602 5c3e
000000a0: 5a25 8fbe 134b 633d 24a6 39bf 0300 8a3e
000000b0: 8bdc 85be beaf bb3e 886f 30c0 59a7 693f
000000c0: 9707 a4be d45b bd3e 2a46 81be 4ee4 8e3e
000000d0: 2039 88ba 0f88 8a3e 726c 003f 8ef3 3f3e
000000e0: 72e9 b6be d50d 3abf a014 37be 8edd 1dbf
000000f0: a533 86be 6857 563e c821 72be 81ab 453e
00000100: 3218 18bf c57f 3040 1e1f 91be 3edd 6c3e
00000110: def8 9abe 5e49 7b3e e42f a4be 1119 1e40
00000120: f002 90be 7abe 833e 1bcc 99be 7734 683e
00000130: ccd2 86be ed5b 373e 148b 9cbe cfe9 4e3e
00000140: d58b 9dbe bf34 fe3d 354b 54bf b356 193e
00000150: 0c0c 0ec0 d9b5 f33e 6dd2 85bf f4a4 683e
00000160: 8220 dfbe f8f9 c93e a71e aebe 94e2 983e
00000170: 555e 8dbe 5d6c 373e 6b10 87be 68b0 3a3e
00000180: 87b1 2940 fd92 63bf 5e4c b4bd 2947 583e
00000190: 9eab 92be 3ef3 7e3e 7cf7 47be 73bf c23e
000001a0: 8ea7 2f3e 2d5d 243e c702 0dbf f4d6 8bbc
000001b0: 6346 9ebe 745a 703e d60d 8fbe a182 613e
000001c0: e872 c6be 6496 393e b038 85be 6eb9 493e
000001d0: f151 00bf 3dfd 063e f11b 8cbe 52b0 493e
000001e0: 6b78 8dbe 5bc0 7f3e b835 e3be a242 703e
000001f0: d650 d6be e044 6e3e 663e 9a3f 32a0 6340
00000200: 0bb9 8bbe 5532 773e 4f17 fe3f 3ab8 4c3f
00000210: 28bf 2abf 38bc 5c3e e0e6 6ebe 5ead 623e
00000220: b9e2 6abe 1095 373e 7e95 28bf 8823 473b
00000230: 5cda bfbe 0058 333f e131 27bf 7407 043f
00000240: f98f 69be 1cfc 13be 7539 a0be 7ab8 5c3e
00000250: f14f 73be e101 653e af29 ffbe 2aa0 943e
00000260: cd46 6cbf 555f 983f 0977 90be 49d6 7b3e
00000270: d190 a4be 82c1 4d3e da3d a1be eed6 993e
00000280: 291a 8dbe 70f8 543e d98a f4be cdee 68be
00000290: 6be1 34bf 7d3f 903e 8d0b 8abe 04b7 813e
000002a0: 8516 75bf a8a0 0ebf bd7c 40bf f04d 7b3f
000002b0: c130 7fbe ebdf 6d3e b0bc 87be eb65 2c3e
000002c0: 161b 68bf 7d8d 6940 1754 56bf 6fdc 093f
000002d0: 973f 7bbf ecef 233f 606a fdbe 61a9 053e
000002e0: c622 3abf 14e6 4d3e e344 5abe 5313 b13e
000002f0: 60e2 6cbe 18fe 283e 1e94 d5be b9f8 6a3e
00000300: 2391 5cbe a04a e33d 4e4a 9fbd 6e89 8e3e
00000310: 0f91 973e d2f0 773e e63d 8abe a060 553e
00000320: 5c28 9c3e 9f34 583f 04e7 82bb 9c02 54c0
00000330: 79a7 973e 9fc4 7e3f dc05 cc3c 44f7 803f
00000340: 57e4 a03e 9a6b 5a3f b68d 9240 e6a0 71c0
00000350: 77d4 a03e 7000 5d3f 5768 4440 0b1e 33c0
00000360: c1b1 4b40 b3f3 2bbf c70c b4bf 1802 05c0
00000370: 4d44 42be e908 a03f b7a0 a13e 27ee 683f
00000380: 51b4 893e 4b4d 7f3f 69eb ba3e f4ca 563f
00000390: 5190 913e 1f71 533f f4d4 963e 98a6 553f
000003a0: c27e 983e d04d 513f 5c57 983e b452 573f
000003b0: 0a49 8c3e 425c 553f bd8f 633e e363 623f
000003c0: a53b 993e 5b02 333f b42c 10be 6562 6a3f
000003d0: b8b8 973e e6bf 553f 7d22 8cbf a466 3d3f
000003e0: 30e4 9f3e 4c93 6d3f ffde 9a3e 5403 5c3f
000003f0: c754 4b3e a35a 933f 184f 653e 9770 7b3f
-0.26024684 0.19805978 -0.23107354 -2.4942071 -0.16769536 0.44290513 -0.47587624 0.17938055
-0.2612538 0.1863663 7.2459135 -4.353288 -0.36846298 0.19630307 2.0262403 0.32303298
0.9642358 -1.379616 -5.365696 -4.309987 -0.14714658 -0.046007648 -0.3430522 -0.28731823
-0.29292384 1.4301684 -0.48612607 0.34200975 -0.30411112 0.23545037 -0.2606194 0.19481187
-0.25488663 0.20514655 -0.26845112 0.13043845 -0.2140049 0.20026559 -0.19864714 0.21485505
-0.27958184 0.05549152 -0.72519135 0.26953134 -0.26144823 0.36657518 -2.7568073 0.9127098
-0.3203704 0.36984122 -0.25248843 0.27908558 -0.0010393001 0.2705693 0.50165474 0.18745252
-0.3572498 -0.72677356 -0.17878962 -0.6166619 -0.26211277 0.2093178 -0.23645699 0.19303705
-0.5941192 2.7577984 -0.28344053 0.23131272 -0.30267996 0.24539706 -0.32067788 2.47028
-0.2812724 0.2573126 -0.30038533 0.22676264 -0.263327 0.1790616 -0.30574858 0.20206378
-0.30770746 0.12412404 -0.82927257 0.1497448 -2.2194853 0.47599676 -1.0454842 0.22719175
-0.4357949 0.39448524 -0.3400776 0.29860365 -0.27611032 0.17912431 -0.26379713 0.18231356
2.6514604 -0.8889616 -0.088036284 0.21120895 -0.2864656 0.24897477 -0.19528002 0.3803669
0.17153761 0.16051169 -0.5508236 -0.017070271 -0.30913076 0.23472005 -0.27940243 0.22022487
-0.38759542 0.18123776 -0.26019812 0.19699642 -0.5012503 0.1318254 -0.27365068 0.19696167
-0.27630934 0.24975722 -0.44376922 0.23462918 -0.41858548 0.23268461 1.2050292 3.5566525
-0.27289614 0.24140294 1.9850863 0.7996861 -0.6669793 0.21556175 -0.2333026 0.22136447
-0.2293805 0.17927957 -0.65853107 0.0030386169 -0.37471282 0.7005615 -0.65310484 0.5157387
-0.22808827 -0.14451641 -0.31293836 0.21554747 -0.23760964 0.22363998 -0.4983649 0.29028445
-0.92295533 1.1904093 -0.28215817 0.24593462 -0.32141736 0.20093349 -0.31492501 0.3004679
-0.2755902 0.20797896 -0.47762182 -0.22747345 -0.7065646 0.28173438 -0.26961938 0.25334942
-0.9573749 -0.5571389 -0.75190336 0.981658 -0.24920942 0.23229949 -0.26511145 0.16835754
-0.9066633 3.6492608 -0.8372206 0.5385198 -0.98143905 0.64037967 -0.4949522 0.13052894
-0.7270931 0.20107299 -0.2131534 0.34585056 -0.2313323 0.16503179 -0.41714567 0.22946443
-0.2153974 0.11098218 -0.07777844 0.27839226 0.29602858 0.2421296 -0.2700035 0.20837641
0.30499542 0.84455293 -0.0039948244 -3.3126593 0.2961996 0.9951877 0.024905138 1.007546
0.3142421 0.85320437 4.5797987 -3.7754455 0.31412098 0.8632879 3.0688684 -2.7987087
3.1827242 -0.6716873 -1.4066399 -2.0782528 -0.18971367 1.2502719 0.31567928 0.9098839
0.26895383 0.99727315 0.3650773 0.8390343 0.28430417 0.82594484 0.29459345 0.83457327
0.2978421 0.8175936 0.2975415 0.8411057 0.27399474 0.833439 0.222228 0.88433665
0.29928318 0.6992547 -0.14079553 0.9155639 0.29633117 0.8349594 -1.0948025 0.7398474
0.3122878 0.9280288 0.30248258 0.8594258 0.19856559 1.1512035 0.22393453 0.98218673

_BaseModel__beta_s f4 [2]
00000000: 0e5f 2540 d396 56bf
2.5839267 -0.8382389

_BaseModel__prior_b_sigma_s f4 [100]
00000000: 83a2 28c0 90f4 5bc0 3839 3bc0 87cf 26c0
00000010: 7b11 fcbf 3658 19c0 99c5 0ec0 da03 dfbf
00000020: 92f4 eebd 8c06 15be d4dd 70be 31b3 39c0
00000030: c0ed 11c0 23fc 39c0 1f8a 48c0 7a3b 8ac0
00000040: 2416 86c0 d0e9 48c0 56a9 2ec0 9655 1bc0
00000050: 9956 14c0 64c7 d0bf d4f6 31bf 28c9 8abe
00000060: 6ffa 68bf 0414 dbbd ecb6 fc3e 6f1f 7240
00000070: bdc1 7840 68f0 8040 0bae c3bc 6341 36c0
00000080: c734 83bf 3980 3fbf 2079 a9be 207b 09bf
00000090: 9226 7140 d673 8e40 a6af b640 e3f6 0441
000000a0: 58a0 fe40 29a4 8c40 b358 7b40 3c9f 5140
000000b0: 702b 11bf 9fe1 a5be 65f3 bc3e 0137 0b3f
000000c0: 2792 c93e cb43 8dbe 3061 d4be f3c8 0ac0
000000d0: bc1e 58c0 0eb5 63c0 69fb 41c0 bc07 67bf
000000e0: 4f51 01bf 3b2e b1be 2dc2 5dbf 173f 0abf
000000f0: 22db 2d40 8b13 2840 5196 11be ea80 2340
00000100: 7cf6 4740 c604 4640 0a1a 3e40 a5f9 4c40
00000110: e8ee 2440 3e97 3140 ecc4 e540 5a51 de40
00000120: 5bac 7140 37a9 5140 9f93 1440 a37a 0f40
00000130: c726 1440 c939 0940 edb7 803f 62e6 1dbf
00000140: 325a d23f 8069 e53f 2028 e43f 1bd6 0440
00000150: e192 db3f 7e27 0a40 e515 e13f 873f c63f
00000160: d28f f03f 0e17 dd3f cd0e 0e40 b118 0740
00000170: 5500 0940 9a57 0640 52e5 fb3f ebc7 0e40
00000180: 4d09 0e40 0627 2540 956d 1940 03cd 0740
-2.634919 -3.436802 -2.9253674 -2.6064165 -1.9692835 -2.396009 -2.2308104 -1.742305
-0.11667742 -0.14553279 -0.2352212 -2.901562 -2.280136 -2.9060142 -3.1334302 -4.3197603
-4.1902027 -3.1392708 -2.7290854 -2.4270988 -2.3177855 -1.6310849 -0.69517255 -0.27106595
-0.9100713 -0.10697177 0.49358308 3.7831686 3.8868248 4.0293465 -0.023886701 -2.847741
-1.0250481 -0.7480503 -0.33100224 -0.537035 3.7679791 4.45164 5.7089415 8.310275
7.957073 4.395039 3.9272888 3.275344 -0.56706905 -0.32398698 0.36904445 0.54380804
0.39369318 -0.27590784 -0.41480398 -2.168515 -3.3768759 -3.5579257 -3.0309699 -0.90246177
-0.5051469 -0.34605584 -0.86624414 -0.5400252 2.7164998 2.6261928 -0.14217497 2.5547433
3.1244192 3.0940413 2.9703393 3.202737 2.5770817 2.774856 7.1802883 6.9474306
3.7761447 3.275953 2.32151 2.2418602 2.3148668 2.144152 1.005613 -0.6167966
1.6433775 1.7922821 1.7824745 2.075568 1.7154199 2.1586604 1.7584807 1.5488137
1.879389 1.7272661 2.2196534 2.110882 2.1406453 2.0990968 1.9679358 2.230952
2.2193177 2.5805068 2.3973134 2.121888

_BaseModel__prior_c_sigma_s f4 [100]
00000000: b5c4 53bf 74ce 6640 6d4a 8b3f 9f01 8c3f
00000010: 8107 75bf 8513 a240 2696 6a3e dc34 8b40
00000020: 3011 a240 6766 9a40 1771 4840 9a4b a53f
00000030: b2c2 f33f 48f5 cd3f d7dc 09c0 0c39 1ac0
00000040: 4c8b dcbf 7826 ddbf eab0 88bf ba9a 8c3f
00000050: d289 8abe ddd6 1040 df28 bdbf 2039 1441
00000060: 6b38 5e3f 751e bfbf 61d8 2040 f299 0440
00000070: 5011 1a40 b4e1 4040 d709 20c0 ceb6 dcbf
00000080: e988 1140 cc82 84c0 77bd 8bc0 73d3 e13f
00000090: 77e1 46c0 a35e f7bf 0622 96bf 55e6 39c0
000000a0: a6eb babf 4db9 0340 b2fb 4e40 eaf6 0140
000000b0: f8e3 163d f0d0 f13f 6b28 78bf a1d1 d8bf
000000c0: 079c be40 632e 1a3e 6117 38c0 4f5e b73f
000000d0: b5d0 e83f 0484 3140 a267 6fc0 a2b7 afc0
000000e0: 18d8 2740 d2dd 01c0 0f7d ad3f a02b 35bf
000000f0: f61a 4e3e c8d4 673e 7c7e c2be 87be 8b40
00000100: 81f6 05c0 ca42 5b40 d7a4 1bbe 946e 2b3f
00000110: b00e fcbe aa13 2440 ae9e 3040 3c81 1b40
00000120: c8bc f83f 0684 fd3f 3049 80bf 7ce6 1a40
00000130: df2d 7a40 9ac6 10bf aeb8 b2bf 8759 053f
00000140: 9c8c 10bf 60e2 da3f b179 5040 072c 14bf
00000150: f30b 5e40 e261 2e40 098f d4be 19a7 f43e
00000160: a369 3d40 eb3e 1a40 367d e93f df66 0b40
00000170: 90d8 2340 8a57 fb3f 4a4b c23f dcbf 743f
00000180: f75d 9abe 6264 cc3f f2e8 c03f b519 77bf
-0.82722026 3.606351 1.0882088 1.0937995 -0.95714575 5.0648828 0.2290884 4.3502026
5.064598 4.8250003 3.1319025 1.2913697 1.9043791 1.6090479 -2.154104 -2.4097319
-1.723001 -1.7277365 -1.067899 1.0984719 -0.27058274 2.2631142 -1.4778098 9.263947
0.86804837 -1.493117 2.5132067 2.071896 2.4073067 3.0137758 -2.5006006 -1.7243288
2.2739813 -4.1409664 -4.366878 1.7642654 -3.1075113 -1.9325756 -1.1729133 -2.9046834
-1.4603164 2.0581849 3.2341123 2.0306954 0.0368385 1.8891888 -0.9693667 -1.6938974
5.9565463 0.15056758 -2.876427 1.4325656 1.8188692 2.7736826 -3.7407002 -5.491166
2.6225643 -2.0291638 1.355379 -0.7076969 0.20127472 0.22639763 -0.37987125 4.3670077
-2.0931704 3.4259515 -0.151996 0.66965604 -0.49229956 2.5637002 2.759685 2.4297628
1.9432611 1.9805915 -1.0022335 2.4203176 3.9090497 -0.5655304 -1.396261 0.5208973
-0.5646455 1.7100334 3.2574275 -0.5787968 3.4694793 2.7247243 -0.41515377 0.47783735
2.9595726 2.4100902 1.8241336 2.1781538 2.560093 1.963609 1.5179226 0.95605254
-0.30149814 1.5968134 1.5071089 -0.965236
