experiments/models_mr=0.1_cr=0.1_pr=0.1/residual_synthetic_n=100_seed=16_B=100_lambda=1e6_dim=2_epoch=300_spe=10_bs=100_lr=0.1_seed=40.model (torch, 84927 bytes, 5 tensors)

_BaseModel__x0_s f4 [100, 2]
-0.17209004 -1.2507876 -0.4134063 -1.0994052 -0.19973393 -1.5294558 0.12465839 -1.2481039
-0.31637406 -1.2373071 0.72528267 -0.751357 0.22875404 -0.705308 0.62251824 -0.82617354
-0.1856394 -1.2732148 -0.10058633 -1.3795335 1.0221218 2.1190872 0.47637638 1.8324577
1.0086079 2.2924757 1.6693333 1.4553843 -0.008871287 1.7998431 1.4998384 1.916357
1.0517154 2.0769725 1.2589582 1.9421486 0.52572984 1.8436469 1.8047419 1.6138519
-1.0084488 -2.3787637 -2.019271 -1.4027287 -1.79934 -2.085188 -1.6175258 -1.5806203
-1.6881888 -2.768484 -2.2761343 -1.6951412 -1.4982677 -2.5393274 -1.4357785 -2.1709816
-1.7247394 -1.919928 -2.0840688 -2.0409925 -1.0053291 2.4595137 -0.5862392 3.1181483
-0.80915135 2.8118129 -0.4047603 2.654027 -0.6115005 3.1689968 -0.1465638 3.061014
-0.63401616 2.773037 -0.6463304 3.1795852 -0.9497641 2.9127393 -0.08346589 3.4221506
2.4362073 -3.884805 2.107231 -2.2737935 1.7276944 -3.2620106 2.6225176 -2.876399
2.1039064 -3.298602 2.2119882 -2.576174 2.609461 -3.3229613 2.6677897 -3.7549524
2.342464 -2.848488 2.304158 -3.4557471 3.1297448 3.2017987 2.4809308 3.5277123
3.1008663 3.0162323 3.0477555 2.8702939 2.5077374 3.2370374 2.421936 3.2890973
3.3339095 3.1971567 2.2862673 3.4804358 3.1759348 3.4255173 2.6309152 3.0078845
4.4053984 1.415185 4.262847 1.8568267 4.866535 1.3210388 3.425953 1.8724262
4.3439193 1.9655904 4.459176 1.555554 4.2335906 1.6952565 3.9853413 2.0773351
4.1243076 2.2772858 4.5286474 1.6197326 -1.4506482 0.10908695 -1.1827158 0.4159713
-1.6708713 0.082963474 -1.7270783 -0.09876674 -1.4735343 -0.05011668 -1.7285602 0.5662038
-1.3106774 -0.1722539 -1.9294089 0.60266703 -1.511362 -0.3787597 -1.7560557 0.20336303
-0.015689177 -0.29454538 -0.036920067 0.3292291 0.3505016 -0.49568495 0.3961628 -0.15711303
0.5106431 -0.4980855 0.34288862 -0.33392057 1.0188601 0.92355436 -0.16165453 0.45153007
0.2632142 -0.08783435 0.6269609 0.0031132288 -4.4185195 -3.8059711 -3.8725092 -3.8846304
-3.5913754 -4.0057554 -4.0807424 -4.2753534 -3.8997402 -4.2550597 -4.060464 -4.187233
-4.463021 -4.039544 -3.6582544 -4.626431 -4.6704974 -3.6355283 -4.767125 -3.612155
00000000: 5f38 30be cf19 a0bf fea9 d3be 4fb9 8cbf
00000010: 0d87 4cbe 35c5 c3bf e64c ff3d dec1 9fbf
00000020: c8fb a1be 1460 9ebf 20ac 393f ef58 40bf
00000030: 803e 6a3e 118f 34bf 5b5d 1f3f 1c80 53bf
00000040: 4118 3ebe b4f8 a2bf 3500 cebd 8e94 b0bf
00000050: e3d4 823f 209f 0740 9be7 f33e f98d ea3f
00000060: 101a 813f ecb7 1240 b7ac d53f 084a ba3f
00000070: e058 11bc 4261 e63f b4fa bf3f 304b f53f
00000080: 9c9e 863f 1eed 0440 8b25 a13f 5398 f83f
00000090: 3b96 063f 9ffc eb3f c801 e73f b392 ce3f
000000a0: da14 81bf aa3d 18c0 bc3b 01c0 9d8c b3bf
000000b0: c650 e6bf b873 05c0 160b cfbf c451 cabf
000000c0: 9216 d8bf d82e 31c0 2fac 11c0 63fa d8bf
000000d0: 3cc7 bfbf 5784 22c0 97c7 b7bf 5df1 0ac0
000000e0: 43c4 dcbf 33c0 f5bf 6261 05c0 9f9f 02c0
000000f0: a0ae 80bf ac68 1d40 c613 16bf be8f 4740
00000100: 8b24 4fbf bef4 3340 be3c cfbe 94db 2940
00000110: 4c8b 1cbf d8d0 4a40 d214 16be a7e7 4340
00000120: e24e 22bf 7079 3140 e975 25bf 537e 4b40
00000130: bd23 73bf 526a 3a40 2af0 aabd 8404 5b40
00000140: d2ea 1b40 a5a0 78c0 dfdc 0640 d585 11c0
00000150: 1725 dd3f c8c4 50c0 54d7 2740 ec16 38c0
00000160: 67a6 0640 4c1c 53c0 3791 0d40 09e0 24c0
00000170: 6901 2740 66ab 54c0 11bd 2a40 2451 70c0
00000180: eeea 1540 a14d 36c0 5377 1340 f62a 5dc0
00000190: bd4d 4840 45ea 4c40 92c7 1e40 0ac6 6140
000001a0: 9874 4640 f309 4140 6d0e 4340 e5b2 3740
000001b0: c57e 2040 9f2b 4f40 0001 1b40 9280 5240
000001c0: c65e 5540 379e 4c40 3452 1240 76bf 5e40
000001d0: 8442 4b40 ad3b 5b40 ea60 2840 2e81 4040
000001e0: 06f9 8c40 c824 b53f 3e69 8840 7fac ed3f
000001f0: a8ba 9b40 cd17 a93f d042 5b40 a9ab ef3f
00000200: 6301 8b40 7798 fb3f 92b1 8e40 651c c73f
00000210: 9379 8740 2afe d83f d50f 7f40 0ff3 0440
00000220: 54fa 8340 0dbf 1140 aeea 9040 6653 cf3f
00000230: d7ae b9bf fb68 df3d 3b63 97bf 31fa d43e
00000240: 1cdf d5bf c1e8 a93d e710 ddbf 3746 cabd
00000250: c69c bcbf 2647 4dbd 7641 ddbf bbf2 103f
00000260: 47c4 a7bf 5463 30be dff6 f6bf 6348 1a3f
00000270: 4f74 c1bf cbec c1be 6fc6 e0bf 663e 503e
00000280: 9786 80bc a7ce 96be 7f39 17bd b790 a83e
00000290: f274 b33e 6bca fdbe dad5 ca3e 3de2 20be
000002a0: 82b9 023f 1005 ffbe 198f af3e a3f7 aabe
000002b0: 026a 823f 0f6e 6c3f c488 25be f32e e73e
000002c0: 03c4 863e 7fe2 b3bd 8280 203f 5007 4c3b
000002d0: 8364 8dc0 0895 73c0 31d7 77c0 c99d 78c0
000002e0: 18d9 65c0 262f 80c0 7195 82c0 b2cf 88c0
000002f0: 5895 79c0 7329 88c0 52ef 81c0 d0fd 85c0
00000300: 11d1 8ec0 f243 81c0 d720 6ac0 b90b 94c0
00000310: b774 95c0 7fac 68c0 4a8c 98c0 8c2d 67c0

_BaseModel__v_s f4 [100, 100, 2]
0.42864534 -0.17510517 0.45794597 -0.2037293 0.7037767 -0.17232616 3.8995075 -0.4258438
7.682731 -0.6255598 -8.441993 -6.282279 -1.4776999 -5.7586837 -7.365962 -7.764773
0.37886593 -0.11403653 0.437217 -0.1253029 3.1511285 5.782561 0.5990107 -0.16137208
1.492539 6.658886 0.6160886 6.3818274 0.4574008 -0.13785559 -0.28535286 -3.4796395
6.072145 -0.6226045 0.8388156 4.7107716 0.5173407 -0.28844976 -1.002236 -4.4494143
-11.966174 1.5985459 0.6987726 -0.096103296 -1.066535 1.9519777 0.46858042 -0.09038119
-4.7259274 3.4607832 3.402394 -4.8104973 2.8125112 4.4131885 -5.599272 0.78710926
-7.088566 2.7530096 2.7143874 -3.5462327 0.53380686 -0.12939973 0.3712639 -0.11027321
0.53411627 -0.02989246 -4.5501103 -3.3655372 0.06947791 0.74543333 0.58978057 -0.188273
0.5048702 -0.12898654 0.52706385 -0.19531932 0.4331507 -0.13480952 4.4416833 1.290681
0.5610333 -0.09894599 4.6345153 -8.09777 0.5180006 -0.28953126 -3.0905375 -2.9495888
0.50725967 -0.16568191 2.927622 -5.377043 0.524651 -0.16231552 0.3011765 -0.098506324
10.137482 -10.556558 0.49175245 -0.16877271 0.26270208 -0.16818266 0.5187875 0.004575367
8.514252 6.2428336 0.48179156 -0.033786636 0.45858058 0.018597502 0.5273498 -0.13413465
0.40952265 -0.010977622 0.4937403 -0.12919882 4.329187 -0.9955572 0.499393 -0.12163014
0.09486344 -0.1550711 0.5112696 -0.33593932 2.8179495 -0.13309835 1.9258013 7.9701867
7.908626 -8.961346 6.585708 -10.413658 -3.290401 8.83437 7.4639387 -8.342523
-2.2243412 -3.0310934 1.579606 -0.1020902 0.34451625 -0.095596194 0.49433368 -0.12645897
0.32646468 -0.03700892 0.5290653 -0.06900831 0.45838946 -0.12756708 2.0198612 -0.46005833
0.38675338 -0.14159262 2.3775434 -3.0037003 0.5064105 -0.14506736 0.4419139 -0.18498026
10.6631 0.5407745 -2.75307 7.2220936 -1.8098501 3.2694356 -1.965385 -1.9685559
-6.659152 3.561458 -1.9077903 9.003088 0.2389114 -0.11350129 -4.5261154 7.6846275
7.6909585 3.6391597 -6.362908 -4.1227684 0.4255849 -0.12517554 0.9831708 2.3691506
-7.3662724 2.3543396 0.5178331 -0.1562196 0.5366938 -0.18261994 0.49210072 -0.11263147
0.34467113 -0.12281309 0.65668476 0.055303648 0.49406973 -0.082540765 0.49704087 -0.18578482
-0.6472626 -0.3638733 -0.6882142 -0.28962046 -0.7065842 -0.3071581 1.5357982 -1.8065579
2.549872 -11.206305 -10.389143 -5.656514 2.3446832 -11.412768 -13.941793 -8.530174
-0.70003486 -0.3211688 -0.724565 -0.33435366 3.9445882 0.92486054 -0.67147 -0.1385775
-0.30778453 6.950004 -0.45133147 5.3752556 -0.68697876 -0.3164274 -1.3269293 -5.54788
4.439807 -0.7378317 -1.0842106 8.049773 -0.6475385 -0.31536442 0.72650665 -1.1804696
-11.374748 0.3096878 -0.76848954 -0.28116655 -0.5244864 2.3121464 -0.605556 -0.35361868
-5.476216 1.9051216 -3.7645075 -4.7828474 -2.6207733 2.821875 -6.6391377 1.4515946
00000000: 6777 db3e c54e 33be e577 ea3e 6a9e 50be
00000010: b62a 343f 4576 30be 8891 7940 3308 dabe
00000020: efd8 f540 b024 20bf 6712 07c1 6e08 c9c0
00000030: 4525 bdbf 2347 b8c0 f6b5 ebc0 0579 f8c0
00000040: b7fa c13e fc8b e9bd e8da df3e 674f 00be
00000050: 17ac 4940 bd0a b940 c458 193f b93e 25be
00000060: 850b bf3f 9815 d540 fcb7 1d3f ee37 cc40
00000070: 7030 ea3e 042a 0dbe c519 92be 6ab2 5ec0
00000080: 034f c240 0263 1fbf 9fbc 563f a4be 9640
00000090: 7170 043f b0af 93be 4549 80bf 9a61 8ec0
000000a0: 7375 3fc1 279d cc3f c3e2 323f ced1 c4bd
000000b0: 3884 88bf 68da f93f c6e9 ef3e c619 b9bd
000000c0: cc3a 97c0 797d 5d40 d3c0 5940 98ef 99c0
000000d0: 2f00 3440 d738 8d40 3c2d b3c0 fe7f 493f
000000e0: 88d5 e2c0 4f31 3040 86b8 2d40 7af5 62c0
000000f0: 91a7 083f 5d81 04be 4d16 be3e ecd6 e1bd
00000100: d8bb 083f 08e1 f4bc 819a 91c0 f664 57c0
00000110: 6f4a 8e3d b8d4 3e3f dcfb 163f a3ca 40be
00000120: 2c3f 013f 0c15 04be a8ed 063f ca01 48be
00000130: eec5 dd3e 820b 0abe 4522 8e40 0935 a53f
00000140: e19f 0f3f 32a4 cabd f34d 9440 7790 01c1
00000150: b09b 043f 713d 94be 5ecb 45c0 10c6 3cc0
00000160: c5db 013f 85a8 29be 295e 3b40 bc10 acc0
00000170: 874f 063f 0a36 26be ce33 9a3e afbd c9bd
00000180: 2033 2241 a9e7 28c1 fac6 fb3e c1d2 2cbe
00000190: e380 863e 1338 2cbe 42cf 043f f6ec 953b
000001a0: 603a 0841 4bc5 c740 62ad f63e db63 0abd
000001b0: 13cb ea3e ca59 983c 6600 073f 985a 09be
000001c0: f4ac d13e 7cdb 33bc 87cb fc3e b24c 04be
000001d0: b388 8a40 d6dc 7ebf 70b0 ff3e 3919 f9bd
000001e0: c347 c23d f5ca 1ebe 91e2 023f 3d00 acbe
000001f0: 4959 3440 ef4a 08be a880 f63f c50b ff40
00000200: 7713 fd40 ac61 0fc1 1fbe d240 589e 26c1
00000210: ee95 52c0 9459 0d41 96d8 ee40 f97a 05c1
00000220: 9b5b 0ec0 6ffd 41c0 8830 ca3f ab14 d1bd
00000230: 6f64 b03e f0c7 c3bd 4e19 fd3e 767e 01be
00000240: 6126 a73e aa96 17bd d370 073f 3b54 8dbd
00000250: 06b2 ea3e f2a0 02be 6845 0140 c48c ebbe
00000260: 8a04 c63e a8fd 10be ac29 1840 a03c 40c0
00000270: 1ea4 013f 8a8c 14be 8a42 e23e 776b 3dbe
00000280: 0f9c 2a41 3370 0a3f 4d32 30c0 641b e740
00000290: 2ba9 e7bf 6f3e 5140 bc91 fbbf a4f9 fbbf
000002a0: c617 d5c0 eeee 6340 7932 f4bf a60c 1041
000002b0: 31a5 743e 5d73 e8bd f0d5 90c0 78e8 f540
000002c0: 551c f640 fee7 6840 f19c cbc0 b8ed 83c0
000002d0: 44e6 d93e 042e 00be 15b1 7b3f 2aa0 1740
000002e0: 81b8 ebc0 80ad 1640 b690 043f 08f8 1fbe
000002f0: c464 093f b900 3bbe a0f4 fb3e 54ab e6bd
00000300: bc78 b03e 6e85 fbbd 7e1c 283f 1486 623d
00000310: b5f6 fc3e 220b a9bd 247c fe3e 603e 3ebe
00000320: 00b3 25bf 9a4d babe ce2e 30bf 2249 94be
00000330: b4e2 34bf d443 9dbe 0995 c43f 4a3d e7bf
00000340: 1a31 2340 064d 33c1 ee39 26c1 2a02 b5c0
00000350: 4a0f 1640 b39a 36c1 9611 5fc1 987b 08c1
00000360: 7c35 33bf 3d70 a4be 187d 39bf 6730 abbe
00000370: 2274 7c40 a9c3 6c3f 75e5 2bbf 43e7 0dbe
00000380: ef95 9dbe 6f66 de40 eb14 e7be 1802 ac40
00000390: d7dd 2fbf c602 a2be d2d8 a9bf 3c88 b1c0
000003a0: e612 8e40 8ae2 3cbf 6ac7 8abf dfcb 0041
000003b0: 15c5 25bf 7277 a1be 57fc 393f a119 97bf
000003c0: f8fe 35c1 668f 9e3e bbbb 44bf 10f5 8fbe
000003d0: be44 06bf 35fa 1340 b805 1bbf 820d b5be
000003e0: 293d afc0 06db f33f b1ed 70c0 160d 99c0
000003f0: c0ba 27c0 9a99 3440 d173 d4c0 dacd b93f

_BaseModel__beta_s f4 [2]
2.9803197 -1.0450726
00000000: 8fbd 3e40 f0c4 85bf

_BaseModel__prior_b_sigma_s f4 [100]
-6.4778914 -7.375135 -7.0711412 -7.4565673 -6.0977592 -6.0233817 -6.1061616 -6.919386
-5.3147807 -5.3110805 -5.5332065 -8.021908 -7.2515345 -7.753383 -7.3705254 -8.977488
-8.906228 -8.5003605 -7.830243 -7.5953913 -7.326411 -5.1096544 6.9879327 6.9879394
-5.752046 -6.0209856 -5.6752424 -5.072861 6.988283 -4.5523906 -5.1213803 -6.0142317
-5.6105976 -5.2912645 -4.8895173 -5.0459013 -3.8035333 6.9897842 6.9904623 7.974527
7.684853 6.990412 -3.182855 -4.212303 -4.5432916 -4.1638966 6.9900246 -4.327254
-4.55751 -4.5239058 -4.335192 -4.998544 -6.5206394 -6.965794 -6.556468 -5.481145
-5.146733 -5.0778027 -6.5143943 -5.9620175 -5.1474805 6.988477 -3.9042797 -3.7923775
-3.8499207 -3.3504436 -4.043025 -4.604168 -4.450251 6.9887886 7.683327 7.9733806
7.682751 6.9888616 -4.496486 -3.5283475 -4.3855767 -3.7212636 -4.017387 -5.484305
-5.1435366 -4.9450383 -4.8953295 -5.131444 -4.180442 6.990122 -4.357978 -4.318742
-4.1949773 -3.8628469 6.989622 7.6838017 6.989699 7.6839886 7.6841173 7.6848307
7.9739857 7.9743786 8.136137 8.238179
00000000: e34a cfc0 1b01 ecc0 ca46 e2c0 339c eec0
00000010: d820 c3c0 8bbf c0c0 ad65 c3c0 9c6b ddc0
00000020: af12 aac0 5ff4 a9c0 0710 b1c0 bc59 00c1
00000030: 920c e8c0 b71b f8c0 58db ebc0 caa3 0fc1
00000040: e97f 0ec1 7a01 08c1 5a91 fac0 720d f3c0
00000050: f571 eac0 4a82 a3c0 259d df40 339d df40
00000060: c310 b8c0 eaab c0c0 969b b5c0 e154 a2c0
00000070: 04a0 df40 2fad 91c0 59e2 a3c0 9674 c0c0
00000080: 048a b3c0 0a52 a9c0 ed76 9cc0 0678 a1c0
00000090: 176d 73c0 50ac df40 deb1 df40 532f ff40
000000a0: 51ea f540 75b1 df40 e5b3 4bc0 30cb 86c0
000000b0: a562 91c0 a43e 85c0 48ae df40 dd78 8ac0
000000c0: 1fd7 91c0 d6c3 90c0 e5b9 8ac0 13f4 9fc0
000000d0: 14a9 d0c0 c9e7 dec0 96ce d1c0 8a65 afc0
000000e0: 09b2 a4c0 5c7d a2c0 eb75 d0c0 d9c8 bec0
000000f0: 29b8 a4c0 9ba1 df40 b8df 79c0 50b6 72c0
00000100: 1a65 76c0 ab6d 56c0 7660 81c0 5855 93c0
00000110: 7568 8ec0 28a4 df40 d1dd f540 ef25 ff40
00000120: 19d9 f540 c1a4 df40 37e3 8fc0 72d0 61c0
00000130: a556 8cc0 2f29 6ec0 6f8e 80c0 6d7f afc0
00000140: da97 a4c0 c13d 9ec0 8aa6 9cc0 ca34 a4c0
00000150: 2ec6 85c0 14af df40 8e74 8bc0 2233 8ac0
00000160: 413d 86c0 e238 77c0 fcaa df40 b4e1 f540
00000170: 9dab df40 3ce3 f540 4ae4 f540 22ea f540
00000180: e42a ff40 1c2e ff40 9e2d 0241 95cf 0341

_BaseModel__prior_c_sigma_s f4 [100]
-4.565404 -2.4279575 -1.9043351 4.1423264 4.155092 4.194738 4.1269817 8.468336
-2.5891237 -1.6109781 4.1598654 -0.73774946 4.1377707 4.1335125 -2.2316678 4.130389
4.1487393 4.154763 -0.86978436 4.1427774 4.1524262 -1.8194308 4.1413803 -1.487142
4.151356 4.118763 4.125044 6.9364386 8.474923 4.1706786 -2.928629 -4.795568
-3.2155178 4.1046257 -2.8617322 -2.6645617 -4.1546865 -6.645137 -3.409934 4.0977855
-1.7465961 9.078851 -3.3768117 4.2126603 -5.3411717 4.1164274 -5.391978 -0.6584633
4.1299577 -1.3318155 -2.789161 -3.1157029 4.137748 -2.4883423 -2.6587794 -6.299945
-2.3387694 -7.3502645 4.146091 -2.4694886 -2.2538223 -1.2093645 -1.7823671 4.1468244
4.157428 8.454363 4.1062512 4.167955 4.161643 -1.2171609 -2.8420575 -1.0969731
-2.9515135 -4.9404607 -2.2424393 4.150019 -2.4330173 4.1215334 -5.618399 -5.8342595
4.1378365 4.1321254 4.1639476 4.125718 6.964085 4.1464896 -1.3091911 6.9592147
4.124808 6.944598 -4.9295673 4.119242 4.2050605 -7.54023 -6.88322 -2.2798014
-2.7150924 -3.6556995 -3.5292556 -4.000748
00000000: ca17 92c0 a863 1bc0 41c1 f3bf f08d 8440
00000010: 83f6 8440 4b3b 8640 3c10 8440 4e7e 0741
00000020: 34b4 25c0 8834 cebf 9e1d 8540 26dd 3cbf
00000030: 9e68 8440 bc45 8440 a5d3 0ec0 262c 8440
00000040: 79c2 8440 d2f3 8440 30aa 5ebf a291 8440
00000050: ade0 8440 1ce3 e8bf 3086 8440 ab5a bebf
00000060: e9d7 8440 e8cc 8340 5c00 8440 4ef7 dd40
00000070: 4999 0741 3376 8540 a86e 3bc0 4b75 99c0
00000080: 0bcb 4dc0 1859 8340 9f26 37c0 2e88 2ac0
00000090: 31f3 84c0 f6a4 d4c0 5c3c 5ac0 0f21 8340
000000a0: 7690 dfbf f942 1141 af1d 58c0 1dce 8640
000000b0: e1ea aac0 c6b9 8340 158b acc0 0d91 28bf
000000c0: 9d28 8440 ee78 aabf 9d81 32c0 ad67 47c0
000000d0: 6e68 8440 0041 1fc0 7129 2ac0 2699 c9c0
000000e0: 66ae 15c0 5e35 ebc0 c7ac 8440 1a0c 1ec0
000000f0: a03e 10c0 75cc 9abf 9b24 e4bf c9b2 8440
00000100: a609 8540 1245 0741 6966 8340 e35f 8540
00000110: 2e2c 8540 eecb 9bbf 45e4 35c0 9d69 8cbf
00000120: 99e5 3cc0 4118 9ec0 2084 0fc0 f5cc 8440
00000130: 8eb6 1bc0 9ae3 8340 edc9 b3c0 41b2 bac0
00000140: 2869 8440 5f3a 8440 0f3f 8540 e205 8440
00000150: c9d9 de40 0bb0 8440 9393 a7bf e3b1 de40
00000160: 6dfe 8340 263a de40 04bf 9dc0 d5d0 8340
00000170: db8f 8640 9049 f1c0 5743 dcc0 44e8 11c0
00000180: 13c4 2dc0 fbf6 69c0 53df 61c0 2106 80c0
