experiments/models_mr=0.1_cr=0.1_pr=0.1/residual_synthetic_n=100_seed=16_B=100_lambda=1e6_dim=2_epoch=300_spe=10_bs=100_lr=0.1_seed=10.model (torch, 84927 bytes, 5 tensors)

_BaseModel__x0_s f4 [100, 2]
1.8708403 -1.1296712 1.4942391 -0.082309924 1.7662835 -1.0584098 1.8013885 -1.3479095
1.9886712 -1.2298596 1.68216 -1.0361545 1.844641 -0.9403503 1.0423049 -0.5017099
1.3753636 -0.9802164 1.5757138 -0.336525 0.28955987 1.470361 -0.7201196 1.4731458
-0.12069599 1.6179556 -1.0737699 1.3810161 -0.33186734 1.697365 0.18362692 1.5815657
0.2189306 1.6751748 -0.07248376 1.565025 -0.30926716 1.4664594 -0.18437444 1.5208645
1.5918641 -3.0978281 1.2366146 -2.9580529 0.95994455 -3.0721602 1.5243459 -2.5759182
0.83086103 -3.0761256 1.00308 -3.1926374 1.6431936 -3.1221411 1.6245418 -2.898068
1.4151487 -2.713275 1.1863129 -3.076207 -0.10256865 2.5786433 -0.66146487 3.1710212
-0.4016855 2.9938467 -0.64736766 2.6231627 -0.9554874 2.7787628 -0.882508 2.74905
-0.776927 2.323084 -0.36657298 3.1241388 -0.25664434 3.344293 -1.2255814 2.7872062
-4.2185354 2.6541958 -3.0352223 1.7829059 -3.142362 2.0080752 -3.5469801 1.8848877
-4.1099772 2.845652 -3.4759932 1.7344648 -4.360871 2.636551 -3.6482024 2.3304214
-3.728371 2.0471168 -4.0327225 2.6829464 -1.1874042 0.13904823 -1.7051376 -0.32923725
-0.98921525 0.39032748 -0.5247339 -0.039966878 -1.5943826 0.2043442 -1.8483739 -0.05958517
-0.73421407 0.1818544 -1.8474914 -0.22304589 -1.2100856 -0.2652008 -1.206317 0.5720583
2.0530803 1.7882408 1.1128802 1.0572622 2.238519 1.2538276 0.267698 0.56762815
2.1309693 1.2941952 1.280475 1.0605685 1.1812671 1.0409054 1.7937682 1.2087363
1.10216 0.874743 1.3307731 1.0660268 -0.037649006 -0.14732702 -0.5968831 -0.22461537
0.18149965 -1.580005 -0.24076276 -1.7682377 0.21061477 -1.6469477 -0.048603326 -1.5661561
-0.20769407 -1.5042582 0.23143242 -1.6535239 0.4660735 -1.6798738 0.064555526 -1.617082
0.25087574 0.11993263 0.38726273 0.3860831 1.3426685 -0.50770557 0.25889808 0.08124462
1.4395646 -0.10763035 0.37965742 0.09997008 0.11776445 0.044937074 0.06696722 0.54479563
0.94427854 -0.41528687 0.8749683 -0.09164883 -2.756885 -3.1919262 -2.3613923 -3.3202732
-2.2974126 -3.2811565 -2.1161802 -2.9483979 -2.6830459 -3.9422257 -2.4471242 -3.4948785
-2.8074532 -3.395278 -1.7271773 -4.0914173 -2.6171722 -2.916565 -3.2970264 -3.3310509
00000000: b277 ef3f 1199 90bf 3a43 bf3f 1b92 a8bd
00000010: 9415 e23f f979 87bf e693 e63f 4c88 acbf
00000020: c78c fe3f 0a6c 9dbf 0551 d73f b6a0 84bf
00000030: 321d ec3f ccba 70bf 3f6a 853f 0f70 00bf
00000040: ea0b b03f 76ef 7abf fdb0 c93f 014d acbe
00000050: 3141 943e ca34 bc3f c259 38bf 0b90 bc3f
00000060: 762f f7bd 2b19 cf3f 4b71 89bf 23c5 b03f
00000070: 84ea a9be 4243 d93f b208 3c3e bf70 ca3f
00000080: 582f 603e 216c d63f 5e72 94bd bd52 c83f
00000090: 4458 9ebe f1b4 bb3f a7cc 3cbe b0ab c23f
000000a0: 34c2 cb3f d142 46c0 6349 9e3f bd50 3dc0
000000b0: edbe 753f 469e 44c0 c41d c33f d8db 24c0
000000c0: 4fb3 543f 3edf 44c0 ed64 803f 2c54 4cc0
000000d0: 2b54 d23f 29d1 47c0 fcf0 cf3f f279 39c0
000000e0: 9823 b53f 4ca6 2dc0 1ad9 973f 93e0 44c0
000000f0: 830f d2bd 7e08 2540 c355 29bf 03f2 4a40
00000100: b9a9 cdbe 2f9b 3f40 e3b9 25bf e6e1 2740
00000110: d29a 74bf 40d7 3140 0bec 61bf 6ff0 2f40
00000120: b0e4 46bf 69ad 1440 74af bbbe e4f1 4740
00000130: e366 83be e608 5640 dadf 9cbf 9661 3240
00000140: 3efe 86c0 58de 2940 1541 42c0 4336 e43f
00000150: 761c 49c0 4e84 0040 b901 63c0 0044 f13f
00000160: ef84 83c0 2a1f 3640 ac76 5ec0 f102 de3f
00000170: 418c 8bc0 40bd 2840 267c 69c0 a025 1540
00000180: a19d 6ec0 f603 0340 100c 81c0 65b5 2b40
00000190: dcfc 97bf a962 0e3e f341 dabf c991 a8be
000001a0: 363d 7dbf 01d9 c73e f654 06bf 4fb4 23bd
000001b0: bb14 ccbf 9b3f 513e 8497 ecbf 940f 74bd
000001c0: 74f5 3bbf 0a38 3a3e 997a ecbf 2466 64be
000001d0: 16e4 9abf 66c8 87be 9868 9abf 6a72 123f
000001e0: ab65 0340 13e5 e43f dc72 8e3f 5e54 873f
000001f0: e543 0f40 6c7d a03f b60f 893e 1450 113f
00000200: cd61 0840 30a8 a53f 9be6 a33f b5c0 873f
00000210: c333 973f 633c 853f 329a e53f dfb7 9a3f
00000220: 9413 8d3f 28ef 5f3f c656 aa3f 9173 883f
00000230: d835 1abd e5dc 16be 55cd 18bf 9201 66be
00000240: 0bdb 393e 9b3d cabf 838a 76be 9d55 e2bf
00000250: 66ab 573e 2fcf d2bf 4814 47bd ce77 c8bf
00000260: c1ad 54be 888b c0bf 9ffc 6c3e aca6 d3bf
00000270: 30a1 ee3e 1b06 d7bf b035 843d 8bfc cebf
00000280: c972 803e 3d9f f53d 4d47 c63e afac c53e
00000290: 90dc ab3f fef8 01bf 4a8e 843e 9463 a63d
000002a0: a743 b83f 4d6d dcbd 7562 c23e 1dbd cc3d
000002b0: 7d2e f13d f00f 383d 1c26 893d ba77 0b3f
000002c0: 3dbc 713f 7ba0 d4be ecfd 5f3f 62b2 bbbd
000002d0: ce70 30c0 8548 4cc0 0d21 17c0 5b7f 54c0
000002e0: cf08 13c0 78fe 51c0 7f6f 07c0 8db2 3cc0
000002f0: 06b7 2bc0 6d4d 7cc0 af9d 1cc0 17ac 5fc0
00000300: 50ad 33c0 3c4c 59c0 2514 ddbf e4ec 82c0
00000310: c07f 27c0 00a9 3ac0 7b02 53c0 f02f 55c0

_BaseModel__v_s f4 [100, 100, 2]
-0.54695827 0.49790752 1.9149387 -7.069149 -0.43760037 -0.7122591 0.36895 0.55378467
-0.5119482 0.38435417 2.954977 -0.7454297 -0.95194876 0.54758114 5.910843 0.77328306
-0.3964423 0.46667656 -7.4520354 -6.692007 -0.85615367 0.30681196 -0.962156 7.0027943
-0.58138496 1.1649469 -3.4595733 4.999251 -0.5202991 0.53805536 -0.46027735 0.52818334
-0.647608 0.5483105 -0.3807135 0.021433286 -0.58798313 0.1938363 -0.47480395 0.5730005
-0.49552518 0.2166887 5.7335334 -1.2308933 -0.4486951 0.88057077 -2.1028447 0.90295136
-0.5073869 -0.48777694 -0.41952783 0.9017601 -4.3801956 2.5424578 8.703057 -0.9488172
-1.075706 -6.994564 -3.9252856 -6.931137 -0.507438 0.57376647 -0.6677175 0.51458335
-0.5178641 1.0241001 -0.46357527 0.5950957 -0.53596187 0.5296315 -0.47505417 0.08072898
-0.60888445 0.55601454 -0.57332635 0.5479259 -0.51308405 0.65153015 -0.50306875 0.59943205
-0.2891826 0.23207112 -9.578584 2.598908 -9.590209 11.400451 -9.715694 5.18791
-0.73763704 0.40359437 2.146983 7.7627354 -0.47184357 0.123713434 -0.49830619 0.54560024
8.227102 -2.4879453 -0.9512706 0.14551222 -0.5372163 0.57571054 -0.47550577 0.45667773
-0.5232328 0.556145 4.879544 5.724451 -0.3935144 0.59489447 -0.49854794 0.56805
-1.230375 9.801294 -0.46122524 0.5534772 -3.1156402 3.3229654 -0.5153786 0.60250866
-0.46742305 0.57682496 -1.1277591 0.48731738 0.26106519 0.53634435 3.834014 8.110737
-0.51760256 0.44371104 9.08773 3.2099624 1.3999892 0.4133754 -0.6982844 0.22148094
-0.39497456 0.49456587 -0.45472613 0.36081725 6.1286883 -1.9357634 5.453318 -1.2986015
-0.47849914 0.66825956 0.6211482 2.1513119 -0.4842082 0.54949695 -0.49323827 0.43258935
-0.65160674 2.528932 -0.5067796 0.5886153 -0.5465099 0.546741 -0.52337873 0.2571491
-0.49480337 0.59926593 -0.5058593 0.54600424 -4.4931326 4.9676614 -0.4991671 0.38456976
-5.476116 -5.8025556 -0.27896824 0.151768 -0.414089 0.5826634 -0.44164336 0.5730156
-6.046506 10.48302 3.663146 -4.614488 -9.946972 -6.1197343 -2.3188548 1.0697098
3.318761 -8.659166 4.316095 -7.5508614 -0.4832592 0.4633247 -0.75944734 0.5369966
-0.2227044 0.7693796 -10.044491 -0.30653882 -0.6176869 0.57185096 -0.47736326 0.5591413
0.27421984 0.51850456 4.227504 -10.727451 0.09805238 0.35655737 0.9468862 0.6670984
0.28722486 0.6717146 1.0325004 -0.03447087 0.101449065 0.5476914 10.991065 -6.951018
0.002622392 0.49041116 0.6833384 -4.8615837 0.21104701 0.54588735 1.0551784 -0.6514926
0.21397893 0.17070499 -2.5407953 1.6514727 0.2959358 0.49734384 0.2332797 0.53315103
0.25400096 0.49236137 0.29209414 0.67404586 0.4444133 0.54681146 0.2940822 0.52664137
0.25432962 0.53160226 4.624433 -0.9291435 0.24174964 0.36701775 1.5454183 0.2712047
0.24334729 0.34533876 0.26961416 0.68346167 -0.7000584 2.384499 8.55606 0.44335982
00000000: 7505 0cbf bced fe3e b61c f53f 7836 e2c0
00000010: 280d e0be 9d56 36bf 04e7 bc3e d5c4 0d3f
00000020: 0a0f 03bf 12ca c43e 581e 3d40 7bd4 3ebf
00000030: eab2 73bf 472e 0c3f a025 bd40 e1f5 453f
00000040: 7cfa cabe 3bf0 ee3e 1377 eec0 ec24 d6c0
00000050: e32c 5bbf 7516 9d3e db4f 76bf e416 e040
00000060: a5d5 14bf fb1c 953f a669 5dc0 ddf9 9f40
00000070: 5232 05bf ffbd 093f 79a9 ebbe 0637 073f
00000080: a3c9 25bf 145e 0c3f e1ec c2be dc94 af3c
00000090: 1086 16bf 067d 463e 8119 f3be 29b0 123f
000000a0: 7ab5 fdbe a4e3 5d3e 1b79 b740 e98d 9dbf
000000b0: 5dbb e5be 166d 613f 0295 06c0 d227 673f
000000c0: 1ce4 01bf e6bd f9be 5acc d6be c0d9 663f
000000d0: 902a 8cc0 a1b7 2240 b93f 0b41 afe5 72bf
000000e0: bcb0 89bf 78d3 dfc0 e137 7bc0 e0cb ddc0
000000f0: 75e7 01bf 5ce2 123f 89ef 2abf bcbb 033f
00000100: be92 04bf b615 833f bd59 edbe 3158 183f
00000110: cc34 09bf ee95 073f 4d3a f3be 3c55 a53d
00000120: dadf 1bbf f856 0e3f 84c5 12bf df44 0c3f
00000130: 7a59 03bf aeca 263f 1dc9 00bf 6174 193f
00000140: be0f 94be 0da4 6d3e e141 19c1 8254 2640
00000150: 7f71 19c1 3f68 3641 7c73 1bc1 5c03 a640
00000160: c8d5 3cbf eca3 ce3e 2b68 0940 5468 f840
00000170: 7b95 f1be 785d fd3d fd21 ffbe 75ac 0b3f
00000180: 36a2 0341 7f3a 1fc0 7886 73bf 2801 153e
00000190: 0287 09bf c461 133f 7e75 f3be aad1 e93e
000001a0: 96f2 05bf 855f 0e3f 3925 9c40 b42e b740
000001b0: b87a c9be 014b 183f ad41 ffbe ba6b 113f
000001c0: ee7c 9dbf 1ad2 1c41 b725 ecbe afb0 0d3f
000001d0: a666 47c0 77ab 5440 daef 03bf 023e 1a3f
000001e0: 1352 efbe cdaa 133f 695a 90bf aa81 f93e
000001f0: 56aa 853e dd4d 093f 7c60 7540 94c5 0141
00000200: 9a81 04bf 182e e33e 5867 1141 0670 4d40
00000210: d932 b33f f1a5 d33e c4c2 32bf e6cb 623e
00000220: 1b3a cabe bd37 fd3e ddd1 e8be 0abd b83e
00000230: 371e c440 18c7 f7bf 9581 ae40 9338 a6bf
00000240: d7fd f4be 0f13 2b3f 9203 1f3f 18af 0940
00000250: 23ea f7be d5ab 0c3f ba89 fcbe 5a7c dd3e
00000260: b3cf 26bf 06da 2140 4fbc 01bf 7eaf 163f
00000270: 13e8 0bbf 38f7 0b3f 26fc 05bf 0ca9 833e
00000280: de56 fdbe 7e69 193f ff7f 01bf efc6 0b3f
00000290: bec7 8fc0 15f7 9e40 d592 ffbe 54e6 c43e
000002a0: 583c afc0 89ae b9c0 edd4 8ebe 1269 1b3e
000002b0: 7903 d4be 6e29 153f 141f e2be 26b1 123f
000002c0: fa7c c1c0 73ba 2741 fc70 6a40 e3a9 93c0
000002d0: cc26 1fc1 ddd4 c3c0 1e68 14c0 40ec 883f
000002e0: 9566 5440 f28b 0ac1 731d 8a40 a8a0 f1c0
000002f0: c06d f7be e538 ed3e 246b 42bf 9c78 093f
00000300: 9f0c 64be 10f6 443f 3cb6 20c1 a8f2 9cbe
00000310: bb20 1ebf d364 123f f568 f4be e223 0f3f
00000320: 8b66 8c3e b7bc 043f b647 8740 a4a3 2bc1
00000330: b0cf c83d b08e b63e 2267 723f f6c6 2a3f
00000340: 230f 933e 7df5 2b3f f928 843f 5431 0dbd
00000350: 87c4 cf3d 8135 0c3f 67db 2f41 bd6e dec0
00000360: 70dc 2b3b 2c17 fb3e 44ef 2e3f 1892 9bc0
00000370: b51c 583e 46bf 0b3f 1610 873f 38c8 26bf
00000380: 4b1d 5b3e 4acd 2e3e 649c 22c0 7563 d33f
00000390: e684 973e daa3 fe3e e0e0 6e3e 967c 083f
000003a0: 6a0c 823e ca16 fc3e 5d8d 953e 458e 2c3f
000003b0: 248a e33e d6fb 0b3f f191 963e f8d1 063f
000003c0: 7e37 823e 1617 083f 5bfb 9340 59dc 6dbf
000003d0: 388d 773e c0e9 bb3e 44d0 c53f 58db 8a3e
000003e0: 0830 793e 3ed0 b03e de0a 8a3e 58f7 2e3f
000003f0: 0737 33bf a29b 1840 9fe5 0841 0f00 e33e

_BaseModel__beta_s f4 [2]
2.8628874 -1.3505408
00000000: 8c39 3740 85de acbf

_BaseModel__prior_b_sigma_s f4 [100]
-3.0226102 -4.1342063 -2.7477977 -3.010164 -2.9102366 -3.0479677 -2.8475354 -2.2177105
-1.3473667 1.9441485 -1.6589758 -3.245044 -2.986431 -4.0901575 -4.5739603 -4.6769004
-4.22144 -3.2546122 -3.051625 -3.5983799 -3.3969965 -2.6838956 1.7118458 1.8048627
-1.7782537 -1.2225375 -0.47209626 2.2377453 -0.11141831 0.024669595 -1.5014937 -3.428719
-1.9709411 -1.5983598 -1.4223888 -1.1507849 3.81943 3.9122815 6.197651 8.388718
6.2360134 3.9466684 3.8844516 3.8122904 -1.6821085 2.087203 2.154532 2.2742846
2.322436 2.0890148 2.0290632 -2.1599169 -3.2481937 -3.4631612 -3.107766 -1.3470473
-0.91231537 1.78599 1.9400148 2.0882587 2.35234 2.4368622 -0.73624635 2.2338936
2.6809094 3.9084687 3.9206424 3.9640055 6.1370387 6.147266 6.2404947 8.384583
6.20366 3.1174347 2.5868464 2.4840424 2.327336 3.8609302 3.831 -0.8039355
1.8678771 2.0231373 2.1356041 3.7483263 2.1990678 3.8203144 3.8219745 3.786124
2.615464 3.7953956 3.9289749 3.9023626 3.8802161 6.1719265 6.1427274 8.331881
8.334088 8.374306 9.484341 9.484768
00000000: 7272 41c0 6b4b 84c0 ebdb 2fc0 87a6 40c0
00000010: 5141 3ac0 e711 43c0 053e 36c0 f8ee 0dc0
00000020: 8376 acbf dcd9 f83f 5259 d4bf cdae 4fc0
00000030: af21 3fc0 92e2 82c0 e25d 92c0 2ba9 95c0
00000040: 0916 87c0 914b 50c0 d34d 43c0 db4b 66c0
00000050: 6468 59c0 f2c4 2bc0 c31d db3f be05 e73f
00000060: d19d e3bf 1c7c 9cbf 9ab6 f1be 3837 0f40
00000070: 482f e4bd e417 ca3c f230 c0bf 2270 5bc0
00000080: cc47 fcbf 0e97 ccbf d610 b6bf eb4c 93bf
00000090: 8b71 7440 d262 7a40 2853 c640 3038 0641
000000a0: 6c8d c740 3796 7c40 db9a 7840 91fc 7340
000000b0: 554f d7bf bc94 0540 dae3 0940 e18d 1140
000000c0: cba2 1440 6bb2 0540 2cdc 0140 143c 0ac0
000000d0: 68e2 4fc0 6fa4 5dc0 a3e5 46c0 0c6c acbf
000000e0: 808d 69bf 529b e43f 6852 f83f 08a6 0540
000000f0: bd8c 1640 8df5 1b40 a47a 3cbf 1df8 0e40
00000100: 0594 2b40 5a24 7a40 ceeb 7a40 44b2 7d40
00000110: 9f62 c440 67b6 c440 22b2 c740 4127 0641
00000120: 6284 c640 0d84 4740 e48e 2540 8dfa 1e40
00000130: 13f3 1440 7b19 7740 1b2f 7540 b8ce 4dbf
00000140: 9916 ef3f 157b 0140 bdad 0840 94e4 6f40
00000150: 87bd 0c40 0880 7440 3b9b 7440 db4f 7240
00000160: c363 2740 c3e7 7240 5374 7b40 4fc0 7940
00000170: 7655 7840 6c80 c540 3991 c440 624f 0541
00000180: 6d58 0541 28fd 0541 dcbf 1741 9cc1 1741

_BaseModel__prior_c_sigma_s f4 [100]
-4.550398 7.2467623 -3.1799867 -3.4259815 -5.4522634 -2.114767 -4.2420635 6.713448
-2.1566014 6.7136908 -3.3467295 6.711324 -4.0603895 6.711676 -6.1992483 -5.316304
-5.144532 -4.3894815 -4.404348 -4.7528114 -5.3018017 7.24363 -6.204974 7.539623
-3.579446 -6.2990108 6.71202 7.2439394 6.7112355 6.7113566 -7.420188 -6.5808926
-5.3537164 -6.774885 -7.5958834 -6.0033293 -6.869722 -5.7345657 -6.5756125 -6.4601345
-5.8784037 7.2463007 7.2472725 7.2472587 -3.5851169 6.712599 -4.736655 -5.065909
7.726965 -4.23431 -5.844192 -5.18062 -4.8124957 6.7122517 -7.102716 -7.426362
6.7136116 -6.7478414 6.710754 -5.1060567 -3.7085621 -3.5124376 -4.75562 7.5417953
-6.34924 7.2473464 -3.331686 -3.0013967 -4.1628146 -2.3596525 6.7119875 7.2450976
-5.588445 6.7108245 -6.685079 -4.344962 7.2473025 -5.7758636 -6.1601324 -5.1965885
-5.370756 -4.2169304 7.2458205 -5.5677943 7.246437 -3.886021 -5.8879166 -5.179168
7.245325 6.711164 7.2472053 7.244932 6.7138257 7.2458234 -3.5818074 -2.3339486
-4.0378327 6.7113385 -6.0373673 -4.6135783
00000000: dc9c 91c0 7ae5 e740 e784 4bc0 4843 5bc0
00000010: f178 aec0 5858 07c0 fcbe 87c0 91d4 d640
00000020: c205 0ac0 8ed6 d640 d130 56c0 2bc3 d640
00000030: b6ee 81c0 0dc6 d640 3e60 c6c0 2a1f aac0
00000040: 02a0 a4c0 a276 8cc0 6bf0 8cc0 0817 98c0
00000050: 5ca8 a9c0 d1cb e740 268f c6c0 9744 f140
00000060: a515 65c0 7f91 c9c0 dec8 d640 5ace e740
00000070: 71c2 d640 6fc3 d640 2e72 edc0 ac96 d2c0
00000080: a551 abc0 dccb d8c0 7a11 f3c0 461b c0c0
00000090: c3d4 dbc0 9081 b7c0 6b6b d2c0 6cb9 cec0
000000a0: e21b bcc0 b2e1 e740 a8e9 e740 8be9 e740
000000b0: 8e72 65c0 9ccd d640 ae92 97c0 ed1b a2c0
000000c0: 4c43 f740 787f 87c0 9f03 bbc0 a4c7 a5c0
000000d0: f7ff 99c0 c4ca d640 7349 e3c0 c2a4 edc0
000000e0: e8d5 d640 51ee d7c0 7fbe d640 d164 a3c0
000000f0: 1559 6dc0 c7cb 60c0 0a2e 98c0 6356 f140
00000100: f92c cbc0 43ea e740 583a 55c0 e216 40c0
00000110: c735 85c0 8c04 17c0 9ac8 d640 d7d7 e740
00000120: 8bd4 b2c0 13bf d640 2bec d5c0 ee09 8bc0
00000130: e7e9 e740 e0d3 b8c0 ce1f c5c0 744a a6c0
00000140: 3cdd abc0 18f1 86c0 c3dd e740 5f2b b2c0
00000150: d0e2 e740 91b4 78c0 d069 bcc0 bfbb a5c0
00000160: b4d9 e740 dbc1 d640 1be9 e740 7cd6 e740
00000170: a9d7 d640 c9dd e740 553c 65c0 6a5f 15c0
00000180: ed35 81c0 49c3 d640 1d32 c1c0 6fa2 93c0
