experiments/models_mr=0.1_cr=0.1_pr=0.1/residual_synthetic_n=100_seed=16_B=100_lambda=1e8_dim=2_epoch=300_spe=10_bs=100_lr=0.1_seed=30.model (torch, 84927 bytes, 5 tensors)

_BaseModel__x0_s f4 [100, 2]
000000 90 87 be bf 22 ca 1f 3f 74 2f 05 c0 33 f9 7e be
       -1.488512 0.62417805 -2.0810213 -0.2489975
000010 ee 9e a0 bf 44 06 84 3e 7f 6f d4 bf cb 38 6a 3e
       -1.2548501 0.2578603 -1.6596526 0.22873227
000020 f1 ad e9 bf 4f f8 ed 3e ce e1 bc bf c9 70 a7 be
       -1.8256208 0.46478507 -1.475641 -0.32703236
000030 89 46 87 bf 6b 53 14 3f 79 be d0 bf 95 1f ad be
       -1.0568401 0.57939786 -1.6308128 -0.33813158
000040 86 53 94 bf f2 3b da bd 33 4e bf bf 83 2d 05 3e
       -1.1587989 -0.10655965 -1.494574 0.13005643
000050 47 4f b0 3f 24 7a aa be d5 c1 a7 3f 92 f6 33 bd
       1.3774194 -0.3329631 1.3106028 -0.04393632
000060 3e 9f 06 40 a1 9a a9 be 93 09 94 3f b1 5d 84 3e
       2.1034694 -0.33125785 1.1565422 0.2585273
000070 c4 58 d9 3f f5 72 47 be 26 04 93 3f 48 8c cb 3d
       1.6980214 -0.19477446 1.1485641 0.09938866
000080 8c 51 c7 3f 7c b1 93 3e f9 9e 9a 3f 16 d5 a9 3d
       1.5571761 0.28846347 1.2079765 0.08292596
000090 64 38 b2 3f db 2f 6a 3e 7b f2 84 3f c0 e0 08 3e
       1.3923459 0.22869818 1.0386499 0.13366985
0000a0 c0 27 31 c0 51 e1 c6 3f c0 5d 57 c0 9a e6 ca 3f
       -2.7680511 1.5537511 -3.365097 1.5851624
0000b0 64 58 4d c0 3b f8 dc 3f 01 ed 35 c0 22 78 92 3f
       -3.20852 1.7263254 -2.8425906 1.1442912
0000c0 5d 1c 84 c0 7e 15 8a 3f 74 cb 73 c0 55 76 cf 3f
       -4.1284623 1.0787809 -3.8092928 1.6207987
0000d0 81 82 63 c0 3e 38 a1 3f 3a 2f 3e c0 f1 72 e3 3f
       -3.5548403 1.2595289 -2.9716325 1.7769452
0000e0 af 61 49 c0 f8 b2 ce 3f e8 6e 79 c0 8e a2 88 3f
       -3.1465871 1.6148367 -3.8973942 1.0674608
0000f0 0e 45 d3 3f 1e 40 98 bf e7 3b 06 40 70 08 d2 bf
       1.6505449 -1.1894567 2.0974061 -1.6408825
000100 ad e4 d7 3f 0a ef e7 bf 44 08 f6 3f 69 b9 b0 bf
       1.6866661 -1.8119824 1.9221272 -1.3806583
000110 fe 84 f7 3f 62 68 91 bf 7d 36 1e 40 b3 93 a8 bf
       1.9337461 -1.135998 2.4720757 -1.3170074
000120 6d 08 c0 3f 75 b8 a5 bf e2 68 0d 40 b3 4e ad bf
       1.5002571 -1.2946917 2.2095265 -1.3539642
000130 c3 30 01 40 2b bd ff bf 91 0a 29 40 d3 ea 80 bf
       2.0186012 -1.9979604 2.64127 -1.0071663
000140 da 87 51 c0 e2 bc 49 c0 de 18 51 c0 90 11 f5 bf
       -3.2739167 -3.1521535 -3.2671428 -1.9145985
000150 07 6f 2c c0 4f 14 15 c0 27 75 63 c0 36 bb 46 c0
       -2.6942766 -2.3293645 -3.5540254 -3.1051764
000160 73 ba 2e c0 3e ee 30 c0 cc f2 44 c0 c1 3c 10 c0
       -2.73013 -2.7645411 -3.0773191 -2.2537081
000170 a3 78 50 c0 5b 95 40 c0 91 4c 5b c0 b8 69 15 c0
       -3.257363 -3.009116 -3.4265482 -2.3345776
000180 91 2c 4f c0 6e 2c 27 c0 20 98 33 c0 2c 56 32 c0
       -3.237095 -2.6120868 -2.80616 -2.7865095
000190 85 67 55 40 ea 1e c7 3f be a7 1c 40 43 47 12 40
       3.3344433 1.5556309 2.4477382 2.2855995
0001a0 7f fe 45 40 a0 92 df 3f 19 d6 3a 40 81 75 aa 3f
       3.0936582 1.7466621 2.9193175 1.3317109
0001b0 1a 0b 26 40 53 91 01 40 ce 6f 08 40 b8 7d 05 40
       2.5944276 2.024495 2.131824 2.0857983
0001c0 f3 2d 43 40 ff 18 91 3f 10 a0 06 40 28 20 12 40
       3.0496795 1.1335753 2.1035194 2.2832127
0001d0 1e 88 37 40 c0 85 17 40 ed fe 2d 40 6e bd fe 3f
       2.867683 2.3675385 2.7186844 1.9901559
0001e0 7f ea af 40 9a 96 f4 3e ab b5 8e 40 bc 1f 60 3f
       5.497375 0.4777115 4.4596763 0.8754842
0001f0 fb db 8b 40 c7 fc d0 3e 67 5b 93 40 ac 7d e5 3f
       4.370603 0.40817854 4.6049075 1.7928977
000200 51 59 a0 40 f8 01 11 3f c8 41 8a 40 5c f1 05 3f
       5.010903 0.5664363 4.32053 0.5232141
000210 03 7e 9a 40 42 a3 6e 3f 9a 5e a2 40 b7 e0 9b 3f
       4.8278823 0.9321786 5.074048 1.2177953
000220 5c 33 92 40 42 ce 7e 3f 4b 6f 97 40 31 5a 88 3f
       4.5687695 0.99533474 4.7323356 1.0652524
000230 97 66 1d be 31 eb a3 3f 00 03 74 bd e1 fb ab 3f
       -0.15371166 1.280615 -0.059573174 1.3436242
000240 5c 45 3c bf 7a be ec 3f c0 30 9c bf 34 01 08 40
       -0.73543334 1.8495629 -1.2202377 2.1250734
000250 4a dc b5 bf 0a ee 12 40 6c 67 2f bf a7 05 0a 40
       -1.4207852 2.2957788 -0.68517184 2.156595
000260 12 67 f2 be 60 5e d7 3f 5d 3e 64 bf 64 7d 02 40
       -0.4734426 1.6825676 -0.8915766 2.0389032
000270 13 63 b6 bf 6a 04 ed 3f a6 18 88 be bf 2d 13 40
       -1.4248985 1.8516972 -0.26581305 2.2996671
000280 e4 6d 1a bf e1 68 7d be 7c 06 2c be 3c 5e 41 bf
       -0.6032393 -0.2474704 -0.16799349 -0.75534415
000290 87 0d 18 bf 0e e3 8e bd 84 e7 e7 be 29 33 15 bf
       -0.5939564 -0.06976901 -0.4529382 -0.5828119
0002a0 c3 f9 2e bf 78 1b 83 bd 8d e5 c1 be b9 41 02 be
       -0.68349856 -0.064017236 -0.37870446 -0.12720384
0002b0 b7 a6 0f be ce bd b8 3d 4f 41 61 bd 46 b6 8f bf
       -0.1402844 0.09020577 -0.054993924 -1.12275
0002c0 e5 77 bb be d8 65 03 bf f1 97 dd be a6 c4 9e be
       -0.3661491 -0.51327276 -0.43279985 -0.31009406
0002d0 7e 9f 9d 3d d1 f3 96 c0 12 84 1c 3e 5c c3 77 c0
       0.07696436 -4.7172627 0.15284756 -3.8712988
0002e0 d9 c3 ca be 5d 26 81 c0 b8 e5 da be 36 93 74 c0
       -0.39602545 -4.035933 -0.42753386 -3.821485
0002f0 c8 c1 cc be 7d 0b 85 c0 74 f1 af 3c 13 44 85 c0
       -0.39991593 -4.1576524 0.021477439 -4.16456
000300 b3 5c 0b be 19 d4 83 c0 ae 80 3f bf 70 5e 3e c0
       -0.1360958 -4.119641 -0.74805725 -2.974514
000310 3e e7 04 3f 0c c4 71 c0 fe 9f 47 3f 20 74 94 c0
       0.5191535 -3.7775908 0.77978504 -4.6391754

_BaseModel__v_s f4 [100, 100, 2]
000000 ea 2c 17 bf 27 86 17 bf cc 41 b2 3e 78 cc 33 bf
       -0.5905291 -0.59189075 0.34815824 -0.7023387
000010 ee 17 b7 c0 5a 6c 2b bf 58 4e 61 c0 79 6f f4 be
       -5.721671 -0.66962206 -3.5204067 -0.47741297
000020 2a d5 1d be 48 65 73 c0 80 e0 16 c1 c9 3c b6 be
       -0.15413347 -3.8030567 -9.42981 -0.3559325
000030 ca 0d 77 c0 43 d9 07 bf d4 5a 92 3d 6e fc 8f 40
       -3.8602166 -0.5306589 0.0714623 4.499564
000040 02 10 d8 c0 31 a0 a7 40 b2 c0 92 3f fe 75 a4 bf
       -6.751954 5.2383046 1.1465056 -1.2848508
000050 9d 68 3e 3f 57 0c 96 3f 33 bf 23 40 51 ac 59 c0
       0.7437838 1.1722516 2.5585449 -3.4011424
000060 f2 ec ea 3e 07 8d 1b bf 09 86 81 3f 78 43 68 bf
       0.458839 -0.60762066 1.0119029 -0.9072795
000070 5c 06 68 40 6c b8 79 bf 00 c4 b6 3a f9 20 56 bf
       3.6253881 -0.9754703 0.0013943911 -0.8364406
000080 d5 e3 4b 40 93 5d 17 c0 10 04 f2 3e f5 46 ef bf
       3.1857808 -2.3650863 0.47268724 -1.8693529
000090 78 95 56 40 04 39 18 40 4d 6a a0 3e 3d 34 69 bf
       3.3528728 2.37848 0.313311 -0.91095334
0000a0 ca 27 8b c0 b8 42 76 40 42 cb 97 bd c0 6d 23 40
       -4.348607 3.8478222 -0.07411815 2.5535736
0000b0 a2 7c e8 3e 68 fa de 3f 2c d6 2b c0 93 f9 84 bf
       0.45407587 1.7420168 -2.684947 -1.0388664
0000c0 24 e0 aa 3e 59 87 8c be 13 83 87 3f e5 94 68 3f
       0.3337413 -0.27447012 1.0586876 0.90852195
0000d0 76 db 70 3f d3 59 bf 3f a3 77 55 be 22 1f 15 40
       0.9408487 1.4949287 -0.20846419 2.3300252
0000e0 8b 3c 9e c0 6d 6f 80 be 31 4e 5a c0 c0 83 0a 40
       -4.9448905 -0.2508501 -3.4110224 2.1642914
0000f0 ab 5d 2e 40 4c d2 fc 3e 6b a6 04 3f 54 02 b5 bf
       2.724467 0.49379194 0.51816434 -1.4141335
000100 cd 06 cf 3e b6 a0 09 bf 07 3e 42 3e c0 a9 f5 3c
       0.40434876 -0.5376085 0.18968974 0.02998817
000110 c5 5f e7 3e 2f 92 11 c0 f7 7f 5a 40 a2 b1 9b bf
       0.45190254 -2.2745473 3.4140604 -1.2163584
000120 11 a9 e0 3e 94 11 f8 3e a4 18 23 40 9c 8d 39 c0
       0.43878987 0.4845091 2.548379 -2.8992682
000130 b0 5f 3f bd df 1f 0d c0 c8 f5 b7 40 d1 f8 bb bf
       -0.046722114 -2.2050703 5.7487526 -1.4685308
000140 24 80 70 c0 4a c5 a8 c0 fc f2 01 c1 8b f4 bf c0
       -3.757821 -5.274083 -8.121822 -5.9986014
000150 d9 00 3f 3f 15 19 a0 bf 7a d3 45 3f e0 6b 6c be
       0.7461067 -1.2507654 0.7727581 -0.23088026
000160 40 8d 5a c0 30 90 11 bf db 9a a6 c0 10 60 17 3e
       -3.4148712 -0.5686064 -5.2064033 0.14782739
000170 2e 33 bc c0 c9 f5 b5 c0 1f 89 03 c1 7c a9 b1 c0
       -5.8812475 -5.686253 -8.220977 -5.551939
000180 30 f9 df c0 be 3d c2 be 6a 8d b1 bf 3a 9e 2e c0
       -6.9991684 -0.3793773 -1.3871281 -2.7284074
000190 7c e3 0b be 35 1f 24 bf 06 b4 50 3e cb a0 95 bf
       -0.13660997 -0.6411012 0.20381173 -1.1689695
0001a0 24 76 0e be 11 49 59 bd bc d2 a4 40 e2 11 4a 40
       -0.13912255 -0.053048197 5.1507244 3.1573415
0001b0 0e 31 53 3d 5c 81 6d be 42 95 a2 40 1a b8 ef be
       0.051560454 -0.23193878 5.08072 -0.46820146
0001c0 91 67 10 40 f4 ff 31 40 7b 4a 82 40 30 09 d6 3f
       2.2563212 2.7812471 4.071592 1.6721554
0001d0 53 8b b8 40 22 38 89 bf e2 37 7c bd 04 07 47 bf
       5.7670074 -1.0720255 -0.06157673 -0.7774508
0001e0 4a 9a c5 40 03 1b cd be 89 81 cc 3f 32 75 35 bf
       6.175084 -0.4005967 1.5977031 -0.7088195
0001f0 de e4 02 41 08 23 42 c0 3d bf 81 40 95 b9 a2 3f
       8.180876 -3.0333881 4.0545945 1.2712885
000200 68 39 7d 3f 5f cc bd bf d5 b4 02 41 82 83 17 be
       0.9891572 -1.4827994 8.169148 -0.1479626
000210 28 3e c2 3e 89 99 1a 3e d2 40 98 40 77 1a a7 bf
       0.37938046 0.15097632 4.7579126 -1.3054951
000220 98 ac 98 3e 7b b4 86 bf 62 d3 ac 3d 1e 54 d7 3f
       0.2981918 -1.0523828 0.084387556 1.6822546
000230 99 d6 01 be a1 b0 ff 3d 47 92 61 3f ca e6 a4 be
       -0.12679519 0.12484861 0.88113827 -0.32207328
000240 38 56 ab be a9 98 97 40 0c f1 02 3d 12 b7 34 bf
       -0.33464217 4.7373853 0.03196816 -0.70591843
000250 14 54 28 c0 a0 87 15 bf c0 91 2e 3f 7a 98 db 3f
       -2.6301317 -0.5841007 0.68191147 1.7155907
000260 0f 6d b8 bf 7d b0 81 be dc cd 1c be 9c 6f 16 40
       -1.4408282 -0.25329962 -0.15312904 2.350562
000270 b0 0f 55 3f cf aa 06 40 0e 71 47 be 62 71 06 bf
       0.8322706 2.1041753 -0.1947672 -0.5251676
000280 82 a2 80 3f 59 c2 83 bf c8 5d e9 3e 0a 01 d0 be
       1.0049593 -1.0293685 0.45579362 -0.40625793
000290 f1 18 9e 3f b6 67 67 40 40 60 f5 3d 0c d2 82 3e
       1.2351362 3.615705 0.11981249 0.25550878
0002a0 c6 c2 e3 3d 18 db b3 3f 8c c3 50 3f 00 05 6f bf
       0.111211345 1.4051237 0.8154838 -0.93367004
0002b0 da 8e 5b 3e 4b 7c b6 3f 68 85 75 40 0a 5d 35 bf
       0.21441212 1.4256681 3.8362675 -0.7084509
0002c0 20 9d 87 3f b9 06 68 3e 96 ba 9f 3e 1d 53 33 c0
       1.0594826 0.22658814 0.3119704 -2.8019478
0002d0 ef 07 ae be 20 9c 34 c0 4d cc e3 3f 99 2d a4 c0
       -0.33990428 -2.822029 1.7796723 -5.130566
0002e0 04 fc 3b bf 6b 31 b5 c0 f4 1c b8 3e 37 17 d6 c0
       -0.7343142 -5.6622825 0.3595959 -6.690334
0002f0 22 8e 9e 3d 09 47 d0 bd e8 3c 15 3f ff b8 5b be
       0.077419534 -0.10169799 0.5829606 -0.21457289
000300 0c 5b 74 40 12 2b 11 c1 97 29 7a 40 8a cd 15 c1
       3.818057 -9.073015 3.9087884 -9.36268
000310 5a 04 40 c0 1a f2 ad c0 eb 53 9b bf 13 a8 05 c1
       -3.0002656 -5.4358034 -1.2134985 -8.353534
000320 5e 9c 9c bf 9b a7 cb bf 8b f3 81 bf 40 35 a3 bc
       -1.223522 -1.5910524 -1.0152448 -0.019922853
000330 89 e6 74 c0 ad c3 e7 be f8 f8 bb be 9f d7 dd be
       -3.8265707 -0.45266476 -0.36713386 -0.43328568
000340 7a 4a 4a c0 74 af 96 c0 6e 13 ed c0 d0 d9 0b 40
       -3.1607957 -4.7089176 -7.408622 2.1851692
000350 df 1d 32 c0 fb fb 0e c0 83 98 5f c0 74 c1 6b 40
       -2.7830732 -2.2341297 -3.4936836 3.6836824
000360 33 4a a5 c0 b0 f2 2c 3c 50 79 7a 3e 1d a7 7e bf
       -5.1653075 0.010555908 0.2446034 -0.99473745
000370 8b da 28 c0 3c b1 51 3f 1c 30 34 bd 1a 1c a5 3e
       -2.6383388 0.81911063 -0.043991193 0.32248002
000380 1b 50 fb bf cc 02 24 bf b7 72 04 40 28 07 0d bf
       -1.9633821 -0.6406677 2.0695016 -0.55089045
000390 a9 33 53 40 d1 61 26 be 0c bf 24 3f 8e 7d 14 bf
       3.300028 -0.16248251 0.64354014 -0.5800408
0003a0 b1 02 58 40 68 84 19 c0 3d 4a 57 3f ff 8f df be
       3.3751643 -2.3987064 0.84097654 -0.43664548
0003b0 1e 2c fe 3f 3a 30 1a 40 0f 84 09 3e b8 db 35 bf
       1.9857213 2.4091935 0.13429283 -0.7103839
0003c0 ca 50 84 c0 84 89 6b 40 2c fa ad 3c a6 e6 d7 3f
       -4.134862 3.6802683 0.021237455 1.6867263
0003d0 43 37 b4 bf 5e 1b e2 3f cc 58 1b bf 74 fc 96 be
       -1.4079365 1.7664602 -0.6068237 -0.2948948
0003e0 4b f5 9f 3f 43 ef 3a 3f 1d 30 8c 3d 9b a6 68 3f
       1.2496732 0.73021334 0.068451144 0.9087922
0003f0 7c d2 03 be 16 13 71 3f 82 69 95 3e 34 4c 1f 40
       -0.12873262 0.9416975 0.2918206 2.489026

_BaseModel__beta_s f4 [2]
000000 b4 1e 50 40 71 12 74 bf
       3.251874 -0.9534064

_BaseModel__prior_b_sigma_s f4 [100]
000000 0e c8 90 c0 97 21 94 c0 d3 46 8d c0 ae c8 8e c0
       -4.5244207 -4.6291003 -4.4148955 -4.461997
000010 9d ec 8d c0 49 59 8d c0 0d a2 85 c0 c8 d1 87 c0
       -4.4351335 -4.417149 -4.1760316 -4.244358
000020 5b e1 77 c0 c3 5a 65 c0 4e 19 6a c0 9e 4e 88 c0
       -3.8731296 -3.5836647 -3.6577945 -4.259597
000030 b3 23 81 c0 de 54 88 c0 2a 34 8a c0 7b 05 93 c0
       -4.035608 -4.26036 -4.3188677 -4.594419
000040 74 f8 95 c0 bc cc 93 c0 ef 13 92 c0 4d 31 8b c0
       -4.6865788 -4.618742 -4.5649333 -4.349768
000050 9e bb 87 c0 3d bf 73 c0 fc ed 57 c0 eb 3a 4d c0
       -4.2416525 -3.8085473 -3.3739004 -3.206721
000060 e6 e9 5c c0 85 06 5f c0 d4 a7 49 c0 38 fd 3d c0
       -3.451776 -3.484773 -3.1508684 -2.9685802
000070 e1 0c 41 c0 b9 3a 3e c0 ce 01 63 c0 83 78 8f c0
       -3.016411 -2.9723341 -3.5469851 -4.483461
000080 e1 01 8f c0 fd 71 89 c0 78 28 91 c0 2b 5e 8e c0
       -4.4689794 -4.2951646 -4.53619 -4.448995
000090 10 fb 7e c0 c9 01 5e c0 79 05 41 c0 a8 9b 24 c0
       -3.9840736 -3.468859 -3.015959 -2.5720005
0000a0 06 2b 23 c0 ed 2e 40 c0 c2 23 4f c0 80 56 5f c0
       -2.549501 -3.0028641 -3.2365575 -3.4896545
0000b0 af d4 7a c0 01 c7 7c c0 18 b8 7f c0 4f e0 7b c0
       -3.9192312 -3.9496462 -3.9956112 -3.9355657
0000c0 a3 ef 75 c0 62 e1 7c c0 4f c2 82 c0 0a 46 8e c0
       -3.8427513 -3.9512563 -4.0862193 -4.4460497
0000d0 ce d8 9f c0 e7 17 9d c0 73 ce 99 c0 aa 12 8d c0
       -4.9952154 -4.909168 -4.8064513 -4.4085283
0000e0 31 8c 8a c0 25 c0 99 c0 3e 2c 93 c0 85 f9 88 c0
       -4.329613 -4.804705 -4.5991507 -4.280459
0000f0 2a 8d 7a c0 b1 ab 6f c0 a8 a8 7b c0 92 d8 71 c0
       -3.914866 -3.7448542 -3.932169 -3.7788434
000100 53 56 75 c0 2f a9 66 c0 2e 0c 63 c0 df 83 61 c0
       -3.8333938 -3.6040761 -3.5476184 -3.5236738
000110 17 cc 5e c0 52 4a 5e c0 9f 82 3f c0 87 57 34 c0
       -3.4812067 -3.4732862 -2.9923475 -2.8178422
000120 85 3a 54 c0 f2 20 6b c0 98 47 7e c0 04 90 80 c0
       -3.3160717 -3.6738858 -3.9731197 -4.01758
000130 ec 39 84 c0 6a 2e 7c c0 a8 ec 82 c0 fc 59 89 c0
       -4.1320705 -3.940333 -4.0913887 -4.2922344
000140 00 4c 8a c0 16 ed 86 c0 52 9f 83 c0 4d 60 88 c0
       -4.3217773 -4.216441 -4.1131983 -4.2617555
000150 7e 39 85 c0 5e 15 77 c0 fe b0 84 c0 b8 91 7f c0
       -4.163268 -3.8606791 -4.1466055 -3.993269
000160 17 c9 75 c0 94 73 72 c0 d3 84 5a c0 cc 5d 52 c0
       -3.8403986 -3.7883043 -3.414357 -3.286975
000170 e3 7d 4d c0 b6 59 43 c0 db eb 46 c0 f7 72 36 c0
       -3.2108085 -3.0523505 -3.1081455 -2.850767
000180 15 86 27 c0 fe 21 23 c0 ec 62 fd 40 ec 62 fd 40
       -2.6175587 -2.5489497 7.9183254 7.9183254

_BaseModel__prior_c_sigma_s f4 [100]
000000 ac 42 11 c1 e8 4e 08 c1 f0 1c 07 c1 16 46 06 c1
       -9.078777 -8.519264 -8.444565 -8.392111
000010 33 06 0d c1 3f 09 06 c1 63 ea 08 c1 38 1c 0e c1
       -8.8140135 -8.377257 -8.557223 -8.881889
000020 94 64 0d c1 7d 39 10 c1 a3 21 0c c1 58 28 08 c1
       -8.837055 -9.014035 -8.758212 -8.50985
000030 ac c0 06 c1 88 a8 07 c1 ad 07 0f c1 93 29 0e c1
       -8.422039 -8.478645 -8.939374 -8.88515
000040 85 ef 06 c1 0e 85 09 c1 0a 8b 08 c1 1e ab 0f c1
       -8.433476 -8.594984 -8.533945 -8.979277
000050 64 5f 0a c1 84 0a 02 c1 28 37 0a c1 7b c1 05 c1
       -8.648289 -8.127567 -8.638466 -8.359736
000060 6e 5b 06 c1 7c a6 08 c1 c5 94 02 c1 a5 63 09 c1
       -8.397322 -8.540646 -8.161321 -8.586827
000070 48 ef 0a c1 3e d7 01 c1 78 86 0a c1 6e 12 0b c1
       -8.683418 -8.115049 -8.657829 -8.691999
000080 de 55 08 c1 8a e0 0e c1 6e 19 0f c1 d4 75 0d c1
       -8.520964 -8.929819 -8.943708 -8.841267
000090 24 3f 03 c1 2a b6 0f c1 ac 03 0b c1 cd 86 0c c1
       -8.202915 -8.981974 -8.688396 -8.78291
0000a0 b2 12 10 c1 9f 71 fe c0 2b 3d 12 c1 d4 5a 1a c1
       -9.004564 -7.95137 -9.139934 -9.647175
0000b0 94 e7 1a c1 74 fa 0d c1 61 9c 15 c1 35 b8 11 c1
       -9.681538 -8.873646 -9.350678 -9.107472
0000c0 77 7d 17 c1 1b ff 17 c1 58 00 10 c1 65 fe 0f c1
       -9.468131 -9.499782 -9.000084 -8.999608
0000d0 f4 de 09 c1 74 27 0c c1 d7 4e 13 c1 6a 8e 0c c1
       -8.616932 -8.759632 -9.206748 -8.784769
0000e0 c8 08 14 c1 38 e2 0e c1 56 3c 07 c1 76 8e 03 c1
       -9.252144 -8.930229 -8.45223 -8.2222805
0000f0 36 69 19 c1 4e ce 1a c1 e7 06 13 c1 dc 75 0a c1
       -9.588186 -9.675367 -9.189185 -8.653774
000100 c4 3b 13 c1 ad 9b 10 c1 fb b0 18 c1 8d 07 16 c1
       -9.202091 -9.038007 -9.543208 -9.376843
000110 b8 59 16 c1 b8 65 16 c1 6f f1 02 c1 aa fc fc c0
       -9.396904 -9.399834 -8.183944 -7.905843
000120 a1 3c 08 c1 92 50 08 c1 ac 9d 07 c1 ef e8 fb c0
       -8.514802 -8.5196705 -8.475994 -7.8721843
000130 3d 7e 00 c1 3e 76 01 c1 51 73 fe c0 1f 08 03 c1
       -8.03082 -8.091368 -7.9515767 -8.189483
000140 36 29 fe c0 f1 c1 00 c1 08 09 04 c1 ea b8 02 c1
       -7.9425306 -8.047349 -8.252205 -8.170145
000150 e2 88 f8 c0 b5 e5 02 c1 df 67 00 c1 1a 26 fb c0
       -7.7667093 -8.181081 -8.025359 -7.848401
000160 c7 db 05 c1 03 6a 03 c1 f6 27 0f c1 23 6c 10 c1
       -8.366157 -8.213382 -8.947256 -9.026401
000170 50 08 13 c1 61 a8 10 c1 f2 5f 16 c1 7a ff 20 c1
       -9.189529 -9.041108 -9.398424 -10.062372
000180 49 4e 2b 41 49 4e 2b 41 49 4e 2b 41 49 4e 2b 41
       10.706613 10.706613 10.706613 10.706613
