experiments/models_mr=0.1_cr=0.1_pr=0.1/residual_synthetic_n=100_seed=16_B=100_lambda=1e4_dim=2_epoch=300_spe=10_bs=100_lr=0.1_seed=50.model (torch, 84927 bytes, 5 tensors)

_BaseModel__x0_s f4 [100, 2]
00000000: 612a d5bf 7143 bdbf f2da fdbf 8d05 d7bf
00000010: c478 f8bf 4c2b b8bf 0ab8 02c0 4125 5abf
00000020: 22b8 cfbf c152 b2bf 4d14 08c0 c4cf c2bf
00000030: 528f 02c0 8319 a2bf 35c2 f0bf 9880 03bf
00000040: f7ea f4bf afa4 a9bf 8550 0dc0 3349 1fbf
00000050: bbfc 31c0 c027 5e3f 8de0 32c0 2ccc c23f
00000060: 3998 7bc0 49a0 773f 46f4 4dc0 9e34 1640
00000070: 24b0 58c0 3b05 c33f 9b7e 33c0 e5f9 b43f
00000080: 497f 53c0 5e7e ae3f bd51 37c0 a48f b83f
00000090: dd94 4bc0 03db 0c40 686a 2bc0 8132 c33f
000000a0: 736f 05c0 850f 3ac0 c1a7 4ec0 4bdb 1ec0
000000b0: 7f5a 24c0 25eb 45c0 6744 32c0 2a8e 18c0
000000c0: 867f 71c0 a97c 10c0 84dc 38c0 ad9f 47c0
000000d0: 0b30 10c0 f500 57c0 6157 0bc0 2810 34c0
000000e0: 2ece 3ec0 b1f9 1ac0 56fd 4cc0 feb4 31c0
000000f0: d1ca 7ebf a2ad e83f 9159 77bf e89e 1540
00000100: 656c 74bf fa3e e73f 91c6 8abf fd3b e93f
00000110: bf81 98bf c3e2 bd3f ad9a 95bf b117 2040
00000120: 2db5 70bf 449a df3f ee5a bbbf db50 0d40
00000130: 8ee4 9abf 6d4c 2840 ef70 a1bf ddf0 0c40
00000140: 0a8d a740 1e80 2440 c137 c240 d0b8 1940
00000150: e062 a140 b364 e03f c4b3 b340 b3dd 2740
00000160: 5ed0 ae40 7ae6 da3f 5301 b340 65d6 de3f
00000170: bf55 a540 9923 2c40 0756 b040 a33a 2e40
00000180: d657 b640 7605 d23f ca01 ae40 b4dd de3f
00000190: 2ba8 eb3e c71a 0640 e551 823f 4d7f 3a3f
000001a0: 5fb3 a13f 44b4 a73f fe05 7b3f fec5 b33f
000001b0: 2228 a23f 0611 6a3f 69bb 833f b564 503f
000001c0: 1f28 9b3f f260 c63f c826 8a3f 5e40 673f
000001d0: 3fcc d13f 2238 ba3f a232 773f b1ca 883f
000001e0: 1a59 2c3f 022b 8f40 9517 993f c82d 4e40
000001f0: f16a bb3f c98d 6940 de18 1c40 28af 4040
00000200: 8b96 983f ccf1 5640 f8ab f93f f442 6740
00000210: 1cb0 b03f 082b 5540 148d c63f 9990 4640
00000220: 96c3 a43f 715b 3540 4455 d93f bc53 4f40
00000230: 8f8d 263e 1d5c 3abf cd91 523e dee6 1dbf
00000240: 8357 06bf eb2c 0fc0 c64c 93be fa2a 05c0
00000250: 72b0 d4be c16a 18c0 4d29 c73e 43e0 a1bf
00000260: a5df 57bd 2422 89bf 5605 c33e 2858 d9bf
00000270: 7170 f4be 1b04 01c0 66d3 0cbf a7ed 2ac0
00000280: d354 debf ee9a bebe c36f 93bf 4612 db3e
00000290: 44f5 c6bf 3de6 913d 23bd c5bf 48d4 6bbe
000002a0: 119e 2ec0 3bab e33d 3f70 0cc0 69ed efbd
000002b0: 8fa8 dfbf 45b0 933e 3e73 9cbf 7cde 763e
000002c0: cd3c ebbf c49f a43a ab97 b2bf 0abc ef3d
000002d0: b4c2 8040 b39d 34c0 c81f 5440 b8b5 1dc0
000002e0: b1c7 4a40 278b 0dc0 ab25 8140 bf8d e9bf
000002f0: 2c93 8340 b498 e6bf fcdc 6d40 b77a fbbf
00000300: 75b6 8240 fb79 08c0 1d8f 5040 1b49 c2bf
00000310: 0ec5 6b40 bc60 3cc0 5f28 6d40 3abf 2ec0
-1.6653558 -1.4786206 -1.9832442 -1.6798569 -1.9411855 -1.4388213 -2.0424829 -0.85213095
-1.6228068 -1.3931504 -2.126239 -1.5219655 -2.0399976 -1.2664036 -1.8809267 -0.51368093
-1.9134206 -1.3253382 -2.2080395 -0.6222107 -2.7810504 0.86779404 -2.7949555 1.5218558
-3.931166 0.9672895 -3.2180343 2.3469615 -3.3857508 1.5235971 -2.8046024 1.4138762
-3.3046439 1.3632314 -2.864364 1.4418836 -3.180961 2.2008674 -2.6783695 1.5249788
-2.0849273 -2.9071972 -3.228989 -2.4821346 -2.5680234 -3.092477 -2.785425 -2.383677
-3.7734084 -2.2576087 -2.8884592 -3.1191208 -2.2529323 -3.3594334 -2.1772082 -2.813486
-2.9813342 -2.42149 -3.2029624 -2.776672 -0.99528223 1.8177989 -0.9662104 2.3378239
-0.95477897 1.8066094 -1.0841848 1.8221432 -1.1914595 1.4834827 -1.1687828 2.501446
-0.9402645 1.7468953 -1.4637125 2.20806 -1.2100999 2.6296647 -1.261259 2.2022011
5.2359667 2.5703197 6.069306 2.401905 5.0433197 1.7530731 5.615694 2.6229064
5.4629354 1.7101586 5.5939116 1.7409178 5.166717 2.6896727 5.5105014 2.722329
5.698222 1.6407917 5.4377184 1.7411408 0.4602674 2.0953844 1.0181242 0.72850496
1.2632865 1.3101888 0.9805602 1.4044797 1.2668498 0.91432226 1.0291568 0.81403667
1.2121619 1.5498335 1.0793085 0.9033259 1.6390456 1.454838 0.96561635 1.0686857
0.6732346 4.474 1.1960322 3.2215443 1.4642011 3.6492789 2.4390178 3.0106907
1.1920942 3.358508 1.9505606 3.6134615 1.3803744 3.3307514 1.5511804 3.1025755
1.2872188 2.8337061 1.6979146 3.2394857 0.16264938 -0.72796804 0.20563431 -0.616804
-0.5247728 -2.2371166 -0.2876951 -2.080748 -0.41540867 -2.3815157 0.38898697 -1.2646564
-0.05270352 -1.0713544 0.38090008 -1.6980028 -0.47742036 -2.0158756 -0.5501007 -2.6707551
-1.7369636 -0.37227577 -1.1518482 0.4278738 -1.5543599 0.071239926 -1.5448345 -0.23030198
-2.7283976 0.11116644 -2.194351 -0.11715204 -1.7473315 0.2884542 -1.2222669 0.24108309
-1.837793 0.0012559821 -1.3952535 0.117057875 4.0237675 -2.8221252 3.3144398 -2.4642162
3.1684382 -2.2116182 4.035848 -1.8246382 4.1117153 -1.8015351 3.7166128 -1.9646825
4.0847726 -2.132445 3.258735 -1.517856 3.6839023 -2.9434042 3.705589 -2.7304215

_BaseModel__v_s f4 [100, 100, 2]
00000000: 02d4 983e 12b6 a0be 87e8 3b3e daba b7bd
00000010: 5897 673e 0f01 51be 58f9 33c1 645b e0bf
00000020: a17b ec3e 6caa 81be 227f 273e 792d 92be
00000030: 5ff9 4d3e 164e 57be 2b80 a3c0 a409 1cc1
00000040: 1a58 2e3f e4de 91be 9728 f63f 226b c2c0
00000050: a22f 26c0 5c70 d4be 1faa b2bd 5c7f 3fbe
00000060: b1f8 43c0 ea0e 9fc0 185f 023e 6b1f 0fc0
00000070: 2653 11c1 9aab 013f c28a ebbf d82a b1bd
00000080: 86b0 22c0 9e5b dbbe 7996 5d3e 3964 9fbe
00000090: 93dc c8c0 1dec 0ec0 ff8c 8e3e c630 c2be
000000a0: 4a9d 11c0 864d cac0 022e 91bf 27dd 9cc0
000000b0: bd18 6bc0 214c 1dc0 4bc6 9cbf dd91 b9c0
000000c0: 526c 36be 150d d3c0 938f 833d de9f 8bbf
000000d0: 0a92 593e f0ef c93c 4f2a 9dc0 fc12 00c1
000000e0: 9cf4 afbf 4133 c7c0 6b04 1a40 1ce4 3ebf
000000f0: b309 da40 ee48 9c40 bfaf 76c0 56fe 9bbe
00000100: 4dcd 03c0 77cc db40 1e97 3b40 4ccb ac40
00000110: b139 47be 90f2 1c41 2c32 9240 6740 ae40
00000120: c664 1fc0 78b5 5c40 06db b140 b0c3 8440
00000130: 4af4 5dbf d084 0841 24f6 823e 3101 f93f
00000140: af74 533e ea97 a4be 1b33 2d40 10a7 e2be
00000150: 93e4 4e3e 0671 7fbe 52c1 373e 10d6 89be
00000160: 9821 623e f767 76be 3441 333e 1be2 64be
00000170: f2c8 5c3e d0b2 88be 6613 513e ec84 8ebe
00000180: 2e2a d53e a766 89be 52a4 233e 6f61 83be
00000190: 3f1a f440 aef0 b5be d4be e43e 731d 74be
000001a0: 7955 f23d 849a 8abe c225 553e 5ee2 41be
000001b0: 80c9 2e40 8e82 74bf 4c5e 893e 6cc8 62be
000001c0: 4729 bb3d dcc3 77be a14a 593e 2839 5dbe
000001d0: 14c2 e040 7682 00c0 f617 1a40 b8e5 aebe
000001e0: c4e4 e63d d7dd 5fbe e615 dc3e 05e7 d1c0
000001f0: 99aa c8bf 0ac9 3940 b5ac fa3f b3ee ec3e
00000200: 27a3 0d40 a0ad 0f41 b1cf b6bf 814b de40
00000210: eb8c 01c0 6e4a ba40 15fb ad40 908b 1441
00000220: 7c0a ee3f c7b3 b440 ef13 93bf eec6 5640
00000230: 6888 a5bf 534a 62c0 73a8 6640 63a3 d6c0
00000240: ed1b a83f b4e3 39c0 9d0a 2640 f185 b9c0
00000250: 08e5 1140 fd97 97c0 8156 2e40 eac1 8dc0
00000260: d127 7940 c936 05bf ce3c a1bf f1d7 01c0
00000270: 2e50 bb3e 223d a4c0 6893 9bbc 9c0c 79bd
00000280: b6ed 443f d67f c33f feb5 903e dee4 babe
00000290: 130c e03f 9c07 26bf f76d febe 86e3 8b40
000002a0: b7a6 8040 f700 51c0 2bbb 8a40 30d4 64be
000002b0: 1191 a3bf e663 833f 5c06 7740 d3dc 3640
000002c0: ed90 5c3f 2962 ad40 1261 28c0 0ce2 39c0
000002d0: 7651 823e 0e4f 31be 9fc6 6a3e f4df 65be
000002e0: 85ab 9b3e bfb9 7ebe 2635 8a3e 45cd 6dbe
000002f0: 37f8 bc3e d93c 70be 2aff 643e fa45 60be
00000300: e6f7 9a3d 5c73 39be 26a3 683e 36d6 81be
00000310: abe2 503e 8925 3abe 2892 423e 81a5 92be
00000320: 8a07 f5be 8497 06be 7cbf a0be 7c7b 9b3e
00000330: 284f f5be 9663 263e cdf2 29c1 7ad5 8f3e
00000340: 2f8a 3dc0 ca6d c23d 25ea 17bf 6ba2 663d
00000350: e4fe c5be 9ca9 813c 56b0 e4c0 4560 53c1
00000360: 264e d0be 04b6 8c3d b37b 853f 2673 4ec0
00000370: bbcf bfbf d05a dc3d 1568 5ebe 974f 653e
00000380: 94c7 743e 943e aebf 445f e63f 08ef a9c0
00000390: 7dda 06c1 5042 b8bf 65e1 91bf 3707 913e
000003a0: 06ca 9dbf c977 8a40 e89f 19bf 157e b93d
000003b0: 6360 b4c0 d6ec 80bf 8d4d 20bf 9427 2c3e
000003c0: 6c9d 8bc0 45b4 fec0 fbc7 b13f d5ec c2c0
000003d0: a41d 28c0 3a67 2ac0 4298 1440 2ed1 45c0
000003e0: c731 e33e 8dd0 90c0 51f1 16bf 45b6 9abf
000003f0: f3c4 36bf 424c 933e 655b 06c1 2a3b c0c0
0.2984925 -0.3138891 0.18350421 -0.08971186 0.22616327 -0.2041056 -11.248375 -1.752789
0.4618807 -0.25325334 0.16357091 -0.28550318 0.20114659 -0.21025881 -5.1093955 -9.752354
0.6810318 -0.28490365 1.9231137 -6.0755777 -2.5966573 -0.41491973 -0.08723854 -0.18700927
-3.062054 -4.9705706 0.12731588 -2.2362926 -9.0828 0.5065247 -1.840172 -0.0865075
-2.5420241 -0.42843336 0.21639432 -0.3113115 -6.2769256 -2.2331612 0.27841946 -0.37927836
-2.2752252 -6.3219633 -1.1342165 -4.901996 -3.673385 -2.4577715 -1.2248014 -5.7990556
-0.17814758 -6.595347 0.06423869 -1.0908163 0.21247116 0.024650544 -4.9114146 -8.004635
-1.3746524 -6.2250066 2.4065197 -0.7456682 6.813684 4.8839025 -3.8544767 -0.3046748
-2.0594056 6.868709 2.9310985 5.3998165 -0.19455601 9.809219 4.5686245 5.4453616
-2.4905257 3.448576 5.5579863 4.1488876 -0.8670088 8.532425 0.25578415 1.9453489
0.2064998 -0.3214715 2.7062442 -0.44268084 0.20204382 -0.24945459 0.1794484 -0.2692113
0.22083127 -0.24063097 0.17505342 -0.22351877 0.2156103 -0.26698923 0.20417556 -0.27835786
0.41633743 -0.2683613 0.15980652 -0.25660273 7.628204 -0.35535187 0.4467684 -0.23839359
0.11832709 -0.2707101 0.20815185 -0.18934008 2.7310486 -0.9551171 0.26829755 -0.22146767
0.091387324 -0.24195808 0.21219875 -0.21603835 7.023691 -2.0079627 2.4077125 -0.34159636
0.11274102 -0.21861969 0.42985457 -6.5594506 -1.5677062 2.9028955 1.9583956 0.46275863
2.213083 8.979889 -1.4282132 6.946717 -2.024226 5.8215857 5.4368997 9.284073
1.859695 5.6469455 -1.1490458 3.3558917 -1.2932253 -3.5357864 3.6040313 -6.7074447
1.3133522 -2.904523 2.5943978 -5.7976003 2.279604 -4.7373033 2.7240298 -4.429921
3.8930552 -0.5203672 -1.2596681 -2.028805 0.3658461 -5.1324625 -0.018991187 -0.06080304
0.7692522 1.5273387 0.2826385 -0.36502737 1.7503685 -0.6485536 -0.49693272 4.371524
4.020351 -3.265684 4.3353477 -0.22346568 -1.2778646 1.0264862 3.8597631 2.857228
0.8615864 5.4182324 -2.6309247 -2.9044218 0.25452775 -0.17315313 0.2292733 -0.22448713
0.30404297 -0.24875544 0.26993674 -0.23222835 0.36908123 -0.23460712 0.22362962 -0.21901694
0.07566814 -0.18110412 0.22718486 -0.25358742 0.20398967 -0.18178381 0.19001067 -0.28641894
-0.47857314 -0.13143736 -0.3139609 0.3036765 -0.47911954 0.16248927 -10.621778 0.28092557
-2.961559 0.09493597 -0.5934165 0.056307238 -0.3867103 0.015827946 -7.1465254 -13.211003
-0.40684623 0.06870654 1.0428375 -3.225778 -1.4985269 0.107595086 -0.21719392 0.22393642
0.23904258 -1.3612847 1.7997823 -5.3104286 -8.428342 -1.4395237 -1.139691 0.28325817
-1.2327278 4.327122 -0.6000962 0.09057251 -5.636766 -1.0072277 -0.62618333 0.16811973
-4.3629665 -7.9595056 1.3889154 -6.09141 -2.6268091 -2.6625504 2.321793 -3.0908923
0.44373915 -4.525458 -0.5896197 -1.2086874 -0.7139427 0.28769118 -8.397313 -6.007222

_BaseModel__beta_s f4 [2]
00000000: a6d2 4d40 f7c6 5ebf
3.215982 -0.87022346

_BaseModel__prior_b_sigma_s f4 [100]
00000000: 8cf4 4840 1c25 4c40 1027 6940 406b 1c40
00000010: c107 da3f 02b2 823f e44e 0a40 1130 2e40
00000020: a5fc 5d40 725b 3f40 77cb 0740 7c65 fc3f
00000030: c7a7 0940 69e2 cf3f 399b b63f c66f 863f
00000040: e8ba 7a3f a8d3 b13f a71e 58bf ba0a 953f
00000050: 7734 aa3f 7f48 dc3f 8541 3840 ab81 3040
00000060: a0cc d63f 1eaf f13f ceb3 1840 6675 5d40
00000070: 8708 7140 31eb 7840 36df 0c40 9a78 95bf
00000080: d710 ba3f e248 09bf 55f8 36bf 8a3a 52bf
00000090: 60a8 07bf d11e 3540 f4ec 8a40 9b73 eb40
000000a0: f103 cf40 41bc 6740 748e 1540 3d9c 1b40
000000b0: 69f5 3dbf b124 50bf 4ffe 4abf 0bdc 42bf
000000c0: 0bf1 81bf 9671 b1bf 6074 b0bf 76fe d3bf
000000d0: ed2a f6bf fd52 0ec0 8432 d1bf 7479 e4bf
000000e0: 3d98 d8bf e6db 0bc0 07c8 09c0 1074 01c0
000000f0: 2a44 d6bf 7bc8 bdbf 8ecb 95bf b7cd 3abf
00000100: ccbd 49bf b240 bdbe 7516 ec3d 3c58 f3bd
00000110: 51de 88bf d2cb e93f 6b16 1240 0458 1a40
00000120: 4fc5 c33f 636c 8abf 150e fbbf a51c 02c0
00000130: 4866 00c0 b24c d2bf 32b3 debf 5d42 fabf
00000140: 184d e4bf c8ac c3bf 15b4 abbf 1d40 f8bf
00000150: 738a eebf e5ac d4bf be8c 01c0 c0d4 e3bf
00000160: 5117 f0bf da5f c1bf 45fd a0bf 0c8a 22bf
00000170: b897 d63f 1b1d 1840 5e57 2a40 ef1c 9940
00000180: 6724 ba40 d041 1541 fc03 1b41 a210 7440
3.139926 3.189765 3.6430092 2.444046 1.7033616 1.0210574 2.161065 2.7216837
3.4685452 2.9899564 2.1217935 1.971847 2.1508653 1.624097 1.426612 1.050286
0.97941446 1.3892717 -0.8442177 1.1643898 1.3297261 1.7209624 2.878999 2.7579143
1.6781197 1.8881567 2.3859744 3.4602904 3.7661455 3.889355 2.2011237 -1.167743
1.4536389 -0.53626835 -0.71472675 -0.82120574 -0.52991295 2.830006 4.341425 7.357862
6.469231 3.620865 2.3368196 2.431411 -0.7420259 -0.81305987 -0.79294294 -0.7611701
-1.0151685 -1.3862789 -1.3785515 -1.656203 -1.923185 -2.2238152 -1.6343541 -1.7849565
-1.692146 -2.1852965 -2.1528337 -2.022709 -1.6739552 -1.4826807 -1.1702745 -0.72970146
-0.7880523 -0.3696342 0.11527721 -0.11882064 -1.0692846 1.8265326 2.2826183 2.411622
1.5294589 -1.0814327 -1.9613672 -2.0329983 -2.0062428 -1.6429656 -1.7398436 -1.9551502
-1.7836027 -1.5287104 -1.3414332 -1.9394566 -1.8636001 -1.6615263 -2.0242152 -1.7799301
-1.8757116 -1.5107377 -1.2577292 -0.6349189 1.6765051 2.3767765 2.6615825 4.784782
5.8169436 9.3285675 9.688473 3.8135152

_BaseModel__prior_c_sigma_s f4 [100]
00000000: 48cd 9fbf b4fe 89bf 6669 37c0 607a ad40
00000010: d342 64c0 b25a 4ec0 6332 a1c0 8425 8f40
00000020: 87d3 4fc0 f283 9b40 e0f9 34bf 0ee3 cfbf
00000030: 1115 7b40 1614 6840 5e6e 7240 636c ed3e
00000040: 672a 8d40 1023 00c0 a1b7 7740 417f c6bf
00000050: df75 603f 58f9 b040 9525 173f fbbe a240
00000060: d18d 2d40 bede 33bf ad34 fbbf 0a0c a340
00000070: 83bd a340 ee68 813f 29f8 9840 bae8 a940
00000080: ab2f 9d40 6155 8f40 fda9 8e40 e1ec 9040
00000090: c293 a240 06a1 9840 a894 bc40 6b88 243e
000000a0: 2d96 bdc0 81e8 9abf 9d1d b8c0 bcb5 bfc0
000000b0: dceb bcc0 befd b6c0 5e41 bac0 8124 bfc0
000000c0: e64b b3c0 2e50 bcc0 3cb7 8240 a521 13c0
000000d0: 7efb 63c0 a4bc a2c0 8fb8 9d40 648c a4c0
000000e0: d8ba b0c0 5d16 afc0 78d5 9840 26b7 813d
000000f0: d57b aac0 9a8d 6440 a255 6d40 6c91 9540
00000100: 740b 4e40 6abd 7340 2d6b 4340 31cd 5840
00000110: 2cf5 4740 1104 5d40 d851 9d40 baad cf40
00000120: cb09 8d3e 8e3f cf3f 5800 6e3f 44ab 0141
00000130: fd4d a540 56ee 0e41 1b63 9a40 1b91 6abf
00000140: 41cd ab40 1c7c 82be fb31 973f a34f ab40
00000150: 4d9d 9440 05a9 9f40 3d03 ca3f 9603 c640
00000160: cb32 9a40 f302 ac40 0ca6 bac0 306b b0c0
00000170: d987 bfc0 4fcb bec0 bbca 81c0 bc34 c1c0
00000180: f642 c0c0 91fb bdc0 6493 b6c0 236e bfc0
-1.2484522 -1.0780854 -2.865808 5.4211884 -3.5665786 -3.2242856 -5.0374007 4.4733295
-3.2472856 4.8598566 -0.7069378 -1.6241167 3.9231608 3.626226 3.7879863 0.46371755
4.411426 -2.00214 3.8705828 -1.5507585 0.87679857 5.5304375 0.5904172 5.085813
2.7117808 -0.7026175 -1.962545 5.0952196 5.1168838 1.0110147 4.780293 5.309659
4.912069 4.479172 4.4582505 4.528916 5.080537 4.769656 5.8931465 0.16067664
-5.924582 -1.2102205 -5.753615 -5.9909344 -5.9037914 -5.7184744 -5.8204794 -5.973206
-5.603015 -5.8847876 4.0848675 -2.2989285 -3.5622249 -5.0855274 4.928779 -5.1421375
-5.522808 -5.47148 4.776058 0.06333761 -5.327616 3.5711427 3.7083516 4.6740017
3.219449 3.808436 3.0534165 3.387524 3.124339 3.4533732 4.9162407 6.489957
0.27546534 1.619127 0.92969275 8.104313 5.16577 8.9331875 4.824598 -0.91627663
5.3688054 -0.25485313 1.1812128 5.3534713 4.6442018 4.9893823 1.5782238 6.1879377
4.8187003 5.37536 -5.8327694 -5.5130844 -5.985333 -5.962318 -4.0559974 -6.0376873
-6.008174 -5.936959 -5.705492 -5.9821944
