experiments/models_mr=0.1_cr=0.1_pr=0.1/residual_synthetic_n=100_seed=16_B=100_lambda=1e2_dim=2_epoch=300_spe=10_bs=100_lr=0.1_seed=30.model (torch, 84927 bytes, 5 tensors)

_BaseModel__x0_s f4 [100, 2]
-1.3743412 0.91626954 -1.539968 0.84066546 -1.4997393 0.86743987 -1.5016607 0.89229095
-1.5246661 0.8294602 -1.5300063 0.8227263 -1.4973271 0.7337997 -1.5070516 0.76700014
-1.468563 0.70074993 -1.5246552 0.6379933 -0.7037791 -1.3387024 -0.38228482 -1.5923678
-0.28021073 -1.6883696 -0.38791174 -1.458962 -0.19431056 -1.747426 -0.6075625 -1.3953136
-0.35292336 -1.5231572 -0.6143175 -1.5398982 -0.3761205 -1.4729961 -0.5821807 -1.5217389
-1.9485635 2.3078654 -1.8587592 2.313059 -1.8671656 2.4329152 -1.8715174 2.1705606
-1.9362803 2.612966 -1.9825238 2.6489131 -1.9008583 2.5087893 -1.7835011 2.4999053
-2.0520887 2.4142845 -2.0008752 2.4592013 0.9596957 -0.2808698 1.3980186 -0.7925112
1.3754044 -0.8393516 1.1950057 -0.88231575 1.2653893 -0.70344555 1.1521478 -0.8631783
1.0576171 -0.29571337 1.2347296 -0.85410845 1.4119426 -0.86330146 1.1707884 -0.8641015
2.285813 -4.2150054 1.9016925 -3.8579307 1.992927 -4.598325 2.2153125 -4.003643
1.8881606 -4.4294705 1.845444 -4.3334174 2.4676619 -4.192789 2.3118877 -3.979237
1.7978026 -4.480388 1.9407494 -4.426681 1.5536145 1.0558109 1.5812471 0.96462417
1.5415837 1.1326805 1.5145922 1.0194983 1.5596929 0.96269816 1.5416145 0.9745755
1.8337418 0.9529223 1.6732366 0.80872744 1.5499341 1.3110728 1.523144 1.2029861
3.846743 1.5562655 3.4099884 1.8209798 3.7919416 1.8782389 3.1393647 2.2478995
3.7982678 1.8337921 3.6960356 2.3175077 3.4563107 1.859098 3.5972748 2.1378162
3.3647656 1.8370953 3.4287531 1.9786458 -0.29641256 1.8946828 -0.26245162 1.8050445
-0.37698463 2.396177 -0.48395824 2.0877445 -0.45292297 2.477899 -0.4509617 2.3753514
-0.39010185 1.9489655 -0.4577524 2.1570837 -0.43815887 2.2147315 -0.36939362 2.1481988
-0.14286321 -0.027133647 -0.021393983 -0.0052869963 -0.12264797 0.03715446 -0.07690787 -0.016452264
-0.2534515 0.29394406 -0.11682661 -0.037848305 0.00628958 0.042272065 -0.048624013 -0.13178131
-0.12704633 -0.06357011 -0.057699233 -0.044568013 -3.3113716 -3.693974 -2.920284 -3.7186906
-2.666553 -3.7360525 -2.6820605 -4.070988 -2.7857337 -4.2448573 -2.7695417 -3.8980715
-2.945273 -3.9349766 -2.2890856 -4.2361503 -3.217323 -3.4184673 -3.0603905 -3.7185404
00000000: 6aea afbf a490 6a3f ac1d c5bf da35 573f
00000010: 75f7 bfbf 8a10 5e3f 6b36 c0bf 2e6d 643f
00000020: 4228 c3bf 8157 543f 3fd7 c3bf 319e 523f
00000030: 6aa8 bfbf 4cda 3b3f 11e7 c0bf 1f5a 443f
00000040: dff9 bbbf 5964 333f e727 c3bf 8753 233f
00000050: de2a 34bf 9a5a abbf d6ba c3be b5d2 cbbf
00000060: c877 8fbe 7f1c d8bf 5e9c c6be 44bf babf
00000070: 59f9 46be a8ab dfbf 3789 1bbf a399 b2bf
00000080: 5fb2 b4be d1f6 c2bf e943 1dbf 621b c5bf
00000090: de92 c0be 238b bcbf cb09 15bf 57c8 c2bf
000000a0: 876a f9bf 11b4 1340 d2eb edbf 2909 1440
000000b0: 48ff eebf e2b4 1b40 e28d efbf 77ea 0a40
000000c0: 08d8 f7bf d63a 2740 57c3 fdbf cb87 2940
000000d0: 534f f3bf 0190 2040 c449 e4bf 73fe 1f40
000000e0: 6c55 03c0 a383 1a40 570e 00c0 8e63 1d40
000000f0: 9eae 753f 2bce 8fbe 46f2 b23f 04e2 4abf
00000100: 400d b03f bfdf 56bf f2f5 983f 72df 61bf
00000110: 47f8 a13f 0215 34bf 9479 933f 41f9 5cbf
00000120: ff5f 873f be67 97be 9f0b 9e3f daa6 5abf
00000130: 89ba b43f 5301 5dbf 65dc 953f c235 5dbf
00000140: c34a 1240 53e1 86c0 a96a f33f 56e8 76c0
00000150: 3b18 ff3f 7a25 93c0 aec7 0d40 d81d 80c0
00000160: 3faf f13f 39be 8dc0 8237 ec3f 5bab 8ac0
00000170: 2cee 1d40 542b 86c0 f8f5 1340 d2ab 7ec0
00000180: 651e e63f 575f 8fc0 7a6a f83f 5fa7 8dc0
00000190: d7dc c63f d024 873f 4e66 ca3f 9cf1 763f
000001a0: 9d52 c53f adfb 903f 28de c13f ec7e 823f
000001b0: 04a4 c73f 6373 763f a053 c53f c87d 793f
000001c0: 0db8 ea3f b7f2 733f 9e2c d63f c308 4f3f
000001d0: 3e64 c63f 3cd1 a73f 62f6 c23f 73fb 993f
000001e0: 0a31 7640 b533 c73f 403d 5a40 de15 e93f
000001f0: 2caf 7240 226a f03f 5aeb 4840 96dd 0f40
00000200: d216 7340 b3b9 ea3f d98b 6c40 0c52 1440
00000210: 3234 5d40 ecf6 ed3f c039 6640 fbd1 0840
00000220: 5258 5740 f025 eb3f b170 5b40 4444 fd3f
00000230: 63c3 97be f784 f23f 0f60 86be b30b e73f
00000240: 2104 c1be f75a 1940 60c9 f7be 9b9d 0540
00000250: 85e5 e7be e695 1e40 74e4 e6be c205 1840
00000260: 6ebb c7be b477 f93f 865e eabe a90d 0a40
00000270: 5c56 e0be 29be 0d40 2921 bdbe 177c 0940
00000280: bc4a 12be 6247 debc 6f42 afbc 8a3e adbb
00000290: dc2e fbbd 462f 183d e081 9dbd e6c6 86bc
000002a0: 65c4 81be d67f 963e ca42 efbd d306 1bbd
000002b0: d218 ce3b 7925 2d3d f929 47bd aef1 06be
000002c0: 6f18 02be 0c31 82bd 0856 6cbd f38c 36bd
000002d0: 83ed 53c0 126a 6cc0 efe5 3ac0 07ff 6dc0
000002e0: cea8 2ac0 7c1b 6fc0 e1a6 2bc0 8945 82c0
000002f0: 7649 32c0 dfd5 87c0 2c40 31c0 017a 79c0
00000300: 5a7f 3cc0 a8d6 7bc0 6180 12c0 8b8e 87c0
00000310: 9fe8 4dc0 2bc8 5ac0 70dd 43c0 91fc 6dc0

_BaseModel__v_s f4 [100, 100, 2]
-0.07844167 -0.22409552 -0.075826325 -0.22019981 -0.07884199 -0.22655664 -0.07462719 -0.22111838
-0.07169975 -0.22383614 -0.0761324 -0.22558911 -0.08798152 -0.22815554 -0.044514462 -0.21623254
-0.06282918 -0.22025087 -0.0719829 -0.22486043 -0.06897531 -0.22233178 -0.069272265 -0.23762335
-0.07796358 -0.24449888 -0.07710918 -0.22448613 -0.066785574 -0.22680832 -0.073956594 -0.22703826
-0.08123473 -0.22151995 -0.06700826 -0.22275037 -0.08021223 -0.22499493 -0.06963458 -0.22610746
-0.080241755 -0.22955634 -0.07375353 -0.22431372 -0.0751085 -0.22471994 -0.07829362 -0.22896986
-0.0748839 -0.2270093 -0.072843164 -0.227493 -0.08050266 -0.22580199 -0.07418935 -0.22397046
-0.07165183 -0.22202621 -0.07564001 -0.22930582 -0.074065834 -0.2272392 -0.076163165 -0.21781878
-0.08565314 -0.22740845 -0.058005232 -0.22510272 -0.072231874 -0.22693314 -0.07397016 -0.24939814
-0.07074596 -0.22461614 -0.07210107 -0.23099986 -0.073434815 -0.2254616 -0.074316084 -0.2249358
-0.06926734 -0.22849405 -0.06927405 -0.22633956 -0.06443302 -0.22837855 -0.069991946 -0.22565159
-0.08202791 -0.22324929 -0.07143473 -0.22534208 -0.06376158 -0.2274964 -0.07596431 -0.22518697
-0.072663106 -0.22439547 -0.07309889 -0.23711085 -0.06778352 -0.21701957 -0.07217933 -0.22412944
-0.07645418 -0.22461051 -0.07220973 -0.23215659 -0.07258838 -0.22952141 -0.070625156 -0.22991402
-0.07956301 -0.2245248 -0.0786802 -0.22411248 -0.07333514 -0.22558184 -0.075709686 -0.22318476
-0.075148925 -0.21486938 -0.07401666 -0.22860675 -0.07187392 -0.22361256 -0.050065804 -0.23526703
-0.056659568 -0.21969321 -0.075919375 -0.22396481 -0.070863344 -0.22458643 -0.077658206 -0.22862525
-0.06523657 -0.22887187 -0.066759855 -0.22587113 -0.07287054 -0.22571267 -0.074650295 -0.22434235
-0.078438714 -0.22775985 -0.07454764 -0.23009562 -0.07609632 -0.23277149 -0.07746984 -0.22785075
-0.06634356 -0.22635394 -0.067969464 -0.22423106 -0.07106837 -0.22742502 -0.0673094 -0.2282693
-0.0692979 -0.23702396 -0.065535255 -0.22413765 -0.07420874 -0.22316821 -0.07426042 -0.2262529
-0.063040204 -0.22108237 -0.073986456 -0.22470881 -0.082323 -0.21860236 -0.07940662 -0.22628914
-0.068566784 -0.22528608 -0.07112224 -0.22928615 -0.06403836 -0.22223593 -0.06884545 -0.22499594
-0.07592161 -0.22909684 -0.08382111 -0.22005479 -0.0737312 -0.22712809 -0.072587915 -0.22432634
-0.06949012 -0.20149665 -0.06770753 -0.20369504 -0.06941746 -0.22662304 -0.07242602 -0.22647661
0.14079398 0.22143063 0.13248497 0.22393177 0.13664345 0.22153854 0.13158877 0.2262933
0.13439229 0.22213726 0.1282697 0.21632563 0.14515364 0.22787048 0.13832363 0.2214284
0.14082672 0.20978971 0.14220148 0.2205287 0.18646853 0.19578321 0.14364012 0.21392263
0.13882327 0.21823588 0.14181064 0.22532341 0.1421982 0.22022742 0.14427614 0.20791817
0.14062998 0.2143025 0.14327607 0.21810633 0.1412266 0.21830878 0.1408553 0.22030944
0.13688613 0.20692162 0.1410032 0.22151999 0.14317128 0.2187992 0.13714822 0.21336813
0.14270665 0.22074912 0.14236522 0.21829838 0.14075935 0.21995264 0.13542303 0.21680011
00000000: 07a6 a0bd 4c79 65be d54a 9bbd 0f7c 61be
00000010: e977 a1bd 77fe 67be 24d6 98bd db6c 62be
00000020: 52d7 92bd 4d35 65be 4eeb 9bbd d500 67be
00000030: a82f b4bd 9ba1 69be cc54 36bd 106c 5dbe
00000040: 96ac 80bd 7289 61be c56b 93bd d041 66be
00000050: ed42 8dbd f1aa 63be 9ede 8dbd 8953 73be
00000060: 5fab 9fbd ea5d 7abe 6beb 9dbd b1df 65be
00000070: e0c6 88bd 7140 68be 8e76 97bd b87c 68be
00000080: 655e a6bd 20d6 62be a03b 89bd ac18 64be
00000090: 4f46 a4bd 1265 66be 939c 8ebd b788 67be
000000a0: ca55 a4bd d110 6bbe 170c 97bd 7fb2 65be
000000b0: 7cd2 99bd fc1c 66be 6858 a0bd 1377 6abe
000000c0: bb5c 99bd 2075 68be cc2e 95bd edf3 68be
000000d0: 94de a4bd a338 67be 96f0 97bd 8358 65be
000000e0: 32be 92bd d75a 63be 26e9 9abd 25cf 6abe
000000f0: d4af 97bd 65b1 68be 6ffb 9bbd e30b 5fbe
00000100: ea6a afbd c3dd 68be e596 6dbd 5481 66be
00000110: 4eee 93bd 2961 68be ab7d 97bd 3a62 7fbe
00000120: 42e3 90bd c601 66be baa9 93bd 3a8b 6cbe
00000130: fe64 96bd 68df 66be 0833 98bd 9255 66be
00000140: 09dc 8dbd 58fa 69be 8edf 8dbd 8fc5 67be
00000150: 76f5 83bd 11dc 69be f057 8fbd 3611 67be
00000160: 40fe a7bd 769b 64be 5f4c 92bd 13c0 66be
00000170: 6e95 82bd d1f4 68be 2d93 9bbd 6a97 66be
00000180: 65d0 94bd edc7 65be dfb4 95bd 30cd 72be
00000190: 16d2 8abd 613a 5ebe c2d2 93bd 3082 65be
000001a0: 0294 9cbd 4c00 66be b2e2 93bd 75ba 6dbe
000001b0: 37a9 94bd a907 6bbe eca3 90bd 956e 6bbe
000001c0: eef1 a2bd d4e9 65be 1623 a1bd be7d 65be
000001d0: bc30 96bd edfe 66be ae0d 9bbd 8c8a 64be
000001e0: aee7 99bd b806 5cbe 0c96 97bd e317 6abe
000001f0: a232 93bd b1fa 64be cd11 4dbd d7e9 70be
00000200: dd13 68bd 42f7 60be 9e7b 9bbd 0857 65be
00000210: cd20 91bd fcf9 65be 440b 9fbd bd1c 6abe
00000220: c09a 85bd 635d 6abe 64b9 88bd c34a 67be
00000230: 263d 95bd 3921 67be 41e2 98bd 00ba 65be
00000240: 7aa4 a0bd e139 69be 6fac 98bd 309e 6bbe
00000250: 63d8 9bbd a65b 6ebe 82a8 9ebd b551 69be
00000260: 22df 87bd 54c9 67be 9333 8bbd d49c 65be
00000270: 4b8c 91bd 1be2 68be 83d9 89bd 6dbf 69be
00000280: 0fec 8dbd 69b6 72be 5937 86bd 5784 65be
00000290: c0fa 97bd 3586 64be d915 98bd d7ae 67be
000002a0: 391b 81bd 6b63 62be 3686 97bd 111a 66be
000002b0: f698 a8bd 4cd9 5fbe f09f a2bd 57b8 67be
000002c0: be6c 8cbd 65b1 66be 89a8 91bd fdc9 6abe
000002d0: 8b26 83bd d191 63be d8fe 8cbd 5665 66be
000002e0: ca7c 9bbd 5d98 6abe 67aa abbd 0b56 61be
000002f0: 6200 97bd 4494 68be f9a8 94bd ceb5 65be
00000300: d650 8ebd 2355 4ebe 3faa 8abd 6f95 50be
00000310: be2a 8ebd df0f 68be 1854 94bd 7ce9 67be
00000320: 4c2c 103e b6be 623e 24aa 073e 5f4e 653e
00000330: 43ec 0b3e 00db 623e 35bf 063e 6eb9 673e
00000340: 229e 093e f377 633e 2259 033e 7784 5d3e
00000350: 28a3 143e e156 693e b6a4 0d3e 20be 623e
00000360: e134 103e 1dd3 563e 449d 113e 47d2 613e
00000370: 9bf1 3e3e 657b 483e 6516 133e 890e 5b3e
00000380: b027 0e3e 3a79 5f3e cf36 113e 2ebb 663e
00000390: 689c 113e 4c83 613e 20bd 133e 80e8 543e
000003a0: 4e01 103e 1d72 5b3e f6b6 123e 4457 5f3e
000003b0: b59d 103e 568c 5f3e 5f3c 103e cc98 613e
000003c0: e12b 0c3e 43e3 533e 2563 103e 23d6 623e
000003d0: 7e9b 123e e60c 603e 9570 0c3e 2d7d 5a3e
000003e0: b121 123e 0f0c 623e 30c8 113e 9c89 5f3e
000003f0: 3823 103e 443b 613e 56ac 0a3e d900 5e3e

_BaseModel__beta_s f4 [2]
2.5189297 -0.38985103
00000000: 2536 2140 8e9a c7be

_BaseModel__prior_b_sigma_s f4 [100]
-2.701024 -1.6117753 2.672923 -1.8574337 -1.9819303 -1.9882576 -0.94255435 -1.858023
-1.9160693 -2.7862947 -2.0593781 -2.0462432 -2.9720182 -2.8998113 -1.3639232 -0.6722525
2.8002732 -2.338965 -1.5363019 2.794684 -1.77634 -1.1367576 -2.1087039 -1.2735629
-1.3552332 3.3534675 3.735188 3.7242126 3.7077966 3.482949 -1.7930192 -2.279651
-2.9757757 -1.7785835 -0.645735 2.806499 -2.8795145 2.920565 3.0283036 2.9200594
-1.8649211 -2.5642638 -0.61011535 -2.6364214 -1.3293985 -1.8103064 2.814589 2.9354813
-1.8471037 2.719645 -2.4311469 -1.8269227 -1.4722606 -1.5473046 -0.9534307 -1.9004593
-2.87144 2.8147666 2.8752124 -0.66196626 2.9120502 -1.6915182 2.8985767 2.903194
2.8991787 2.9511116 2.9497983 3.1364622 3.2096434 3.444279 3.4996903 3.479772
3.2766361 3.0214806 -2.037256 2.887891 -2.3760576 -0.59643394 -1.8991418 2.8805482
-2.3931668 -2.8922882 -1.6486993 -2.3517098 -1.7740853 -2.8613791 -1.7311907 -2.8877761
-2.987718 2.807015 2.8447404 -1.229821 -1.9265238 -1.7166904 2.590857 -2.080937
-2.0796432 2.4915655 -0.5913443 2.5289233
00000000: 94dd 2cc0 a74e cebf 2c11 2b40 63c0 edbf
00000010: e4af fdbf 3a7f febf 3e4b 71bf b3d3 edbf
00000020: c241 f5bf a752 32c0 dacc 03c0 a6f5 02c0
00000030: 8c35 3ec0 8296 39c0 0995 aebf bd18 2cbf
00000040: ad37 3340 9ab1 15c0 8aa5 c4bf 1adc 3240
00000050: 1c5f e3bf 4681 91bf 01f5 06c0 1c04 a3bf
00000060: 4878 adbf 369f 5640 520d 6f40 8059 6e40
00000070: 8a4c 6d40 a3e8 5e40 a781 e5bf cde5 11c0
00000080: 1c73 3ec0 a0a8 e3bf e44e 25bf ae9d 3340
00000090: f749 38c0 89ea 3a40 bacf 4140 41e2 3a40
000000a0: bcb5 eebf e61c 24c0 8530 1cbf 21bb 28c0
000000b0: bb29 aabf 1fb8 e7bf 3a22 3440 edde 3b40
000000c0: e56d ecbf aa0e 2e40 e997 1bc0 9ad8 e9bf
000000d0: 0973 bcbf 140e c6bf 0914 74bf 4042 f3bf
000000e0: acc5 37c0 2325 3440 7b03 3840 9f76 29bf
000000f0: 085f 3a40 ab83 d8bf 4882 3940 eecd 3940
00000100: 258c 3940 03df 3c40 7fc9 3c40 ccbb 4840
00000110: cc6a 4d40 116f 5c40 edfa 5f40 96b4 5e40
00000120: 68b4 5140 f05f 4140 6762 02c0 35d3 3840
00000130: 5411 18c0 e5af 18bf 1417 f3bf e75a 3840
00000140: a529 19c0 401b 39c0 9408 d3bf 6a82 16c0
00000150: 3a15 e3bf d620 37c0 a897 ddbf 53d1 38c0
00000160: c636 3fc0 22a6 3340 3a10 3640 c66a 9dbf
00000170: 5598 f6bf 83bc dbbf 9ad0 2540 122e 05c0
00000180: e018 05c0 cf75 1f40 5762 17bf e1d9 2140

_BaseModel__prior_c_sigma_s f4 [100]
3.15183 3.2063572 3.440338 3.3831127 3.1655662 -1.5371456 3.0698473 3.1606343
-1.327363 -2.2764382 3.2713544 -1.6166502 -1.7567834 3.2620993 -2.4026334 3.3919687
3.3250654 -2.0671816 3.3398526 -1.6367013 -1.6791909 -2.0936441 3.2651527 -1.8014333
3.0391712 -3.0467892 3.0461257 -2.0514896 -2.1544526 -1.9070563 3.9894652 3.5360863
3.258685 -1.9936645 -1.4613552 -2.0497415 3.9306388 -1.5332667 3.4948828 -2.1675754
-2.9026031 -2.8738642 -1.4325625 -2.8229768 -3.0508673 -1.2005953 -1.8533803 -1.9955416
-2.6377378 -1.9179952 -1.3059198 -2.063323 -1.9936608 -1.7920277 -1.7391261 -1.451136
-1.7334138 -1.7852857 3.2641768 -2.397932 -2.0046377 -3.214312 -1.4733261 -1.9791126
-1.8169442 3.089568 -2.3779967 -2.856391 -1.811479 -2.6263626 -3.0242648 -2.873624
3.3583639 -3.1591694 -2.344788 -1.9439149 3.3135693 -2.0317168 -1.8430758 -2.3613656
3.9806871 3.662989 3.7296467 3.4624093 3.7104754 4.0825768 3.991753 3.3177438
3.8551965 3.7512138 -2.1138275 -2.8413496 -3.1956992 -1.8365589 -2.2610457 -3.1003153
-2.532906 -2.4223094 -1.6518158 -2.1252463
00000000: 95b7 4940 f534 4d40 7f2e 5c40 eb84 5840
00000010: a398 4a40 30c1 c4bf 6178 4440 d547 4a40
00000020: 08e7 a9bf 2ab1 11c0 df5d 5140 65ee cebf
00000030: 47de e0bf 3cc6 5040 bfc4 19c0 0416 5940
00000040: dfcd 5440 b44c 04c0 25c0 5540 6e7f d1bf
00000050: baef d6bf 44fe 05c0 43f8 5040 5e95 e6bf
00000060: c881 4240 98fe 42c0 b9f3 4240 9b4b 03c0
00000070: 8de2 09c0 6c1a f4bf 6653 7f40 3d4f 6240
00000080: 4c8e 5040 6630 ffbf b00d bbbf f72e 03c0
00000090: 968f 7b40 1542 c4bf 29ac 5f40 8eb9 0ac0
000000a0: 40c4 39c0 64ed 37c0 355e b7bf a7ab 34c0
000000b0: 6941 43c0 1bad 99bf 913b edbf e86d ffbf
000000c0: b2d0 28c0 de80 f5bf 6128 a7bf 7c0d 04c0
000000d0: 4730 ffbf 2a61 e5bf af9b debf d3be b9bf
000000e0: 81e0 ddbf 3e84 e4bf 46e8 5040 b877 19c0
000000f0: fc4b 00c0 4ab7 4dc0 f395 bcbf 9053 fdbf
00000100: a191 e8bf 7bbb 4540 1931 18c0 1ccf 36c0
00000110: 8bde e7bf 5316 28c0 8e8d 41c0 75e9 37c0
00000120: 6fef 5640 d52f 4ac0 0211 16c0 34d2 f8bf
00000130: 8511 5440 a607 02c0 e8e9 ebbf 9d20 17c0
00000140: 94c3 7e40 696e 6a40 88b2 6e40 1d98 5d40
00000150: 6e78 6d40 78a4 8240 e278 7f40 ea55 5440
00000160: 8abb 7640 e313 7040 f348 07c0 acd8 35c0
00000170: 5686 4cc0 5d14 ebbf f9b4 10c0 916b 46c0
00000180: 221b 22c0 1e07 1bc0 b36e d3bf 0904 08c0
