experiments/models_mr=0.1_cr=0.1_pr=0.1/residual_synthetic_n=100_seed=16_B=100_lambda=1e1_dim=2_epoch=300_spe=10_bs=100_lr=0.1_seed=50.model (torch, 84927 bytes, 5 tensors)

_BaseModel__x0_s f4 [100, 2]
-1.5402124 -1.327314 -1.6377355 -1.3905792 -1.6527056 -1.423817 -1.5985386 -1.4132437
-1.6893479 -1.4114771 -1.6431336 -1.4813911 -1.7363768 -1.3821542 -1.7066047 -1.3807644
-1.7248207 -1.368544 -1.8000381 -1.3752676 -3.2143805 0.23717698 -3.2017741 0.59880096
-3.218651 0.73123914 -3.1711905 0.51996446 -3.2605534 0.79878145 -3.227356 0.28073382
-3.2089958 0.5422676 -3.2716784 0.3857863 -3.1974363 0.5231634 -3.2455928 0.3863147
-0.5284254 -2.512524 -0.5364794 -2.3724813 -0.3913373 -2.4840739 -0.60147786 -2.4085402
-0.28682628 -2.6523008 -0.27081326 -2.683997 -0.33491233 -2.57347 -0.30028448 -2.4412832
-0.4821081 -2.6439166 -0.4313571 -2.6157434 -1.5837734 1.2985244 -1.5928782 1.6664677
-1.7324059 1.7303088 -1.8785559 1.641956 -1.7002167 1.6292654 -1.8763435 1.5892982
-1.4406694 1.3999734 -1.8393016 1.6962829 -1.6241617 1.7184601 -1.8869464 1.6159972
4.421581 1.7854074 4.064438 1.4522479 4.76011 1.487246 4.2203145 1.7339588
4.5961814 1.4156635 4.5088816 1.3813168 4.4030085 1.9728028 4.199023 1.8307365
4.6487904 1.3395329 4.5954714 1.4742221 -0.062083725 1.0282384 -0.12045232 1.0679685
-0.011391789 1.0151742 -0.120681085 1.028116 -0.11977289 1.0346539 -0.11642368 1.0310345
-0.014622596 1.2861632 -0.18685436 1.2030927 0.1068631 0.9609875 0.016538817 1.0147598
1.0385435 3.1217961 1.1529193 2.6369138 1.301839 2.9683745 1.4594007 2.274287
1.266491 2.9893093 1.6694549 2.7595012 1.2108015 2.6645718 1.4848278 2.7424054
1.1546092 2.5840507 1.3021855 2.62232 -0.18694481 -0.8244182 -0.19956328 -0.7818542
0.2906662 -1.2079899 -0.036832277 -1.1281666 0.29751152 -1.2619382 0.22877474 -1.2217988
-0.08059138 -1.030179 0.03427322 -1.130715 0.084161915 -1.1452243 0.07690029 -1.0622967
-1.6224908 0.050373796 -1.591497 0.15498662 -1.6154481 0.033077653 -1.6322917 0.12046967
-1.4730607 -0.13392557 -1.6256628 0.049941022 -1.5455848 0.070076406 -1.7290994 0.19022737
-1.6698745 0.06300718 -1.6404644 0.11563204 3.954199 -1.5408986 3.7216606 -1.8261892
3.5906737 -2.0104218 3.342986 -1.8793788 3.2324452 -1.7319919 3.5180876 -1.8775772
3.5766509 -1.7355205 2.98309 -2.1115048 4.1317596 -1.7172 3.7889333 -1.7164346
00000000: ae25 c5bf 6de5 a9bf 51a1 d1bf 80fe b1bf
00000010: db8b d3bf a33f b6bf ea9c ccbf 2be5 b4bf
00000020: 8d3c d8bf 48ab b4bf 3452 d2bf 399e bdbf
00000030: 9841 debf 6eea b0bf 0672 dabf e3bc b0bf
00000040: edc6 dcbf 732c afbf a667 e6bf c508 b0bf
00000050: 69b8 4dc0 86de 723e dee9 4cc0 054b 193f
00000060: 61fe 4dc0 7d32 3b3f c9f4 4ac0 641c 053f
00000070: e8ac 50c0 f17c 4c3f 008d 4ec0 58bc 8f3e
00000080: 3060 4dc0 0dd2 0a3f 2e63 51c0 c885 c53e
00000090: cca2 4cc0 09ee 053f cbb7 4fc0 0acb c53e
000000a0: e346 07bf 31cd 20c0 b756 09bf bcd6 17c0
000000b0: 5d5d c8be 11fb 1ec0 74fa 19bf 8625 1ac0
000000c0: e5da 92be 4cbf 29c0 09a8 8abe 9bc6 2bc0
000000d0: a179 abbe bcb3 24c0 e3be 99be fc3d 1cc0
000000e0: dfd6 f6be ee35 29c0 d6da dcbe 5768 27c0
000000f0: 16b9 cabf 0c36 a63f 6fe3 cbbf d04e d53f
00000100: 7abf ddbf c27a dd3f 8574 f0bf 9d2b d23f
00000110: b3a0 d9bf c58b d03f 062c f0bf 206e cb3f
00000120: db67 b8bf 5432 b33f 3c6e ebbf cc1f d93f
00000130: 88e4 cfbf 80f6 db3f 7687 f1bf ffd8 ce3f
00000140: 977d 8d40 3b88 e43f e00f 8240 42e3 b93f
00000150: d252 9840 145e be3f d10c 8740 5df2 dd3f
00000160: eb13 9340 7634 b53f c248 9040 fdce b03f
00000170: 72e5 8c40 cd84 fc3f 655e 8640 9355 ea3f
00000180: e4c2 9440 d075 ab3f 1a0e 9340 4fb3 bc3f
00000190: 814b 7ebd 519d 833f b5af f6bd 31b3 883f
000001a0: a0a4 3abc 3af1 813f a527 f7bd 4e99 833f
000001b0: 7d4b f5bd 8a6f 843f 8a6f eebd f0f8 833f
000001c0: 9d93 6fbc ffa0 a43f c056 3fbe f1fe 993f
000001d0: 0adb da3d 4703 763f 6a7c 873c a6e3 813f
000001e0: feee 843f 82cb 4740 dc92 933f 32c3 2840
000001f0: a9a2 a63f d9f9 3d40 a4cd ba3f eb8d 1140
00000200: 611c a23f d850 3f40 b3b0 d53f ab9b 3040
00000210: 8bfb 9a3f 5888 2a40 d60e be3f 9283 2f40
00000220: 3cca 933f 1661 2540 04ae a63f 17d4 2740
00000230: 766e 3fbe 120d 53bf 515a 4cbe 9927 48bf
00000240: 33d2 943e 6a9f 9abf 71dd 16bd c367 90bf
00000250: 6e53 983e 3187 a1bf ed43 6a3e e763 9cbf
00000260: 180d a5bd e8dc 83bf 1362 0c3d 45bb 90bf
00000270: 155d ac3d b696 92bf e67d 9d3d 57f9 87bf
00000280: c7ad cfbf c154 4e3d 2cb6 cbbf d0b4 1e3e
00000290: 01c7 cebf 6f7c 073d efee d0bf cdb8 f63d
000002a0: 418d bcbf c923 09be b815 d0bf f58e 4c3d
000002b0: b9d5 c5bf 3884 8f3d 2153 ddbf f7ca 423e
000002c0: 73be d5bf e909 813d bdfa d1bf 7ed0 ec3d
000002d0: 9911 7d40 2a3c c5bf b02f 6e40 91c0 e9bf
000002e0: 99cd 6540 c0aa 00c0 7cf3 5540 7c8f f0bf
000002f0: 62e0 4e40 e9b1 ddbf 5928 6140 7354 f0bf
00000300: d9e7 6440 8925 debf f2ea 3e40 e522 07c0
00000310: 6037 8440 36cd dbbf e27d 7240 21b4 dbbf

_BaseModel__v_s f4 [100, 100, 2]
0.008014388 -0.12323085 -0.008624699 -0.1166246 0.001815832 -0.10646823 0.011657145 -0.12029201
-0.00085592666 -0.11847784 -0.0017934619 -0.12192232 0.0044305 -0.11862687 0.0034144488 -0.1273382
0.00076269545 -0.12094799 0.0063569043 -0.12155872 0.0004634466 -0.1199489 0.004164354 -0.118195966
0.02252593 -0.13524358 -0.0015934445 -0.1232791 0.0012210964 -0.12232115 0.0006018905 -0.1293129
0.00024037587 -0.123169996 -0.0012676984 -0.11366408 -0.017197533 -0.14001904 -0.0005463555 -0.12080844
0.0194677 -0.118080944 0.0010119432 -0.12037891 -0.0019593085 -0.12091026 0.016142044 -0.11089197
-0.0063716043 -0.11575107 0.009739374 -0.12241514 0.0037580258 -0.11950639 0.0008711731 -0.114157304
-0.0019108589 -0.12677512 0.0158199 -0.120260544 0.00080728094 -0.122518905 -0.006851253 -0.121447675
-0.0001730849 -0.13234395 7.729181e-05 -0.121479474 0.007922331 -0.119845144 0.007510449 -0.1326845
0.01232578 -0.12199994 -0.00038339105 -0.120621756 0.0025455188 -0.120024525 -0.0029995092 -0.12199031
-0.0004883972 -0.123097256 -0.010942583 -0.120589815 -0.0008200521 -0.121401414 0.0007683452 -0.11556116
0.0011919696 -0.12126462 -0.0014240523 -0.12152004 -0.002579678 -0.12180111 -0.0016063438 -0.12346636
-0.0022132238 -0.12253585 0.0019295411 -0.123832315 0.0019078834 -0.12111598 0.0054074093 -0.09977842
-0.0024407087 -0.12240648 -0.00091298926 -0.12601031 0.00024117646 -0.122398406 0.002308635 -0.11972238
0.018366199 -0.13349187 -0.00076538563 -0.12257671 -0.00034425128 -0.123310715 0.014779654 -0.10934591
0.0031085159 -0.11784296 -0.0017645548 -0.12159108 -0.0008836368 -0.12247014 -0.010247821 -0.11089056
-0.0013038237 -0.11972164 0.0031193239 -0.121107176 0.008130625 -0.118058935 0.0043042507 -0.123648144
-0.0028519838 -0.11630575 -0.008028572 -0.1384305 0.0026001106 -0.12299751 -0.0045559164 -0.1167158
-0.0065280655 -0.13163653 0.0021781449 -0.12272921 -0.006714569 -0.11757975 0.0102554215 -0.124959975
-0.0015727093 -0.11822486 0.0007634312 -0.12262389 0.00010370251 -0.12210011 0.008604533 -0.12577303
-0.00275073 -0.116444595 7.240067e-05 -0.11895693 -0.0042289165 -0.13205016 0.0035470827 -0.12067065
0.004068278 -0.12522522 -0.0005715261 -0.12916759 0.0069275494 -0.1199789 -0.003532908 -0.1241474
0.0061530652 -0.10670523 -0.00955857 -0.11865902 0.00022502767 -0.12058052 -0.004670591 -0.12295531
0.0053897556 -0.12085922 0.0012917139 -0.11679049 0.00397567 -0.12115688 0.002763032 -0.12097561
0.008560096 -0.12990797 0.0009979599 -0.12038526 -0.0027062907 -0.121778876 0.005270036 -0.11782084
0.056647092 -0.122246265 0.036228 -0.12012472 0.03552035 -0.1219621 0.03158371 -0.10506275
0.0372456 -0.12185349 0.030801026 -0.11927098 0.03480804 -0.11853513 0.034486327 -0.12040492
0.04074736 -0.12013112 0.03334655 -0.124570146 0.034985192 -0.12075523 0.035814334 -0.11973129
0.037607897 -0.11953261 0.036652338 -0.12245342 0.03945683 -0.11521833 0.031755853 -0.105271064
0.03799387 -0.121063575 0.03668981 -0.1199302 0.032896712 -0.12120013 0.0350621 -0.116312325
0.035104033 -0.120378286 0.034696333 -0.11957353 0.035381924 -0.12049406 0.03673901 -0.12047999
0.031831786 -0.116734594 0.044397585 -0.13270937 0.039753884 -0.11826359 0.037064467 -0.12422052
00000000: c84e 033c 7560 fcbd 9c4e 0dbc e1d8 eebd
00000010: 3601 ee3a 040c dabd 9cfd 3e3c a85b f6bd
00000020: 4460 60ba 83a4 f2bd 9812 ebba 69b2 f9bd
00000030: ba2d 913b a5f2 f2bd f2c4 5f3b f264 02be
00000040: a0ef 473a 94b3 f7bd 944d d03b c7f3 f8bd
00000050: c0fa f239 c5a7 f5bd 2275 883b ba10 f2bd
00000060: 4d88 b83c 4b7d 0abe 20db d0ba c179 fcbd
00000070: 320d a03a 8383 fabd 30c8 1d3a 9a6a 04be
00000080: 680d 7c39 8d40 fcbd e628 a6ba b7c8 e8bd
00000090: d7e1 8cbc 2761 0fbe 4c39 0fba 6a6a f7bd
000000a0: ba7a 9f3c 6cd4 f1bd 2ea3 843a 3889 f6bd
000000b0: be67 00bb cc9f f7bd 523c 843c 541b e3bd
000000c0: e4c8 d0bb e60e edbd e591 1f3c cab4 fabd
000000d0: 3649 763b c4bf f4bd 705f 643a 4ecb e9bd
000000e0: c975 faba 56d1 01be bc98 813c 294b f6bd
000000f0: b59f 533a 31eb fabd 7a80 e0bb 8fb9 f8bd
00000100: 207e 35b9 2c85 07be b917 a238 3bca f8bd
00000110: aacc 013c 5f71 f5bd 361a f63b 72de 07be
00000120: 11f2 493c 1bdb f9bd e001 c9b9 8a08 f7bd
00000130: b8d2 263b 6bcf f5bd 6a93 44bb 0ed6 f9bd
00000140: c807 00ba 6a1a fcbd 8548 33bc cbf7 f6bd
00000150: c4f8 56ba 4ea1 f8bd c66a 493a 54ab ecbd
00000160: dd3b 9c3a 9659 f8bd 44a7 baba 80df f8bd
00000170: d10f 29bb dc72 f9bd f48b d2ba eedb fcbd
00000180: bc0b 11bb 13f4 fabd a8e8 fc3a cc9b fdbd
00000190: f211 fa3a a80b f8bd a330 b13b a158 ccbd
000001a0: 4cf4 1fbb 40b0 fabd ac55 6fba d908 01be
000001b0: 50e4 7c39 04ac fabd 784c 173b 0231 f5bd
000001c0: b674 963c 18b2 08be 29a4 48ba 8009 fbbd
000001d0: a07c b4b9 548a fcbd 5d26 723c c0f0 dfbd
000001e0: 3eb8 4b3b a657 f1bd a248 e7ba bf04 f9bd
000001f0: dda3 67ba a0d1 fabd 7ae6 27bc 971a e3bd
00000200: 10e5 aaba 9f30 f5bd 926d 4c3b 0a07 f8bd
00000210: 5036 053c e2c8 f1bd ac0a 8d3b 3d3b fdbd
00000220: 59e8 3abb b631 eebd 468a 03bc bac0 0dbe
00000230: 9e66 2a3b 1ee6 fbbd cc49 95bb b108 efbd
00000240: 62e9 d5bb bacb 06be 35bf 0e3b 7459 fbbd
00000250: e305 dcbb a7cd f0bd 5b06 283c 04eb ffbd
00000260: 5e23 ceba e01f f2bd 0021 483a 3c22 fbbd
00000270: dc7a d938 9f0f fabd 07fa 0c3c a5ca 00be
00000280: 9745 34bb 817a eebd d0d5 9738 b19f f3bd
00000290: b992 8abb 2838 07be 2c76 683b 2c22 f7bd
000002a0: 304f 853b 0a3b 00be 78d2 15ba 8244 04be
000002b0: 7f00 e33b 7fb7 f5bd 5c88 67bb fe40 febd
000002c0: a79f c93b 4688 dabd 8c9b 1cbc 8003 f3bd
000002d0: 68f5 6b39 ebf2 f6bd c20b 99bb fecf fbbd
000002e0: 8c9c b03b 0a85 f7bd ba4e a93a da2f efbd
000002f0: 5646 823b 1921 f8bd fc13 353b 10c2 f7bd
00000300: a53f 0c3c 9806 05be facd 823a 8c8c f6bd
00000310: 065c 31bb 3467 f9bd 44b0 ac3b 0d4c f1bd
00000320: c806 683d 405c fabd d063 143d f303 f6bd
00000330: c97d 113d 44c7 f9bd ec5d 013d 242b d7bd
00000340: d88e 183d 538e f9bd 6f52 fc3c 5844 f4bd
00000350: e092 0e3d 8cc2 f2bd 8941 0d3d db96 f6bd
00000360: b4e6 263d 4e07 f6bd 6496 083d a21e ffbd
00000370: a24c 0f3d 854e f7bd 0db2 123d ae35 f5bd
00000380: bd0a 1a3d 83cd f4bd c320 163d dcc8 fabd
00000390: 7c9d 213d 96f7 ebbd 6d12 023d 5b98 d7bd
000003a0: 769f 1b3d 2ef0 f7bd 0e48 163d f79d f5bd
000003b0: b4be 063d c637 f8bd 479d 0f3d 2835 eebd
000003c0: 3fc9 0f3d e488 f6bd be1d 0e3d f8e2 f4bd
000003d0: a3ec 103d 97c5 f6bd a57b 163d 37be f6bd
000003e0: 0c62 023d 8c12 efbd 3eda 353d f7e4 07be
000003f0: f8d4 223d 2e34 f2bd e9d0 173d 5467 febd

_BaseModel__beta_s f4 [2]
2.437722 -0.3993403
00000000: a303 1c40 5576 ccbe

_BaseModel__prior_b_sigma_s f4 [100]
-0.43181387 -1.8222733 -1.0190572 -1.5257765 -1.1632168 0.43504387 -0.19915581 -1.0257034
0.2109457 -0.8149471 -0.82353276 4.703066 -1.2514514 -1.2475498 4.6645517 -1.3819942
-0.8294838 -0.9301866 0.3327607 0.47007024 -1.2642307 -0.26327834 -1.226195 -1.1445452
-0.41194323 -0.5246382 -1.110734 0.5074991 -1.3257809 -0.44584045 -1.7880217 -0.4007184
-1.656976 -0.94551283 -0.8754251 0.25874436 -0.96493524 0.46529672 3.7056494 4.626596
-1.2598702 -1.7801563 0.36354765 0.2833005 -1.4099021 -1.2021879 -0.8687365 -1.012063
3.824666 4.2439847 -1.7250656 0.17272358 -1.1093854 -1.623925 -0.92424864 -0.25905508
-1.1466209 0.17215216 0.5103805 -0.059051253 0.64793986 0.39217454 -0.6463517 -1.1133624
-1.157845 -0.7127221 -1.3189553 2.2443023 -1.0749774 2.9044123 -1.169557 0.48307797
-0.728392 -1.7652239 -1.1607279 0.39563236 -0.94016033 -1.4606153 -1.6719754 -0.31523052
-0.68857366 -1.1799788 -1.7774243 -0.116311096 -0.59185404 -0.41922235 -0.033261236 -1.6751506
-1.3639733 -0.803074 -1.7486526 -0.68957627 3.846285 -0.9149424 0.27025115 -0.8789737
-1.0554786 -0.053121313 -0.7742012 -1.0154514
00000000: b516 ddbe 4040 e9bf 7770 82bf a54c c3bf
00000010: 4ae4 94bf 12be de3e 80ef 4bbe 404a 83bf
00000020: 2602 583e 60a0 50bf 0bd3 52bf 847f 9640
00000030: 8f2f a0bf b6af 9fbf 0244 9540 30e5 b0bf
00000040: 0d59 54bf b620 6ebf 9c5f aa3e 0cad f03e
00000050: 50d2 a1bf 6bcc 86be f5f3 9cbf 7580 92bf
00000060: 39ea d2be b04e 06bf 882c 8ebf 76eb 013f
00000070: 30b3 a9bf 3345 e4be e5dd e4bf f62a cdbe
00000080: ca17 d4bf 210d 72bf dc1b 60bf 247a 843e
00000090: ff05 77bf 5f3b ee3e 5c29 6d40 130d 9440
000000a0: 6d43 a1bf 29dc e3bf eb22 ba3e c30c 913e
000000b0: ac77 b4bf 4be1 99bf 8465 5ebf 488b 81bf
000000c0: 54c7 7440 b9ce 8740 f3ce dcbf 73de 303e
000000d0: 5700 8ebf c6dc cfbf 8f9b 6cbf dea2 84be
000000e0: 79c4 92bf a848 303e 4ca8 023f badf 71bd
000000f0: 63df 253f 1acb c83e 4e77 25bf a982 8ebf
00000100: 4434 94bf f574 36bf 87d3 a8bf a6a2 0f40
00000110: dc98 89bf e4e1 3940 0bb4 95bf ff55 f73e
00000120: e677 3abf dbf2 e1bf bb92 94bf 5390 ca3e
00000130: 59ae 70bf 71f5 babf 4a03 d6bf e565 a1be
00000140: 5d46 30bf 8c09 97bf a482 e3bf 8334 eebd
00000150: bf83 17bf 50a4 d6be ef3c 08bd 566b d6bf
00000160: ad96 aebf 4296 4dbf d9d3 dfbf 1288 30bf
00000170: 8929 7640 aa39 6abf 5c5e 8a3e 6c04 61bf
00000180: ec19 87bf bc95 59bd 0d32 46bf 50fa 81bf

_BaseModel__prior_c_sigma_s f4 [100]
-0.6885694 0.65682435 0.46491575 0.31894267 -0.7778358 -0.15574703 0.10082064 0.2136178
-0.40478957 -0.3166861 0.02705834 0.54870915 0.7858659 -0.6472915 0.58016056 0.29716298
-0.028307915 0.7410785 0.45329493 -0.1855933 0.4822318 0.83345455 0.80593026 0.72229743
3.189294 0.675752 -0.31630588 -0.5589009 0.54573405 0.4888397 -0.049668953 -0.082476884
0.37387598 -0.0037048701 0.66595536 -0.095777765 -0.19770254 4.2639103 -0.23169456 -0.661088
-0.12918165 1.6722491 -0.16496739 0.24181658 -0.007438548 -0.22385606 -0.024735384 -0.28417724
-0.024416432 -0.37901837 4.757598 0.15580496 -0.18293652 0.36338103 -0.38974223 -0.16859904
0.7115605 0.20383582 0.29543236 -0.5159801 0.26584393 -0.13519365 -0.49191913 0.6257886
4.1239944 -0.07244602 -0.6764202 -0.64701366 0.5806692 0.5864637 -0.61538666 0.17712647
0.57473785 -0.1931228 3.1221402 -0.14994836 4.166859 -0.12822756 -0.29313928 -0.7400832
0.55818087 -0.15630743 0.251701 -0.47035939 -0.2835266 0.3137902 0.25186005 -0.053773537
-0.30839092 4.4563727 -0.11315557 0.47642723 -0.16536802 0.64924794 -0.32473233 -0.06092555
0.60814756 0.0115645975 -0.36810178 -0.3960047
00000000: 1646 30bf a425 283f 7009 ee3e 744c a33e
00000010: 3f20 47bf 267c 1fbe 0d7b ce3d a0be 5a3e
00000020: 9440 cfbe ae24 a2be 74a9 dd3c 3478 0c3f
00000030: 822e 493f e5b4 25bf 6785 143f bf25 983e
00000040: 00e6 e7bc 52b7 3d3f 4616 e83e 2c0c 3ebe
00000050: 16e7 f63e 475d 553f 7251 4e3f 7ce8 383f
00000060: 651d 4c40 15fe 2c3f d8f2 a1be 2114 0fbf
00000070: 3ab5 0b3f 3249 fa3e ac71 4bbd a4e9 a8bd
00000080: ac6c bf3e 68cd 72bb 0d7c 2a3f 2227 c4bd
00000090: 8972 4abe f471 8840 5741 6dbe 103d 29bf
000000a0: 3248 04be 420c d63f 36ed 28be c49e 773e
000000b0: 10bf f3bb 863a 65be dca1 cabc ae7f 91be
000000c0: f804 c8bc b20e c2be 3e3e 9840 568b 1f3e
000000d0: b653 3bbe 140d ba3e 4b8c c7be 3aa5 2cbe
000000e0: d428 363f 56ba 503e e942 973e 4617 04bf
000000f0: b21c 883e 3470 0abe d3dc fbbe af33 203f
00000100: c3f7 8340 945e 94bd e029 2dbf b0a2 25bf
00000110: bda6 143f 7c22 163f fb89 1dbf a460 353e
00000120: 0522 133f fcc1 45be 25d1 4740 108c 19be
00000130: e956 8540 164e 03be 5a16 96be 1876 3dbf
00000140: f1e4 0e3f 0e0f 20be f4de 803e f2d2 f0be
00000150: 662a 91be 1ca9 a03e cdf3 803e a441 5cbd
00000160: 6ae5 9dbe 9b9a 8e40 1cbe e7bd 45ee f33e
00000170: 3c56 29be 1d35 263f 5143 a6be 128d 79bd
00000180: 8faf 1b3f 7079 3d3c d677 bcbe 21c1 cabe
