experiments/models_mr=0.1_cr=0.1_pr=0.1/residual_synthetic_n=100_seed=16_B=100_lambda=1e6_dim=2_epoch=300_spe=10_bs=100_lr=0.1_seed=30.model (torch, 84927 bytes, 5 tensors)

_BaseModel__x0_s f4 [100, 2]
000000 3d f7 c6 bf ac 8b 56 3f 67 a6 02 c0 26 61 06 bf
       -1.5544201 0.8380687 -2.0414064 -0.52491987
000010 71 47 91 bf 5f da 6a 3e 33 14 c1 bf 7c 43 82 3e
       -1.1349927 0.22934864 -1.5084289 0.25442111
000020 ca 91 d7 bf 09 ed 60 3f 36 54 ba bf 7b 1d 05 bf
       -1.6841366 0.87861687 -1.4556949 -0.5199811
000030 7d e1 6c bf 0d d4 50 3f ba c4 d0 bf fb 8b 28 bf
       -0.9253157 0.81573564 -1.6310036 -0.65838593
000040 73 77 82 bf e6 42 89 be 1f 35 c9 bf 27 f1 0f 3e
       -1.0192703 -0.26808852 -1.5719336 0.14056836
000050 19 9c b3 3f d9 80 f7 bd 81 5c c3 3f e3 fa 4f 3e
       1.4032012 -0.120851226 1.5262605 0.2031055
000060 c1 f1 17 40 9e fb 5b be 49 7a a4 3f 57 75 35 3f
       2.3741305 -0.21482703 1.2849818 0.7088217
000070 7c 39 00 40 a4 fb 97 bb c6 7e b4 3f 62 12 e8 3e
       2.0035086 -0.004638152 1.4101188 0.45326525
000080 2b 45 ea 3f ee a5 03 3f 69 db b7 3f e5 7e ee 3e
       1.8302358 0.51425064 1.4363834 0.46581188
000090 c1 d5 ee 3f f2 d0 4a 3f c8 74 93 3f 75 ed f4 3e
       1.8658983 0.79225075 1.1520014 0.47837415
0000a0 c4 57 30 c0 49 cc 87 3f 15 1b 7e c0 d3 96 81 3f
       -2.7553568 1.0609218 -3.970403 1.0124153
0000b0 70 46 64 c0 64 ba 77 3f b1 c4 49 c0 8a 0a 84 3f
       -3.5667992 0.96768785 -3.15263 1.0315716
0000c0 f1 7b 98 c0 8d f2 6b 3e d0 d3 8c c0 fb 8f 80 3f
       -4.7651296 0.23041745 -4.400856 1.0043939
0000d0 81 7b 6a c0 77 46 2e 3f 33 5c 53 c0 7d 70 9b 3f
       -3.663788 0.6807627 -3.3025024 1.2143704
0000e0 89 46 5a c0 47 42 92 3f 63 88 8b c0 1f fe ea 3e
       -3.4105551 1.1426476 -4.360399 0.45897004
0000f0 d0 af db 3f 8a 07 b1 bf 6b d9 ee 3f 2f 76 d5 bf
       1.7163029 -1.3830426 1.8660101 -1.6676692
000100 42 d6 ae 3f ef 43 e2 bf 28 d8 d0 3f c4 ed af bf
       1.3659136 -1.7676982 1.6315966 -1.3744435
000110 ca 75 d9 3f f9 ae 8a bf d9 04 1c 40 6a 34 d6 bf
       1.6989071 -1.0834647 2.4377959 -1.6734746
000120 b1 f1 c3 3f 73 20 bb bf b4 09 02 40 94 f6 a6 bf
       1.5308133 -1.4619278 2.0318422 -1.3044
000130 90 43 cc 3f df 9a 0d c0 d3 bb 22 40 bb 19 96 bf
       1.5958118 -2.2125776 2.5427139 -1.1726602
000140 89 0d 35 c0 52 a7 3d c0 81 10 3e c0 d8 74 c7 bf
       -2.8289511 -2.9633374 -2.9697573 -1.5582533
000150 66 dc 26 c0 44 b0 f3 bf ec 7b 68 c0 2d 55 4e c0
       -2.607202 -1.9038167 -3.6325636 -3.2239487
000160 0f 29 3b c0 12 73 43 c0 69 07 44 c0 46 68 1a c0
       -2.924381 -3.0538983 -3.0629523 -2.4126143
000170 54 ca 50 c0 48 64 1a c0 ad 13 66 c0 14 b1 23 c0
       -3.2623491 -2.4123707 -3.594951 -2.557683
000180 7b fd 37 c0 de e6 2f c0 64 36 3e c0 80 01 3b c0
       -2.8748462 -2.748466 -2.9720697 -2.9219666
000190 87 a2 86 40 32 9b 36 40 4a ca 2f 40 b0 69 4a 40
       4.20734 2.8532224 2.7467217 3.1627007
0001a0 d2 35 5b 40 a1 d7 1b 40 fb a6 5f 40 bc 1b 07 40
       3.42516 2.435036 3.4945667 2.1110678
0001b0 49 51 2f 40 dc 71 41 40 ee 0e 0e 40 02 fa 34 40
       2.7393363 3.0225744 2.2196612 2.8277593
0001c0 11 5e 54 40 7e 7b dc 3f e1 b5 20 40 89 a7 3d 40
       3.3182414 1.7225187 2.511101 2.9633505
0001d0 1a 77 52 40 36 c7 34 40 ea 10 47 40 2e 35 16 40
       3.2885194 2.8246589 3.1104074 2.3469958
0001e0 52 8f b2 40 56 c7 de 3e 68 8c 93 40 bc 95 86 3f
       5.579995 0.43511456 4.6108894 1.0514445
0001f0 1a ce 83 40 2d 75 4d 3f ed c7 92 40 77 62 03 40
       4.118909 0.8025692 4.586905 2.0528848
000200 20 b0 9c 40 07 7c 9e 3f 44 cb 84 40 29 bb 52 3f
       4.8964996 1.23816 4.1498127 0.82316834
000210 5b 5c 9e 40 18 65 92 3f cb b2 a3 40 57 ef 9e 3f
       4.948774 1.1437101 5.1155753 1.2416791
000220 6d 88 99 40 9a bf a6 3f 87 a3 98 40 00 f9 71 3f
       4.7979035 1.3027222 4.769962 0.9452057
000230 a1 3c de bd 80 2f b2 3f ed c9 2b 3e fb a9 d0 3f
       -0.10851408 1.3920746 0.16776247 1.6301874
000240 f4 b7 78 be 62 5f f0 3f 2c 31 45 bf 6b 18 15 40
       -0.24288923 1.8779109 -0.77028155 2.3296154
000250 bb 34 69 bf 7e c3 19 40 cb 44 11 3e 07 3e 09 40
       -0.91096085 2.402557 0.14186399 2.1444108
000260 d3 b8 84 3d 52 8d ef 3f 8b 4b 8d be fa 54 1a 40
       0.06480565 1.8715003 -0.27596697 2.4114366
000270 d5 96 a4 bf f5 15 ee 3f 8e 67 bc 3e 5d 36 1a 40
       -1.285853 1.8600451 0.36797756 2.409568
000280 2d 0c 7e bf 0b b9 2f be 18 c4 f1 be ad db 54 bf
       -0.9923733 -0.17160432 -0.4721992 -0.831477
000290 aa 28 81 bf e3 59 91 bc 4b ae 64 bf cc 76 18 bf
       -1.0090535 -0.017743057 -0.8932845 -0.5955627
0002a0 46 a4 52 bf fe 44 22 3d 87 d6 35 bf 09 e2 42 be
       -0.8228191 0.039616577 -0.7103047 -0.19031538
0002b0 fa c0 9f be d3 2e 6f bd bd 9b 99 be 3d 44 a2 bf
       -0.31201917 -0.058394264 -0.3000163 -1.2677075
0002c0 cf 5a 30 bf bc 9a 35 bf 61 05 40 bf b9 e1 aa be
       -0.6888856 -0.7093923 -0.7500821 -0.33375338
0002d0 f8 a3 c3 3e ca 2d 80 c0 42 bd ea 3c 1c 71 76 c0
       0.38211036 -4.0055895 0.028654698 -3.8506536
0002e0 8f 16 ce be 48 2a 7f c0 2b ff 2b bf dc 16 50 c0
       -0.40251586 -3.9869556 -0.6718623 -3.2513952
0002f0 31 08 54 bd 58 35 5e c0 fe cc 3b 3b 80 1a 87 c0
       -0.051765624 -3.4720058 0.002865612 -4.221985
000300 f9 db d2 bd aa 15 90 c0 c4 2a 0d bf 89 82 49 c0
       -0.10295863 -4.5026445 -0.5514338 -3.1485922
000310 5c e2 17 3f 58 57 81 c0 c2 e0 6b 3e 8a 72 a0 c0
       0.5932977 -4.041912 0.23034957 -5.013982

_BaseModel__v_s f4 [100, 100, 2]
000000 01 9c 31 c0 e0 6d ea bf 83 d6 ab be 07 91 3e c0
       -2.7751467 -1.8314781 -0.33562097 -2.9776018
000010 37 7c 0c c1 69 c4 76 3f 1e cb c7 c0 cf 32 c8 bf
       -8.780326 0.9639345 -6.2435446 -1.5640506
000020 bb 7c 3f c0 61 3c f9 c0 7c 3b 59 c1 20 8b c6 3f
       -2.991988 -7.7886205 -13.577023 1.5511208
000030 6d 92 d4 c0 62 b2 b7 3f 7b 38 c1 be 2d 4e f3 40
       -6.6428742 1.4351313 -0.37738404 7.603293
000040 3a d3 23 c1 fa bd 11 41 0c 1b 8e 40 99 b0 84 c0
       -10.239069 9.108881 4.4408016 -4.1465573
000050 f4 00 eb bd 3a 14 0b 40 42 1b 1c 40 b1 3e 89 c0
       -0.11474791 2.1731095 2.4391637 -4.2889028
000060 5c ff 86 bf 62 1f 0a 3f dd 97 2a 40 b9 0d 37 c0
       -1.054668 0.53954136 2.665519 -2.8602126
000070 5e 21 66 40 fa 83 79 3e 23 aa b5 bf 7a 04 23 3f
       3.5957866 0.24366751 -1.4192547 0.63678706
000080 c6 cc 6c 40 82 21 87 c0 aa ae f8 3f 8c 83 7b c0
       3.6999984 -4.2228403 1.9428303 -3.929904
000090 6d a6 c9 40 49 9d ab 40 ff 46 2b 3f 41 e0 a8 bf
       6.3015656 5.36295 0.66905206 -1.3193437
0000a0 48 3b fb c0 6a 76 d7 40 b6 51 c6 3f 9d 7c a3 40
       -7.8509865 6.733205 1.5493686 5.1089616
0000b0 12 3a 6d be ad 1e 81 40 5d 73 a5 c0 b7 63 54 c0
       -0.23166683 4.0349946 -5.1703324 -3.318586
0000c0 f6 3d 98 3f 2f 94 c8 3f 42 0d 94 3d 84 42 57 40
       1.1893909 1.5670222 0.07229091 3.3634348
0000d0 e4 bf 16 bf f7 a9 7c 40 4f a6 32 c0 07 ca 8f 40
       -0.5888655 3.9478738 -2.7914007 4.4934115
0000e0 d9 88 00 c1 46 f4 9f bf 2f ae bd c0 44 10 9f 40
       -8.03341 -1.2496421 -5.9275126 4.9707355
0000f0 0c 78 9e 40 1b fa 1a 40 82 85 4e bf 01 af 77 c0
       4.952154 2.4215152 -0.80672467 -3.8700564
000100 aa d2 a9 3e 63 9b fd 3f 0d 30 1e 3f 1b 47 19 40
       0.33168536 1.9813045 0.6179207 2.394965
000110 6b b2 05 3f 2f 1e a5 c0 c9 b3 bf 40 17 7d 54 c0
       0.5222537 -5.1599345 5.9906964 -3.3201349
000120 b7 08 be be 4b 32 44 40 dc 89 b1 40 c6 df b7 c0
       -0.37116024 3.0655696 5.5480785 -5.746066
000130 86 45 cb 3f fd 7f 96 c0 ce 08 1f 41 a5 41 83 c0
       1.5880592 -4.7031236 9.93965 -4.1017632
000140 98 e8 b9 c0 7b 8a 17 c1 e2 a4 31 c1 cf b7 32 c1
       -5.809643 -9.471309 -11.102755 -11.169875
000150 de 97 c0 bf 20 3d ae 3d 9b e7 58 bf 30 e4 04 c0
       -1.5046346 0.085077524 -0.847284 -2.0764275
000160 47 54 2a c0 9f fa 59 bf 7c 5b cd c0 50 80 0e be
       -2.661394 -0.8514804 -6.4174175 -0.13916135
000170 d4 76 fd c0 77 ab 1c c1 a2 53 0b c1 c4 21 bc c0
       -7.9207554 -9.791862 -8.707918 -5.879122
000180 7a b8 24 c1 46 20 40 c0 b0 81 5e c0 61 1c 86 c0
       -10.295038 -3.0019698 -3.4766655 -4.190964
000190 c2 83 28 3f 97 0d aa bf e9 50 35 3f 12 ef 0e bd
       0.65826046 -1.3285397 0.70826584 -0.034895964
0001a0 b4 29 47 3f e8 8d 09 c0 6e a2 06 41 e8 43 cf 40
       0.7779801 -2.1492863 8.414656 6.4770393
0001b0 1d 36 19 40 ae 72 0f c0 30 f9 12 41 33 13 bc bf
       2.3939278 -2.2413745 9.185837 -1.4693359
0001c0 d9 89 26 40 38 0e 7d 40 79 6e ed 40 62 56 8c 40
       2.6021636 3.9539928 7.4197354 4.385545
0001d0 9a 25 fb 40 4a 29 62 3e 5c 6e 12 40 a5 d7 6b 3f
       7.84834 0.22086063 2.2879858 0.9212592
0001e0 0e b7 dc 40 ad 33 00 c0 0d 8b 13 40 a9 73 94 3f
       6.8973455 -2.003154 2.305362 1.1597797
0001f0 fd 79 3c 41 d6 df c8 c0 3a 69 ec 40 50 7c 78 40
       11.779782 -6.2773237 7.387845 3.8825874
000200 93 d1 82 40 63 e6 95 c0 ed e4 38 41 00 7b 14 c0
       4.088083 -4.6843734 11.55589 -2.3200073
000210 9c 37 aa 3e ad 9a 54 3f 7d f5 c8 40 5c 36 45 be
       0.33245552 0.83048517 6.279967 -0.19259018
000220 68 4e 08 3e 3d c4 d7 be ce 17 9e 3f 30 90 ef 3f
       0.1331116 -0.42141905 1.2351015 1.8715878
000230 0d fe 7e 3f 1c 71 03 40 79 2e 48 40 57 ce 05 c0
       0.996064 2.0537786 3.1278365 -2.090719
000240 96 53 6f 3f 39 99 f2 40 1c ff f5 bf 0b 8c 35 c0
       0.93486917 7.581204 -1.9218478 -2.8366725
000250 80 e7 d0 c0 aa 03 48 3f b8 ff 0e 40 a6 87 7e 40
       -6.5282593 0.7813059 2.2343578 3.9770293
000260 c0 59 86 c0 af 00 1a c0 bb 32 f1 bf b7 cb 9c 40
       -4.198456 -2.4062917 -1.8843607 4.8998675
000270 06 50 84 40 32 03 90 40 0d 00 14 40 f5 c0 b5 3e
       4.1347685 4.50039 2.312503 0.35498777
000280 4d 8c bb 3f 46 73 83 c0 cf 60 c1 3f 8e 1d 2a be
       1.4652191 -4.1078215 1.5107669 -0.16612837
000290 84 a4 6f 40 20 41 d5 40 39 d2 80 3f f4 ee 86 bf
       3.7444162 6.6642 1.0064155 -1.0541673
0002a0 60 f3 c5 3f 27 dd 84 40 f7 6d 0c bf 28 61 b0 be
       1.5464897 4.151996 -0.54855293 -0.34449124
0002b0 12 06 aa bc 52 f7 76 40 cd 48 db 40 5e 71 3c be
       -0.020754848 3.8588452 6.852637 -0.18402621
0002c0 ac 91 e9 3f 3a 98 25 40 38 6f fd 3f b7 52 aa c0
       1.824758 2.5874162 1.9799566 -5.322597
0002d0 62 68 08 40 4c 2f ad c0 95 7c 89 40 e9 61 c9 c0
       2.131371 -5.4120235 4.296458 -6.293202
0002e0 a9 79 fa bf 5d 8b c6 c0 fa e8 2c 40 d9 6e 1b c1
       -1.9568378 -6.204512 2.7017198 -9.714562
0002f0 36 aa 3b c0 c0 cd 35 c0 f7 24 b1 3f cc 18 bc bf
       -2.9322639 -2.840683 1.3839406 -1.4695067
000300 64 ca 0a 40 2d 59 94 c0 25 99 40 40 f7 a5 ff c0
       2.168603 -4.6358857 3.0093472 -7.9890094
000310 2f 40 1f c0 ee f3 cb c0 90 ce 18 bf 9b 03 ba c0
       -2.4882925 -6.3735266 -0.5969019 -5.81294
000320 33 e9 54 c0 b7 89 95 c0 5a ea 47 c0 b4 de 09 c0
       -3.3267334 -4.673061 -3.1236787 -2.1542177
000330 1e 54 ca c0 35 5d 73 3f 79 74 11 c0 36 26 e6 bf
       -6.322768 0.950641 -2.272734 -1.7980411
000340 12 de e3 c0 51 dc 12 c1 13 1a 30 c1 eb cf ac 40
       -7.120858 -9.178788 -11.006366 5.4003806
000350 cb e7 c2 c0 50 69 c9 c0 98 07 d1 c0 2a b8 d4 40
       -6.090795 -6.2941055 -6.532177 6.647481
000360 3e 09 0e c1 9c d6 10 40 64 85 64 40 44 58 9d be
       -8.877256 2.2630987 3.5706415 -0.30731404
000370 99 87 5f bf 84 c5 c7 3d aa 47 7d bd ac 6c b5 be
       -0.8731628 0.0975447 -0.061835922 -0.35434473
000380 ab 0f ee bf f8 c6 86 bf 05 13 f1 3f 42 ae 55 bf
       -1.8598531 -1.052947 1.8833929 -0.8346902
000390 67 25 09 40 04 31 ae bd 0d 52 e3 3e a7 66 06 bf
       2.1429079 -0.08505443 0.44398537 -0.52500385
0003a0 99 56 2d 40 9e d0 17 c0 94 39 6c 3f 17 f5 4f bf
       2.7084105 -2.372108 0.9227536 -0.8123335
0003b0 48 c9 85 40 43 10 a7 40 b8 bd 15 3e 30 b5 4b bf
       4.1808205 5.220735 0.14623153 -0.79573345
0003c0 ad d6 f5 c0 28 7d cf 40 f9 d9 50 40 7f 8a 6d 40
       -7.6824555 6.484028 3.263304 3.7115781
0003d0 90 2a 8e c0 d1 7d 79 40 de 1a 2c c0 61 02 dc bf
       -4.4426956 3.8983042 -2.6891398 -1.7188226
0003e0 9a 29 99 40 48 43 3f 40 9a 12 36 c0 c2 ec 4c 40
       4.7863283 2.9884815 -2.8448853 3.2019506
0003f0 dc 06 67 c0 4f 28 2f 40 3e c2 e3 bf 6f 6b 8f 40
       -3.6097937 2.7368352 -1.7793653 4.4818645

_BaseModel__beta_s f4 [2]
000000 a1 40 54 40 39 1f 87 bf
       3.3164446 -1.0556403

_BaseModel__prior_b_sigma_s f4 [100]
000000 57 1b f3 40 94 60 97 40 91 4e f2 40 6b 53 98 40
       7.5970874 4.7305393 7.5720906 4.760183
000010 3f 23 9c 40 0c 4e 9c 40 a2 bd 9c 40 6f 36 9a 40
       4.8793025 4.884527 4.8981485 4.8191447
000020 3c ce a7 40 d6 e8 fe 40 c9 e9 fd 40 60 ec 94 40
       5.243925 7.9659224 7.934788 4.6538544
000030 9b f1 95 40 78 b4 99 c0 7d a9 99 c0 39 30 9f c0
       4.685743 -4.80328 -4.8019395 -4.9746366
000040 6d ff 94 40 00 7a 92 40 43 8e 92 40 f9 a6 ee 40
       4.65618 4.5773926 4.579866 7.4578824
000050 84 8d 94 40 81 2a f2 40 6f 84 f2 40 86 29 f5 40
       4.642275 7.5676885 7.578666 7.661319
000060 69 c1 f8 40 86 22 fd 40 d0 0b 04 41 7b 06 06 41
       7.7736096 7.9104643 8.252884 8.376582
000070 46 08 07 41 88 fc 08 41 2f 41 ae 40 0e e7 94 40
       8.43952 8.561653 5.445457 4.653205
000080 0f 71 94 40 ae 0d 9d 40 a7 33 69 c0 bf 25 9a 40
       4.638801 4.90792 -3.6437776 4.8171077
000090 f7 13 f8 40 a0 f8 ff 40 70 2b 04 41 9f 64 29 41
       7.752437 7.9990997 8.260605 10.587066
0000a0 2a bd 05 41 ee ee 02 41 bb 55 00 41 f6 6f fd 40
       8.358683 8.183332 8.02093 7.919917
0000b0 79 89 91 40 47 1a 97 c0 52 cd 99 c0 2a c1 91 40
       4.5480313 -4.7219577 -4.8063135 4.5548296
0000c0 ac 50 92 40 1c 26 91 40 68 4d 93 40 86 f4 9c c0
       4.5723476 4.535902 4.603199 -4.904849
0000d0 bb de a6 c0 4e 76 a8 c0 64 0e a8 c0 69 fc a4 c0
       -5.214689 -5.2644415 -5.2517567 -5.155812
0000e0 d4 7e a1 c0 cf 96 9e c0 2c 09 a3 c0 f0 4d a0 c0
       -5.046732 -4.9559093 -5.0948696 -5.009514
0000f0 81 b2 9c c0 64 b2 95 40 3d 3d 99 c0 71 c3 93 40
       -4.89679 4.678026 -4.7887254 4.6176076
000100 49 52 1e c0 f5 15 ef 40 9e 57 ee 40 46 71 ef 40
       -2.4737723 7.4714303 7.4481955 7.4825773
000110 8e b3 ed 40 1d 58 ee 40 a8 31 ee 40 b2 12 f0 40
       7.4281683 7.448256 7.4435616 7.502282
000120 7b 94 ee 40 9d bd 96 40 bf 00 9d 40 3f f6 a1 c0
       7.455625 4.710646 4.906341 -5.0613093
000130 3e 1f 88 c0 92 a5 a0 c0 73 50 a3 c0 36 f1 9b c0
       -4.2538137 -5.020211 -5.1035705 -4.8731947
000140 75 a7 a1 c0 9e 2b 9c c0 c9 0c a1 c0 c7 f2 9d c0
       -5.0516915 -4.8803244 -5.0328107 -4.935886
000150 da a0 9c c0 17 2b 7f c0 e5 4e 96 c0 2d 8d 97 c0
       -4.894635 -3.987005 -4.6971307 -4.7359834
000160 d9 8a 93 c0 a4 58 8d c0 2f 4f a5 40 95 68 a9 40
       -4.610699 -4.4170704 5.165916 5.2940164
000170 48 b9 ab 40 75 44 ad 40 ee 3d f5 40 33 7c ff 40
       5.3663673 5.4146066 7.66381 7.983911
000180 87 15 03 41 64 53 22 41 a9 03 25 41 d0 eb 31 41
       8.192756 10.145359 10.313394 11.120071

_BaseModel__prior_c_sigma_s f4 [100]
000000 09 32 a7 40 83 a1 a8 40 6d aa a7 40 e0 b7 36 41
       5.224858 5.269716 5.239554 11.419891
000010 4f d0 a1 40 23 e8 a7 40 fa 2e 36 41 ee 7d 9f 40
       5.0566783 5.247087 11.386469 4.9841223
000020 0b a2 a1 40 92 23 a2 40 63 e0 ad c0 a2 5c a9 c0
       5.0510306 5.066842 -5.433641 -5.2925577
000030 e1 94 a6 c0 a4 61 a6 c0 fb b3 a9 c0 1d c7 a6 c0
       -5.2056737 -5.199419 -5.3032203 -5.211806
000040 b2 05 a8 c0 3e d8 aa c0 87 a3 9c 40 ab de ae c0
       -5.250695 -5.3388968 4.894962 -5.464681
000050 37 32 a5 40 60 b3 b4 40 f1 46 ac 40 31 01 ac 40
       5.1623797 5.6468964 5.38366 5.3751454
000060 ce 0c c3 40 cd ef af 40 57 af a5 40 95 f1 a1 40
       6.095313 5.4980226 5.177654 5.06074
000070 9f 35 a9 40 dd 2e ae 40 c5 29 aa 40 a2 47 a9 40
       5.2877955 5.4432206 5.317599 5.2899942
000080 e3 bd a6 40 2c 88 9c 40 9a b6 a3 40 7a 5c 9e 40
       5.2106795 4.8916225 5.11604 4.9487886
000090 5b 2d ab 40 49 9b ce bf dc 31 b2 40 9f b9 a3 40
       5.3492866 -1.6141139 5.5685863 5.116409
0000a0 50 e6 a7 40 f3 02 be 40 76 ef a8 40 2b 79 ac c0
       5.2468643 5.93786 5.279231 -5.389791
0000b0 89 2e b0 c0 4e 4e a5 c0 03 97 a7 40 5e 96 a7 c0
       -5.5056806 -5.1658087 5.237184 -5.2371054
0000c0 7d 74 a4 40 47 58 a6 c0 bf 34 9d 40 17 93 a6 40
       5.1392198 -5.198276 4.9126887 5.2054553
0000d0 9e 54 a3 c0 bf 08 9f 40 5c b8 9e 40 fc 31 a9 40
       -5.1040792 4.9698176 4.960005 5.2873516
0000e0 44 8b a8 c0 e8 8d a2 40 a0 6a 9f c0 60 cf a7 40
       -5.267 5.0798225 -4.9817657 5.2440643
0000f0 9e 36 ab c0 d5 56 b0 c0 70 04 9f 40 37 01 a3 40
       -5.350417 -5.5105996 4.9692917 5.0938983
000100 81 7b 9f 40 fb d6 a2 40 a2 36 aa c0 d7 e8 9f c0
       4.983826 5.0887427 -5.319169 -4.997173
000110 9c 6c a9 c0 af 40 aa c0 d1 05 ad 40 d1 0c c3 40
       -5.294508 -5.320396 5.40696 6.0953145
000120 23 77 a2 bf e3 c8 ad 40 a2 b1 8e bf af 5d ca 40
       -1.2692608 5.4307723 -1.1147959 6.323936
000130 dd f5 b9 40 54 05 b3 40 6f dc b5 40 e9 a6 b9 40
       5.8112626 5.5944004 5.6831584 5.801625
000140 f2 54 37 41 ef da 3f 41 92 a3 36 41 c3 40 a5 40
       11.458239 11.990951 11.414934 5.1641555
000150 26 08 40 41 a6 17 37 41 43 34 38 41 ad 35 b9 40
       12.001989 11.443274 11.512759 5.787802
000160 1e 70 a8 40 61 85 a8 40 74 e7 a5 40 a6 05 a2 c0
       5.263686 5.2662816 5.1845036 -5.0631895
000170 37 70 ab c0 c4 b0 a7 40 f0 9b a2 40 47 87 b0 c0
       -5.357448 5.240328 5.0815353 -5.5165133
000180 df a1 b0 c0 5c 20 a9 c0 28 5d 97 c0 ae 1a b3 c0
       -5.5197597 -5.2852 -4.7301216 -5.597007
