experiments/models_mr=0.1_cr=0.1_pr=0.1/residual_synthetic_n=100_seed=16_B=100_lambda=1e4_dim=2_epoch=300_spe=10_bs=100_lr=0.1_seed=40.model (torch, 84927 bytes, 5 tensors)

_BaseModel__x0_s f4 [100, 2]
000000 5e af 9c 3e da 56 65 bf 22 71 b2 bd 56 6d b2 bf
       0.30602545 -0.8958565 -0.087129846 -1.3939617
000010 66 86 89 3d a2 e8 a6 bf bc 64 98 3d 4d ed a4 bf
       0.067150876 -1.3039744 0.074410886 -1.2884918
000020 47 26 1e 3e af 0c aa bf 72 50 f1 3e 1b 79 68 bf
       0.15444289 -1.3285121 0.47131687 -0.9080979
000030 8d c9 ab 3d eb 6a 7d bf 32 f1 17 3f 16 ef 5c bf
       0.08388052 -0.9899127 0.5935241 -0.86302316
000040 d9 22 3a 3e 4c ff 8c bf d9 ca 44 3e 5c 50 99 bf
       0.18177356 -1.101541 0.19218005 -1.1977649
000050 c7 41 55 3e ed 01 bd 3f aa 8e bd 3e fa 7e ce 3f
       0.20825873 1.4766213 0.37022907 1.61325
000060 ed f5 3e 3e 26 9f c8 3f 95 ea 3a 3f f6 14 ce 3f
       0.186485 1.5673568 0.73014194 1.6100147
000070 53 03 9b be 68 db c4 3f 5e e0 1b 3f 5a 97 c2 3f
       -0.30275974 1.5379457 0.6088923 1.5202439
000080 50 06 45 3f 1a 6d d4 3f 4a 95 16 3f d0 9f d5 3f
       0.7696276 1.6595795 0.5882155 1.6689396
000090 4b aa 9b 3e 9f 27 c2 3f 70 b3 13 3f b9 70 c6 3f
       0.3040336 1.5168341 0.57695675 1.550315
0000a0 28 d3 a2 bf 86 11 05 c0 e5 71 db bf 07 71 d2 bf
       -1.272069 -2.0791945 -1.7144133 -1.6440743
0000b0 8c 54 e9 bf c6 26 cd bf 16 13 ae bf 3d 46 bf bf
       -1.8228927 -1.6027458 -1.3599575 -1.494331
0000c0 7f 3b d8 bf 0b 63 0f c0 b8 cd 06 c0 ac ef cd bf
       -1.6893157 -2.24042 -2.106306 -1.6088767
0000d0 60 99 d8 bf 21 b5 e0 bf fb 3a d9 bf c2 a8 e6 bf
       -1.6921806 -1.7555276 -1.6971124 -1.8020251
0000e0 bd a0 b9 bf 65 20 fc bf 50 9f e0 bf 37 f4 e6 bf
       -1.4502178 -1.9697386 -1.7548618 -1.8043278
0000f0 3c 64 39 bf 6e a3 12 40 a8 82 3a be 16 92 2d 40
       -0.7241857 2.291225 -0.18213904 2.7120414
000100 6b 3c ca be c5 27 2c 40 08 3f 21 bf f8 01 2e 40
       -0.3949922 2.6899273 -0.62986803 2.7188702
000110 1a fd ca be 3b 7e 37 40 03 b5 ef be dd 15 3f 40
       -0.39646226 2.8670795 -0.46817788 2.9857094
000120 e7 a7 81 be f2 80 24 40 3e f6 a7 3c 99 4c 20 40
       -0.25323412 2.5703702 0.02050316 2.5046751
000130 f2 e6 54 bf 47 ac 27 40 cc e9 03 bf 7f 81 51 40
       -0.83164895 2.61989 -0.5152862 3.2735288
000140 02 74 30 40 d8 78 71 c0 08 5f 15 40 b4 aa 2c c0
       2.7570806 -3.7730007 2.3339252 -2.697919
000150 f2 5b 28 40 11 19 3d c0 f4 6a 27 40 d0 62 4c c0
       2.630612 -2.954655 2.615903 -3.193531
000160 1a 24 44 40 f5 f5 6c c0 6c c9 2d 40 5c 47 60 c0
       3.0647035 -3.702512 2.7154188 -3.5043554
000170 97 2c 2d 40 fc 44 5f c0 50 de 11 40 64 cb 5d c0
       2.7058465 -3.4885855 2.2791939 -3.465539
000180 d3 9a 2f 40 59 73 5e c0 85 84 29 40 6d 98 59 c0
       2.7438247 -3.4757903 2.6487134 -3.3999283
000190 2b eb 13 40 87 f2 27 40 81 75 f6 3f b5 bc 38 40
       2.3112285 2.6241777 1.9254609 2.8865178
0001a0 79 5b 18 40 aa b6 25 40 b3 57 16 40 69 49 19 40
       2.380583 2.589274 2.3491027 2.3951056
0001b0 69 d7 f5 3f f0 16 30 40 43 fd f4 3f 62 47 3b 40
       1.9206363 2.7514 1.9139789 2.9262319
0001c0 62 05 21 40 62 72 34 40 d6 d7 de 3f 5b 42 3f 40
       2.5159535 2.8194814 1.7409618 2.988425
0001d0 24 48 19 40 98 f8 32 40 02 18 16 40 c5 52 20 40
       2.395028 2.796423 2.3452153 2.5050519
0001e0 07 be 8b 40 be 83 17 40 7d 8f 83 40 b0 dd 04 40
       4.3669467 2.367416 4.1112657 2.0760307
0001f0 3e e2 95 40 ed 64 c6 3f 0f 95 64 40 23 e3 e7 3f
       4.6838675 1.549955 3.5715978 1.8116192
000200 ae c7 8e 40 ed b9 ff 3f 51 b6 86 40 d2 3b a8 3f
       4.461875 1.9978615 4.2097554 1.3143256
000210 5a 12 85 40 da 43 fb 3f aa b1 84 40 b5 72 f4 3f
       4.15849 1.9630082 4.1466875 1.9097506
000220 cb a5 77 40 13 9a 04 40 bc d6 86 40 b2 ff d7 3f
       3.8694942 2.071904 4.2137127 1.6874907
000230 b9 c8 a5 bf 1e 02 17 3d 1d 2c 9b bf 74 08 c8 3e
       -1.2951881 0.036867253 -1.2122837 0.3906895
000240 4e 75 9d bf 19 79 b1 be dc 30 81 bf e1 6a 29 bf
       -1.2301424 -0.34662703 -1.0093036 -0.6617871
000250 bd 49 ac bf 30 01 61 be 31 3c de bf ef 23 84 3e
       -1.3460003 -0.21973109 -1.7362119 0.25808665
000260 d5 f7 8f bf ad 74 8f be 19 e9 a9 bf 06 de 2e be
       -1.1247507 -0.28018704 -1.3274261 -0.17076883
000270 7d 99 81 bf f1 70 5b bf 2e f8 72 bf 0e 20 20 bf
       -1.0124966 -0.8571921 -0.9490994 -0.6254891
000280 d4 3b 0a 3f 6a ae 87 3e 68 c7 f5 3e f2 8a 32 3f
       0.5399754 0.26500255 0.48003697 0.69743264
000290 86 31 2f 3f ba a2 e5 3c 01 08 50 3f e0 df 0d 3f
       0.6843494 0.028031696 0.81262213 0.5541973
0002a0 a8 de e9 3e 98 2a da bd 36 90 19 3f ab d2 9e 3e
       0.45677686 -0.10652655 0.59985673 0.31020102
0002b0 e6 b8 59 3f f4 f1 91 3e 54 d2 a5 bd 5f 60 1f 3f
       0.8504776 0.28504908 -0.080967575 0.62256426
0002c0 6b 63 57 3f f4 af e3 3e df 03 2a 3f b7 3e c1 3e
       0.84136075 0.4447018 0.66412157 0.3774316
0002d0 16 45 8b c0 f9 87 79 c0 64 b9 87 c0 48 f8 83 c0
       -4.3521833 -3.898924 -4.2413807 -4.124058
0002e0 b2 f1 6f c0 24 09 7b c0 8e a2 64 c0 ac 94 8b c0
       -3.749127 -3.922433 -3.5724216 -4.3618984
0002f0 5b e5 59 c0 73 f0 8e c0 8c 36 75 c0 f7 d3 89 c0
       -3.4046237 -4.4668517 -3.8314543 -4.3071246
000300 a1 20 7e c0 62 f6 88 c0 dc ab 4e c0 96 1a 79 c0
       -3.9707415 -4.280076 -3.2292395 -3.8922477
000310 15 fc 92 c0 54 83 8d c0 2b 97 89 c0 99 b3 8c c0
       -4.5932717 -4.4222813 -4.299703 -4.3969235

_BaseModel__v_s f4 [100, 100, 2]
000000 71 df 3f 3f ba 53 37 3e 10 92 4b 3f 38 06 4b 3e
       0.7495032 0.17903033 0.7951975 0.19826591
000010 66 67 6b 3f 11 a9 0d 3e 4b 9e 00 40 cf b1 c7 bd
       0.9195465 0.13834025 2.0096614 -0.09750711
000020 c0 be 31 3f 9e d7 3a 3e 80 d1 39 c0 68 ec 42 c0
       0.69431686 0.18246314 -2.9034119 -3.045679
000030 b8 d3 65 3f 06 a8 4c 3e 0e 0d 3a c0 13 7f 86 c0
       0.8977618 0.19985971 -2.9070468 -4.203012
000040 02 29 46 3f 2a e4 3c 3e 6e ad 47 3f 2e 20 29 3e
       0.7740632 0.18446413 0.7799901 0.16516182
000050 72 24 b8 3f 76 91 a5 3f 2f c1 10 3f 7e 3d 3b 3e
       1.4386122 1.2935016 0.56544775 0.18285176
000060 33 ab 75 3f f4 70 1b 3f b4 40 74 3f ab 7d 39 3f
       0.95964354 0.6071923 0.9541123 0.7245738
000070 2d a9 44 3f d0 6f 3a 3e 78 63 3b 3f 8e 35 8a be
       0.7682064 0.18206716 0.7319865 -0.26993984
000080 f4 f9 74 40 8a fc 8b 3e cc 3a 8e 3f 72 4d 46 3f
       3.827756 0.2734111 1.1111693 0.7746192
000090 7a 9d 4c 3f 47 99 16 3e 31 d7 64 3f 74 32 6c 3e
       0.7992779 0.14706908 0.89390856 0.23066121
0000a0 7d bd 76 c0 e3 74 77 3f 96 06 13 3e 21 f8 d0 be
       -3.8553154 0.9666273 0.14357981 -0.40814307
0000b0 ab fc 61 3f 4a ba 27 3f 11 a7 49 3f 07 92 12 3e
       0.88276166 0.6551863 0.7877055 0.14313518
0000c0 e4 c3 82 bf f0 d5 09 40 41 e8 50 3f f5 a3 4e 3e
       -1.0216031 2.1536827 0.8160439 0.20179732
0000d0 c2 87 5f 3f 8d 6a 8e 3e 4f 30 09 3f 2b 0e 50 3e
       0.87316525 0.27815667 0.5358934 0.20317905
0000e0 5f 36 93 c0 ae d1 19 40 c8 6e 08 40 0c 6d 83 bf
       -4.600387 2.4034228 2.1317616 -1.0267653
0000f0 52 6f 3e 3f 7f af 3c 3e 9c ee 36 3f b8 23 3f 3e
       0.7438861 0.18426321 0.7145784 0.1866597
000100 ea d1 49 3f bd b3 4e 3e 52 a7 61 3f 71 14 0e 3e
       0.7883593 0.20185752 0.88145936 0.13874985
000110 ae c1 27 3f 4a 9e bd 3e d5 86 28 3f 13 f6 eb 3c
       0.65529907 0.37034827 0.6583074 0.02880386
000120 e7 f8 44 3f 47 4b 2b 3e bf d4 40 3f f4 f8 01 3e
       0.76942295 0.16727935 0.75324625 0.12692624
000130 45 2d 45 3f b9 55 32 3e 7e ad 53 3f 2d 75 2b 3e
       0.770222 0.17415513 0.82686603 0.16743918
000140 66 2d 46 3f 91 7a 3d 3e ea d2 9b 40 f4 9b c6 c0
       0.7741302 0.18503787 4.8694963 -6.2065372
000150 0e 53 43 3f a3 13 23 3e c4 da 02 3f 61 16 a3 bf
       0.76298606 0.1592546 0.5111506 -1.2741205
000160 0b 79 4b 3f eb b8 23 3e 32 79 43 3f c7 06 8f 3e
       0.7948157 0.1598851 0.76356804 0.27934858
000170 a3 bb 40 3f 21 da 29 3e d5 0a 51 3f ea 0d 5b 3e
       0.7528631 0.16587116 0.81657153 0.21392027
000180 b2 78 05 40 49 86 8a bf 06 96 4b 3f 7f 16 28 3e
       2.0854917 -1.082223 0.7952579 0.16414832
000190 9d 73 54 3f 5d bd 38 3e 74 35 44 3f 43 25 22 3e
       0.8298891 0.18040986 0.76644063 0.15834527
0001a0 e3 10 81 40 64 20 05 40 55 aa 45 3f 9f 41 30 3e
       4.0333114 2.080102 0.7721303 0.17212532
0001b0 91 29 49 3f 14 b0 49 3e 9f e5 41 3f 28 66 1f 3e
       0.7857905 0.19696075 0.75741 0.15566313
0001c0 49 34 41 3f 4f 4b 1b 3e 6a b9 43 3f 59 d2 0a 3e
       0.75470406 0.15165447 0.76454794 0.13556804
0001d0 07 85 8f 3f 79 47 14 3e a1 7a 44 3f 6a e9 37 3e
       1.1212472 0.1448039 0.76749617 0.17960134
0001e0 2d fc 69 3f ca b5 13 3e 6c 1f 45 3f 1a b8 83 3e
       0.91400415 0.14424816 0.7700107 0.25726396
0001f0 b8 98 9f 3e b7 31 32 3e ab 35 b3 3f 4a 86 f6 3f
       0.31171203 0.17401777 1.4000753 1.9259732
000200 fd f5 f9 3f 56 d4 22 bf 3c 66 c6 3f fd 32 4a bf
       1.9528195 -0.6360525 1.549995 -0.7898405
000210 79 39 49 3f 7f 72 9e 3e 05 c9 0c 40 ac 93 02 bf
       0.7860332 0.3094673 2.1997693 -0.5100658
000220 8e 3b 6b 3f 56 ae 7b be 08 ec 0b 3f 92 cc 15 3e
       0.9188775 -0.24578223 0.5465703 0.14628819
000230 02 c0 42 3f 17 5a 46 3e 69 61 52 3f ed 5e ed 3d
       0.7607423 0.19370304 0.82179886 0.11590371
000240 62 81 42 3f 0c ed 49 3e 7a 71 41 3f 8a a8 11 3e
       0.7597867 0.19719332 0.75563776 0.14224449
000250 a6 2a 40 3f 0a ae 38 3e 36 d8 f5 3f 8e 3d 47 be
       0.75065076 0.1803514 1.9206607 -0.19457075
000260 f2 a7 4a 3f af af 28 3e 56 16 44 3f c9 92 98 3e
       0.79162514 0.16473268 0.7659658 0.29799488
000270 ea df 49 3f dd 3c 1b 3e 92 92 4a 3f 0f ce 24 3e
       0.7885729 0.15159936 0.791299 0.1609423
000280 76 6f 59 40 55 e9 f4 3e be 06 5c 3f a8 71 1f 3f
       3.397428 0.47834268 0.8594779 0.622828
000290 24 64 44 3f 93 75 a1 3f f3 c1 47 3f bb 5a 2a 3e
       0.767153 1.2614006 0.7803032 0.16636173
0002a0 57 e2 ba bf 0c a3 df 3f 23 a2 64 3f 9b 63 0d 40
       -1.4600323 1.7471633 0.893099 2.2092044
0002b0 d5 0b 4d 40 67 37 d5 3e 7f d2 ea bf bc 15 8b 40
       3.2038472 0.4164383 -1.8345488 4.346403
0002c0 c4 75 85 3f 38 da e3 3d a9 a8 0d 3e 24 6f 01 be
       1.0426564 0.11125606 0.1383387 -0.12640053
0002d0 43 79 3d 3f 14 f7 03 3e cb a0 40 3f e4 51 2c 3e
       0.74013156 0.12887222 0.7524535 0.16828114
0002e0 a5 ae d7 bf e4 80 a7 3f f6 f1 44 3f 6f ea 0b 3e
       -1.6850172 1.3086209 0.76931703 0.13663648
0002f0 72 5d 41 3f e6 33 34 3e fe 1e 45 3f 1d 61 32 3e
       0.7553321 0.17597923 0.77000415 0.17419858
000300 a3 9d 3d 3f ff 6d 2a 3e 42 a2 86 3f 4e 6e 4b be
       0.7406866 0.16643523 1.0518267 -0.19866297
000310 61 ba 41 3f 8b 40 31 3e db 25 49 3f 56 f8 2b 3e
       0.75675017 0.17309777 0.7857339 0.16793951
000320 f5 cb 2f bf 74 d6 0b be 3b de 30 bf 42 02 0e be
       -0.6867059 -0.13656026 -0.69089097 -0.13868049
000330 21 f8 2d bf 07 fa e3 bd 4a c3 d8 bd 31 5a ff be
       -0.6795674 -0.11131673 -0.105841234 -0.49873498
000340 5b f6 36 bf 5f e6 c7 3d f8 3a 98 c0 86 e7 21 c0
       -0.7146966 0.09760737 -4.7571983 -2.529756
000350 34 b6 2e bf 08 d5 f0 bd 58 24 05 c1 98 9f 91 c0
       -0.6824677 -0.117593825 -8.321373 -4.5507317
000360 f2 78 33 bf da ab fc bd da 46 32 bf 3f 2a 05 be
       -0.7010642 -0.123374656 -0.6963936 -0.13004397
000370 e3 db 20 3d d4 1a a5 3d 47 ed 1a bf 56 60 09 be
       0.0392722 0.08061758 -0.60518306 -0.13415655
000380 f5 ed 1c bf 23 34 8c 3e 57 88 22 bf 4a 94 ce 3d
       -0.61300594 0.27383527 -0.6348929 0.10086878
000390 11 d9 2e bf 7f f2 f8 bd 8f 90 39 bf c8 e8 28 bf
       -0.6829997 -0.121556275 -0.72486204 -0.65980196
0003a0 f7 7c dc 3f 54 d6 c4 3e a6 e0 27 bf 77 5b 21 3f
       1.7225636 0.3844477 -0.6557716 0.6303019
0003b0 b5 8d 31 bf 6f de 05 be 01 e7 1b bf 4e d8 d3 bd
       -0.6935685 -0.13073133 -0.6089936 -0.10343991
0003c0 7f d6 72 c0 1b 9e 99 3e 59 ce 80 bf 40 30 37 bf
       -3.7943418 0.30003437 -1.0062972 -0.71558
0003d0 43 c6 06 bf 39 fc bc 3e 7b 6c 29 bf 63 19 0d be
       -0.52646273 0.3691118 -0.66181153 -0.13779216
0003e0 51 ca 18 c0 0b d6 75 3f 71 b7 33 bf 13 e0 08 be
       -2.3873484 0.9602973 -0.70201784 -0.13366728
0003f0 10 20 15 bf 08 4c fb bd 99 68 14 bf 8a da 0d be
       -0.5825205 -0.12270361 -0.57972103 -0.13852897

_BaseModel__beta_s f4 [2]
000000 3b 87 33 40 66 db 30 bf
       2.8051288 -0.69084775

_BaseModel__prior_b_sigma_s f4 [100]
000000 26 06 27 c0 e1 b5 3c c0 03 5c 4b c0 44 5b 4f c0
       -2.6097503 -2.948601 -3.177491 -3.2399454
000010 4b 4b e3 bf 26 cc 10 c0 34 96 00 c0 2e 79 05 c0
       -1.7757353 -2.2624602 -2.0091677 -2.0855212
000020 e8 97 b9 be c6 7c 31 bf 85 ed 53 bf 19 34 58 c0
       -0.36248708 -0.69331014 -0.827843 -3.3781798
000030 4a 79 28 c0 3d 85 57 c0 5a c5 62 c0 b8 f1 8b c0
       -2.632403 -3.3675072 -3.5432954 -4.3732567
000040 0e 31 83 c0 7e 07 62 c0 53 13 2a c0 a7 7a 13 c0
       -4.099738 -3.5317073 -2.6574295 -2.304361
000050 40 42 0a c0 4b ac 3f bf f1 4e 1b 40 b8 c0 1e 40
       -2.1602936 -0.74872273 2.4266932 2.4805126
000060 2c 3f 84 bf 77 e6 2e bf e5 cd 1c 40 8f b2 32 40
       -1.0331779 -0.6832041 2.4500668 2.7921484
000070 f7 72 48 40 b6 f9 54 40 9c 5d 9a 3b 18 33 0b c0
       3.132017 3.3277411 0.004710866 -2.1749935
000080 b6 4e b5 bf be 75 3a bf 2d 28 89 bf cc 57 cb bf
       -1.4164646 -0.7283591 -1.0715386 -1.5886168
000090 f4 66 d2 3e 29 a0 83 40 f8 6d 9c 40 96 93 f7 40
       0.41094172 4.113301 4.888424 7.736766
0000a0 3d 9c de 40 c4 3d 95 40 c5 6c 84 40 00 10 6d 40
       6.956572 4.6637897 4.1382775 3.7041016
0000b0 bd 3b 64 40 52 fa f6 3d 4a af 5e 40 00 1b 48 40
       3.5661461 0.120594636 3.4794488 3.126648
0000c0 32 c9 30 40 4f 8c 2b 40 29 08 2a 40 12 24 32 bf
       2.76228 2.6804388 2.656748 -0.6958629
0000d0 07 9a 1d c0 e5 0c 0c c0 9a 6a 04 c0 1a a2 93 bf
       -2.462526 -2.188287 -2.0690064 -1.1533844
0000e0 72 a5 7e bf 21 c4 9a bf f5 e5 dc bf 38 0b 65 bf
       -0.994712 -1.2091104 -1.7257677 -0.89470243
0000f0 dc b4 21 40 39 14 21 40 e6 a2 f2 3e 65 b8 b1 3c
       2.5266638 2.5168593 0.47389907 0.021694371
000100 fb 79 48 40 97 d0 61 40 70 3b 3f 40 88 f2 14 40
       3.132445 3.5283563 2.9880028 2.327303
000110 67 c9 05 40 4f 56 28 40 a3 23 88 40 db a3 8b 40
       2.0904176 2.6302679 4.25435 4.363752
000120 c9 78 44 40 7e b6 2b 40 c2 a3 e7 be a2 2a 2c 3f
       3.0698721 2.6830134 -0.45242125 0.6725255
000130 48 ca ad be 33 19 0c 3e b8 8a ba be 79 a2 0e c0
       -0.3394339 0.13681488 -0.3643396 -2.2286665
000140 6d 1a ee bf b0 d1 d4 bf ce 50 fb bf 8d 7c ea bf
       -1.8601815 -1.6626492 -1.9634035 -1.831926
000150 36 83 6a bf 74 43 38 40 de c2 a9 bf 00 6e 9d bf
       -0.9160646 2.879117 -1.3262594 -1.2299194
000160 a6 b9 15 bf 77 78 98 bf ba a9 23 40 33 1f 44 40
       -0.584864 -1.1911763 2.5572343 3.0644042
000170 6c 08 30 40 2e f6 4d 40 c7 64 40 40 d5 d1 69 40
       2.750514 3.2181506 3.006151 3.6534321
000180 30 50 3a 40 de 9d 51 40 43 44 b8 40 dd 1c 4d 40
       2.9111443 3.2752604 5.7583327 3.2048867

_BaseModel__prior_c_sigma_s f4 [100]
000000 cc 02 5d c0 25 9c 50 3e de ba 51 3f ec 71 56 40
       -3.4532957 0.20372064 0.8192576 3.3507032
000010 ad fd 64 3f 7e 1e 87 40 c2 e1 f7 3f 05 49 98 40
       0.8944958 4.222472 1.9365771 4.7589135
000020 55 4f 0f bf a8 ce 5e 3d 3c da 3f 40 36 46 eb 3f
       -0.55980426 0.0543963 2.997695 1.8380802
000030 15 8d 0a 40 cb 1e 1d 40 b4 85 6c be 12 1a 2f 40
       2.164861 2.4550045 -0.23097879 2.7359662
000040 b8 de 5f 40 54 f7 2b 40 ee 66 df 3e 64 ef eb 3f
       3.4979687 2.6869707 0.43633217 1.8432431
000050 2f ee 4b 40 6c 22 03 40 3d 3f 31 40 e8 e5 26 3f
       3.1864126 2.048976 2.7694848 0.6519456
000060 c9 78 7b 40 1b 3b 94 3f 4a ea eb 3f 0a 11 e7 3f
       3.9292471 1.1580538 1.8430874 1.8052075
000070 c7 3a 09 41 88 74 62 40 04 2d e5 bf 63 23 04 c0
       8.57685 3.5383625 -1.7904363 -2.0646598
000080 7a af d5 bf 47 a8 3b 3f 9a 40 cd bf 6c fc fc 3f
       -1.6694176 0.73303646 -1.603534 1.9764533
000090 11 23 b9 bf 2e 69 9e c0 91 77 8c bf 9b 69 7e 3f
       -1.4463826 -4.9503393 -1.0973989 0.9937989
0000a0 f2 6e fd be bd bb 21 41 70 65 ce bf 95 95 9f 40
       -0.49498707 10.108335 -1.6124706 4.9870095
0000b0 64 47 bd c0 91 03 de bf f2 89 61 c0 55 dc d2 3f
       -5.9149647 -1.7344838 -3.5240445 1.647349
0000c0 31 dd 1b 40 8b 7d 95 3f 42 36 63 bf 1f 40 a6 bf
       2.4353755 1.1678938 -0.88754666 -1.2988318
0000d0 e8 b9 66 40 1a 2d eb be 6b 08 21 be fb 75 aa c0
       3.6050968 -0.45932847 -0.15725867 -5.326902
0000e0 ee 59 9d bf 01 9b b5 c0 5e 15 16 40 d5 2c 1a c0
       -1.2293069 -5.6751714 2.3450541 -2.4089863
0000f0 e1 d9 5a 3f c3 b9 81 3f ab bd 05 bf e6 20 3e 40
       0.85488707 1.0134815 -0.52242535 2.970758
000100 23 51 0b 40 92 2e 2c 40 64 6c a1 3e c5 ff 41 40
       2.1768272 2.6903424 0.31528008 3.031236
000110 fe f2 44 40 ff 49 c1 3e 65 84 97 be 40 ad 7f 3f
       3.077331 0.37751767 -0.29593197 0.99873734
000120 5d f9 00 c0 98 55 75 c0 68 ca 5a bf 90 5a 69 40
       -2.01522 -3.8333492 -0.854651 3.6461525
000130 bc 5a ab bf ac 14 c4 3f 17 dc a3 c0 ed bf 96 c0
       -1.3387065 1.5318809 -5.1206164 -4.7109284
000140 c2 62 3e 40 3b ef 03 40 bf fe 59 40 b6 24 fa bd
       2.9747777 2.0614765 3.4061735 -0.12214033
000150 3f 51 81 40 82 1a 25 40 d4 c1 58 40 61 ee 7a 40
       4.0411677 2.579743 3.3868303 3.9207995
000160 01 7e 8e 3f f8 0d 22 40 0e e7 1b c0 29 0c 7a 3f
       1.1132203 2.5321026 -2.4359775 0.97674805
000170 b6 83 83 40 e0 d8 c6 c0 07 ed 73 c0 8c 57 e1 bf
       4.109828 -6.213974 -3.811342 -1.7604842
000180 cc ff d3 bf 4a 6d 3b 3f 3c 26 ef bf a1 b4 9e c0
       -1.6562438 0.73213637 -1.8683543 -4.9595494
