experiments/models_mr=0.1_cr=0.1_pr=0.1/residual_synthetic_n=100_seed=16_B=100_lambda=1e10_dim=2_epoch=300_spe=10_bs=100_lr=0.1_seed=40.model (torch, 84935 bytes, 5 tensors)

_BaseModel__x0_s f4 [100, 2]
000000 91 e5 82 bf 94 49 8f bf 4f 9d 28 bd 22 a4 c8 bf
       -1.0226308 -1.1194329 -0.041165646 -1.5675089
000010 8b 99 54 be 67 06 45 bf 3d 6a bb be fb fa 8a bf
       -0.20761697 -0.76962894 -0.3660449 -1.0857843
000020 6b 97 83 bf e9 a5 93 bf 43 9c 0c 3f 06 d1 67 bf
       -1.0280584 -1.1535007 0.54925936 -0.9055332
000030 8b 25 71 bf 3e 7b 62 bd 4a 8d bc 3e cd 7d 70 bf
       -0.9419791 -0.055293314 0.36826545 -0.93941957
000040 c4 17 a7 be 76 e1 b1 be af bd 2e 3e 62 74 87 bf
       -0.3263532 -0.34742326 0.17064546 -1.0582392
000050 73 5e 9a 3f 0f e1 06 40 47 11 c4 3f 97 69 10 40
       1.2060074 2.1074865 1.5317773 2.2564447
000060 76 7a 92 3f d4 db 37 40 ae 5b 06 40 ee 0a ab 3f
       1.1443622 2.8727922 2.0993457 1.336271
000070 cc f9 bd 3f fe d9 16 40 f0 4d f4 3f 8b 72 00 40
       1.4841857 2.3570552 1.9086285 2.0069911
000080 a9 a0 bd 3f ee 6a 19 40 83 f2 b1 3f 23 68 fe 3f
       1.4814655 2.3971515 1.3902134 1.987553
000090 25 de 01 40 a7 e1 f7 3f 82 7b 08 40 38 3a c1 3f
       2.0291836 1.9365739 2.1325383 1.5095892
0000a0 55 2f b6 bf 17 79 17 c0 e4 c8 1e c0 42 47 f8 bf
       -1.4233195 -2.3667657 -2.4810114 -1.9396746
0000b0 41 46 10 c0 cd 53 17 c0 db b4 f1 bf 5b fd 00 c0
       -2.254288 -2.3644898 -1.8883318 -2.0154636
0000c0 1b 6e 10 c0 01 61 61 c0 40 23 42 c0 db cc 0b c0
       -2.2567203 -3.5215456 -3.0334015 -2.1843784
0000d0 bb b8 f9 bf 9c 12 44 c0 e0 f0 fe bf 2c 4a 0b c0
       -1.95095 -3.0636358 -1.9917259 -2.176402
0000e0 dd c9 10 c0 16 fd 08 c0 01 7c 33 c0 59 4c 31 c0
       -2.2623208 -2.1404471 -2.8044436 -2.770285
0000f0 20 25 ed be 34 08 3f 40 b6 da 2a bf 4f da 5b 40
       -0.46317387 2.9848757 -0.66739976 3.4351995
000100 23 be 7b bf a7 94 28 40 f7 cf b1 be 53 93 36 40
       -0.98337 2.634073 -0.34728977 2.852742
000110 df 20 8d be e4 9c 24 40 bc ad c9 be d3 ef 62 40
       -0.2756414 2.5720758 -0.3939036 3.5458877
000120 e7 13 08 bf 02 c9 30 40 6a 0e 0a be 9e e3 31 40
       -0.5315537 2.7622685 -0.13482061 2.7795177
000130 26 30 b6 bf cb 07 59 40 70 2b 25 3e 70 5f 65 40
       -1.4233444 3.3911006 0.16129851 3.58395
000140 8d ea 2b 40 8a 50 38 c0 c6 ea b2 3f 18 92 3a c0
       2.6861908 -2.8799157 1.3977897 -2.9151669
000150 1d 9d b6 3f 72 be 1d c0 f6 27 27 40 9f 82 46 c0
       1.4266697 -2.4647489 2.611814 -3.1017225
000160 77 a1 23 40 e4 ad 23 c0 97 c0 cb 3f 15 bc 34 c0
       2.55673 -2.5574884 1.5918149 -2.8239796
000170 f0 fc 16 40 0d af 5b c0 6a 3a e3 3f 47 f8 57 c0
       2.359188 -3.4325593 1.7752202 -3.3745286
000180 87 b1 0d 40 23 6b 3f c0 02 26 13 40 82 6f 2e c0
       2.2139604 -2.990914 2.2991948 -2.725556
000190 11 b1 64 40 eb 91 1c 40 d7 77 81 40 5c d9 5e 40
       3.5733073 2.4464061 4.045879 3.4820166
0001a0 a6 27 73 40 63 17 28 40 c9 18 80 40 75 74 05 40
       3.799295 2.6264274 4.0030255 2.085233
0001b0 28 41 83 40 8d 88 54 40 23 90 70 40 d3 c6 67 40
       4.1017036 3.3208344 3.7587974 3.6215103
0001c0 a0 9d 6c 40 8b d4 f7 3f 96 41 85 40 13 e8 66 40
       3.6971207 1.9361738 4.164256 3.6079147
0001d0 f0 68 95 40 3f 0d 45 40 e3 3f 99 40 1c 69 3a 40
       4.6690598 3.0789335 4.7890487 2.9126654
0001e0 94 3b 82 40 83 29 8b 3e 4f 59 91 40 37 f0 55 3f
       4.0697727 0.27180108 4.542152 0.83569664
0001f0 58 f3 a4 40 83 38 40 3f 4b c6 96 40 d5 6c d7 3f
       5.154705 0.7508623 4.7117057 1.6830088
000200 1b 42 98 40 74 44 56 3f b4 52 a9 40 99 63 85 3f
       4.7580695 0.836982 5.2913456 1.042102
000210 8a 8f 96 40 3d c5 3c 3f 98 4b 8a 40 8c 92 8d 3f
       4.705022 0.7373846 4.3217278 1.1060348
000220 d6 91 94 40 55 40 a8 3f 46 bd 9e 40 e8 16 8a 3f
       4.6428022 1.3144633 4.9606047 1.078824
000230 5d 89 b7 bf 1b 8f 55 3f aa 40 00 c0 7d 4c c5 3f
       -1.4338795 0.83421487 -2.0039468 1.5413967
000240 f4 91 eb bf de 2f cb 3e 5e 99 16 c0 72 4a 86 3e
       -1.8403916 0.39684957 -2.3531108 0.26228672
000250 f9 ab 3a c0 55 ef 53 3f 62 09 16 c0 b3 36 82 3f
       -2.9167464 0.82787067 -2.3443227 1.0172943
000260 c9 5e b5 bf ec 84 3a 3f 32 c6 1d c0 fe 0e 1b 3f
       -1.4169551 0.7285907 -2.465222 0.6056975
000270 51 a6 0f c0 75 d0 c1 3d a0 1b 0d c0 cb 2a ae 3f
       -2.2445261 0.09463588 -2.204811 1.3606809
000280 55 6b fc bd aa 2a a0 be 85 2a 46 be 48 d3 0a 3f
       -0.123251595 -0.3128255 -0.19352157 0.5422864
000290 6e fd 37 bc 79 b5 02 bf f2 69 e0 3e 8a cb 21 be
       -0.011229856 -0.51058155 0.4383083 -0.158003
0002a0 6d b0 f0 3e 9e 27 63 bf 56 ba ea 3e 3f 57 fc be
       0.47009602 -0.88732326 0.45845288 -0.49285313
0002b0 f9 05 e2 3e 0f fd ae bd a0 5c 47 be eb cc 3d 3f
       0.44145182 -0.08544361 -0.19468927 0.74140805
0002c0 17 68 49 3e dd 77 3e be 68 76 13 3f 20 b7 0d 3e
       0.19668613 -0.18600412 0.5760255 0.13839388
0002d0 c1 85 94 c0 c6 99 6f c0 e6 2e 81 c0 00 d3 8d c0
       -4.6413274 -3.7437606 -4.036975 -4.432007
0002e0 06 99 78 c0 32 8e 90 c0 76 36 95 c0 3c 82 a3 c0
       -3.8843398 -4.517358 -4.662898 -5.1096478
0002f0 d9 0e 82 c0 4f 14 85 c0 72 55 91 c0 0f 81 86 c0
       -4.0643125 -4.158729 -4.5416803 -4.203254
000300 c3 0c 9b c0 d8 e9 91 c0 fd 78 49 c0 b4 b3 91 c0
       -4.845308 -4.5597954 -3.1480095 -4.5531864
000310 83 7a 8c c0 d7 90 70 c0 df ee a3 c0 8c e9 42 c0
       -4.389955 -3.7588403 -5.122909 -3.0455046

_BaseModel__v_s f4 [100, 100, 2]
000000 af 9a be 40 f1 60 3b bf 70 1d 8d 40 2f a9 cc c0
       5.9563823 -0.73194796 4.4098434 -6.3956523
000010 35 f3 c3 c0 28 e2 d5 c0 3d f7 48 40 3d 82 34 be
       -6.1234384 -6.683857 3.1400902 -0.17627807
000020 a7 3e 03 41 08 e3 55 bf 16 7d 0f c1 3f 53 cf c0
       8.202796 -0.8354955 -8.968039 -6.478912
000030 c8 04 b5 bf 81 e2 a1 c0 cf 05 ef c0 92 d8 f3 c0
       -1.4142084 -5.0588994 -7.469459 -7.620187
000040 b9 ed c3 c0 a0 92 22 40 4e 73 77 bf f8 6a 77 40
       -6.122769 2.5401993 -0.96660316 3.8659039
000050 eb e0 61 40 23 eb ca 40 01 20 a5 c0 23 62 8d bf
       3.529353 6.341203 -5.1601567 -1.1045574
000060 43 06 e4 3f 51 ea f2 40 00 a2 8a 3f 14 2a df 40
       1.7814411 7.591103 1.0830688 6.9738865
000070 c9 ce 43 40 44 7b 3f 3f df 35 22 be 18 ab 5f c0
       3.0594962 0.74797463 -0.15840863 -3.4948177
000080 43 f9 d8 40 27 7b 16 3d 09 34 a8 3f 58 98 ae 40
       6.7804275 0.03673854 1.314088 5.4560966
000090 c9 cb 3c c0 95 f9 a7 40 c7 e0 36 bf a2 47 98 c0
       -2.949938 5.2492166 -0.71436733 -4.7587442
0000a0 55 e0 4d c1 ff a4 be 3f cc b6 e0 c0 fc 0e ad c0
       -12.867269 1.4894103 -7.022314 -5.408079
0000b0 96 f1 da bf eb 1c ec 3f 3a 47 21 40 b4 bf c2 bf
       -1.7104976 1.8446325 2.5199723 -1.5214753
0000c0 df 9b a8 c0 9b 8f 3e 40 27 2c 7b 40 34 fb a4 c0
       -5.269027 2.977515 3.9245698 -5.1556644
0000d0 9f 00 26 40 ae 41 85 40 f1 7f c5 c0 74 1a 3f 3f
       2.593788 4.1642675 -6.171868 0.7464974
0000e0 ec ed fc c0 8a 3a 29 40 a6 92 2a 40 43 b0 80 c0
       -7.904043 2.644198 2.6652007 -4.0215163
0000f0 a8 f6 20 40 88 d3 c1 bf bf 80 ff c0 5a 06 ab be
       2.5150547 -1.5142679 -7.984466 -0.33403283
000100 f4 85 8a c0 c4 e3 c7 40 f8 29 9f c0 ed 9b 38 c0
       -4.3288517 6.2465534 -4.973873 -2.884517
000110 22 dd 0a 41 72 92 33 41 b7 89 cc 40 94 d6 94 40
       8.6789875 11.223253 6.391811 4.6511936
000120 d6 61 8b 3f bf a4 3a 3f c1 6b a1 c0 8c 76 f2 40
       1.0889232 0.7290763 -5.0444036 7.576971
000130 d8 ab 42 40 68 03 1a 40 63 1f 9e 40 3e b3 b0 3f
       3.0417385 2.406458 4.9413314 1.38047
000140 c2 28 ee 40 11 2b 74 c0 b4 d2 90 40 c6 3d 05 c1
       7.4424753 -3.8151286 4.5257206 -8.327581
000150 a8 f6 98 40 ef 8b e5 c0 48 18 45 c0 55 e4 98 c0
       4.7801094 -7.1733317 -3.079607 -4.7778726
000160 a3 4c 91 bf 30 59 2b c0 15 b2 05 40 10 09 fa c0
       -1.1351513 -2.6773186 2.0889943 -7.8136063
000170 f8 89 58 40 6c 70 3e c0 18 5b 85 40 f2 7a 58 40
       3.383421 -2.9756117 4.16737 3.382504
000180 83 a0 2c 41 4d 84 2a c1 9a c7 33 bf 3d 42 a9 c0
       10.789187 -10.6573 -0.7022644 -5.2893357
000190 b0 65 0a 41 01 0e 2b c0 88 8c a0 bf 18 ea ac 40
       8.649826 -2.6727297 -1.2542887 5.403576
0001a0 fe 5b 36 41 bf d7 e0 40 e3 fa 21 bf 93 24 9a 40
       11.397459 7.026336 -0.6327345 4.8169646
0001b0 dd 44 bf 3f 81 1c ae 40 d5 64 5d 3f 59 ad 2e be
       1.494289 5.4409795 0.8648198 -0.17058314
0001c0 e0 8a 42 41 f3 ec b8 40 44 46 1f 41 a6 6d 06 be
       12.158905 5.7789245 9.954655 -0.13127765
0001d0 4d fa 8e 40 18 8e 39 bf f0 e7 ba 3f 82 60 a8 3f
       4.4680543 -0.7248244 1.4602032 1.3154452
0001e0 59 54 f5 40 e3 8a d1 c0 08 a2 c4 40 09 a4 6c 41
       7.6665463 -6.548204 6.144779 14.790048
0001f0 b1 aa 80 41 35 80 22 40 10 25 74 40 15 6f 06 41
       16.083345 2.5390751 3.814762 8.40212
000200 36 ab 14 41 35 5e 24 c1 3d fd 0c 41 ed b2 29 c1
       9.2918 -10.273 8.811826 -10.606183
000210 d5 ff f9 bf b5 6d 12 41 d0 69 23 41 f5 86 d9 c0
       -1.9531199 9.151784 10.213333 -6.7977242
000220 29 2c 33 bf 60 2f ea 3c 76 c7 e4 40 d6 39 44 3f
       -0.6998926 0.028587043 7.1493483 0.7665075
000230 49 32 97 c0 51 05 6e c0 a8 30 6e bf 18 52 78 40
       -4.7248883 -3.7190745 -0.93042994 3.8800106
000240 ee 68 c3 c0 91 f2 b1 40 54 7c 1a 3f 34 86 7c c0
       -6.106559 5.56086 0.6034596 -3.945691
000250 c6 ef 49 bf 55 f6 2a 40 d3 49 f2 3f 1e f7 fc be
       -0.7888149 2.671285 1.8928779 -0.49407285
000260 1c d9 b3 c0 c8 60 86 40 f7 71 fd 3f c0 f6 2b c0
       -5.6202526 4.199314 1.9800404 -2.6869354
000270 a5 72 a2 3e c2 ad 60 c0 93 2f 94 c0 68 b4 85 40
       0.31728092 -3.5106053 -4.6308074 4.1782722
000280 28 2f 2b 41 07 9e d5 3e 2a 0c 45 c0 7c 17 f7 40
       10.699013 0.41722128 -3.0788674 7.7216167
000290 be 9b 04 c0 84 a6 5d 40 42 bb f1 bf 54 9d 04 c0
       -2.0720057 3.4632883 -1.8885272 -2.0721025
0002a0 1f 47 d1 c0 29 12 62 40 cf c9 cb bf f8 c3 12 41
       -6.539932 3.5323584 -1.5920962 9.172844
0002b0 76 18 f9 40 18 1f 7c 3e db 8b 97 c0 45 24 0f 41
       7.784236 0.24621236 -4.735822 8.946355
0002c0 e3 a2 fc 40 1f ce 71 40 bc a3 cc c0 01 ee 83 c0
       7.8948836 3.7782056 -6.394987 -4.122803
0002d0 02 2b 97 c0 69 44 c7 c0 1b 2c 21 40 83 a1 1f 40
       -4.724 -6.227101 2.518317 2.494233
0002e0 82 eb d3 c0 ad f2 da 3f d1 c1 b6 c0 01 5c 20 c0
       -6.6224985 1.7105309 -5.711159 -2.5056155
0002f0 4e ee d2 bf 25 3d 02 c1 f1 b6 06 c1 e8 9e 14 c1
       -1.6478975 -8.139928 -8.419663 -9.288795
000300 26 11 1b c1 f2 8b 8e 40 d4 14 40 c1 9b d4 2c c1
       -9.691687 4.454583 -12.005085 -10.801906
000310 f5 78 de 3f 52 9c 8d bf 1c c3 3a c0 5c 03 08 c1
       1.7380663 -1.106333 -2.9181585 -8.50082
000320 03 25 ab 40 fc 7a 85 3f 15 b8 cd 3f 61 18 b7 c0
       5.348268 1.0428157 1.6071802 -5.721726
000330 be b5 55 c0 ca 58 b0 be 8a 5e ca 3f 69 3a f9 bf
       -3.3392177 -0.3444274 1.5810101 -1.947095
000340 ee 85 d2 40 8c 67 48 c1 82 3a 1c c1 05 72 a6 c0
       6.578849 -12.52528 -9.764284 -5.2014184
000350 90 18 b5 40 94 10 46 c1 cd f8 4f c1 24 95 08 c1
       5.6592484 -12.379047 -12.998242 -8.536411
000360 a2 57 aa bf 43 a9 8b c0 80 14 71 bf 3e 5c a2 40
       -1.3307993 -4.364412 -0.94171906 5.07376
000370 22 85 bb 40 57 6b e7 3f e9 a5 93 be e1 a4 9a c0
       5.8600016 1.8079633 -0.28837517 -4.832627
000380 b9 c6 ae 3f 05 20 e9 40 7e ac 5a 3f ca 48 d7 40
       1.3654395 7.2851586 0.8541945 6.7276354
000390 e0 49 f8 bf fe da 06 bf 4a c5 c5 be 49 96 af c0
       -1.9397545 -0.52677906 -0.38627082 -5.4870954
0003a0 7d 6e d6 40 02 7c ac bc d9 bf fb 3e 45 54 24 41
       6.7009873 -0.021055225 0.49169806 10.270574
0003b0 f1 b8 c0 bf 4b 2f be 3f 49 02 6f 40 40 75 0a c0
       -1.505644 1.4858183 3.7345145 -2.1634064
0003c0 c6 e6 3a c1 e4 3f 0f 3e 6d 3a c6 c0 c6 b2 e1 c0
       -11.681341 0.13989216 -6.194632 -7.053073
0003d0 7a ad a4 bd ab 8d 15 40 73 50 92 40 16 82 d6 bf
       -0.080409005 2.3367717 4.5723205 -1.6758449
0003e0 30 d9 8d c0 cd e4 de 3f f8 73 01 c0 cd ff a4 c0
       -4.432762 1.7413574 -2.0227032 -5.1562257
0003f0 45 11 b9 bf b5 02 14 40 cc 63 bf c0 e1 c9 ad 3f
       -1.4458395 2.3126652 -5.980932 1.3577234

_BaseModel__beta_s f4 [2]
000000 ca 19 58 40 e5 5a d3 bf
       3.376574 -1.6512114

_BaseModel__prior_b_sigma_s f4 [100]
000000 65 62 12 bf 66 62 12 bf 66 62 12 bf 68 62 12 bf
       -0.5718139 -0.57181394 -0.57181394 -0.57181406
000010 63 62 12 bf 65 62 12 bf 66 62 12 bf 65 62 12 bf
       -0.57181376 -0.5718139 -0.57181394 -0.5718139
000020 53 62 12 bf 51 62 12 bf 58 62 12 bf 66 62 12 bf
       -0.5718128 -0.5718127 -0.5718131 -0.57181394
000030 63 62 12 bf 61 62 12 bf 66 62 12 bf 6e 62 12 bf
       -0.57181376 -0.57181364 -0.57181394 -0.5718144
000040 6b 62 12 bf 66 62 12 bf 60 62 12 bf 5c 62 12 bf
       -0.57181424 -0.57181394 -0.5718136 -0.57181334
000050 5a 62 12 bf 51 62 12 bf 46 62 12 bf 3e 62 12 bf
       -0.5718132 -0.5718127 -0.57181203 -0.57181156
000060 4c 62 12 bf 4d 62 12 bf 46 62 12 bf 2a 62 12 bf
       -0.5718124 -0.57181245 -0.57181203 -0.57181036
000070 2a 62 12 bf 23 27 b5 40 42 62 12 bf 5c 62 12 bf
       -0.57181036 5.6610274 -0.5718118 -0.57181334
000080 50 62 12 bf 4b 62 12 bf 54 62 12 bf 4d 62 12 bf
       -0.5718126 -0.57181233 -0.57181287 -0.57181245
000090 45 62 12 bf 35 62 12 bf 20 62 12 bf 06 62 12 bf
       -0.571812 -0.571811 -0.57180977 -0.5718082
0000a0 23 27 b5 40 23 27 b5 40 23 27 b5 40 34 62 12 bf
       5.6610274 5.6610274 5.6610274 -0.57181096
0000b0 23 27 b5 40 39 62 12 bf 32 62 12 bf 36 62 12 bf
       5.6610274 -0.57181126 -0.57181084 -0.5718111
0000c0 32 62 12 bf 34 62 12 bf 38 62 12 bf 44 62 12 bf
       -0.57181084 -0.57181096 -0.5718112 -0.5718119
0000d0 52 62 12 bf 4e 62 12 bf 49 62 12 bf 23 27 b5 40
       -0.57181275 -0.5718125 -0.5718122 5.6610274
0000e0 25 62 12 bf 42 62 12 bf 48 62 12 bf 23 27 b5 40
       -0.57181007 -0.5718118 -0.57181215 5.6610274
0000f0 23 27 b5 40 23 27 b5 40 23 27 b5 40 23 27 b5 40
       5.6610274 5.6610274 5.6610274 5.6610274
000100 36 62 12 bf 24 62 12 bf 34 62 12 bf 36 62 12 bf
       -0.5718111 -0.57181 -0.57181096 -0.5718111
000110 30 62 12 bf 34 62 12 bf 0c 62 12 bf a0 72 b5 40
       -0.5718107 -0.57181096 -0.5718086 5.6702423
000120 23 27 b5 40 28 62 12 bf 32 62 12 bf 33 62 12 bf
       5.6610274 -0.57181025 -0.57181084 -0.5718109
000130 3c 62 12 bf 34 62 12 bf 3a 62 12 bf 3c 62 12 bf
       -0.57181144 -0.57181096 -0.5718113 -0.57181144
000140 38 62 12 bf 23 27 b5 40 2c 62 12 bf 34 62 12 bf
       -0.5718112 5.6610274 -0.5718105 -0.57181096
000150 35 62 12 bf 28 62 12 bf 37 62 12 bf 37 62 12 bf
       -0.571811 -0.57181025 -0.57181114 -0.57181114
000160 23 27 b5 40 34 62 12 bf 23 27 b5 40 0b 62 12 bf
       5.6610274 -0.57181096 5.6610274 -0.5718085
000170 23 27 b5 40 23 27 b5 40 0c 62 12 bf a0 72 b5 40
       5.6610274 5.6610274 -0.5718086 5.6702423
000180 a0 72 b5 40 a0 72 b5 40 a0 72 b5 40 a1 72 b5 40
       5.6702423 5.6702423 5.6702423 5.670243

_BaseModel__prior_c_sigma_s f4 [100]
000000 a7 d6 29 c1 a5 d6 29 c1 a4 d6 29 c1 a4 d6 29 c1
       -10.614905 -10.614903 -10.6149025 -10.6149025
000010 a4 d6 29 c1 a4 d6 29 c1 a5 d6 29 c1 a1 d6 29 c1
       -10.6149025 -10.6149025 -10.614903 -10.6149
000020 a5 d6 29 c1 a4 d6 29 c1 a1 d6 29 c1 a1 d6 29 c1
       -10.614903 -10.6149025 -10.6149 -10.6149
000030 a1 d6 29 c1 a1 d6 29 c1 a6 d6 29 c1 a1 d6 29 c1
       -10.6149 -10.6149 -10.614904 -10.6149
000040 a0 d6 29 c1 a1 d6 29 c1 a4 d6 29 c1 a1 d6 29 c1
       -10.614899 -10.6149 -10.6149025 -10.6149
000050 a1 d6 29 c1 a5 d6 29 c1 a6 d6 29 c1 a4 d6 29 c1
       -10.6149 -10.614903 -10.614904 -10.6149025
000060 a4 d6 29 c1 a4 d6 29 c1 a5 d6 29 c1 a4 d6 29 c1
       -10.6149025 -10.6149025 -10.614903 -10.6149025
000070 a1 d6 29 c1 a2 d6 29 c1 a5 d6 29 c1 a6 d6 29 c1
       -10.6149 -10.614901 -10.614903 -10.614904
000080 a5 d6 29 c1 a4 d6 29 c1 a7 d6 29 c1 a4 d6 29 c1
       -10.614903 -10.6149025 -10.614905 -10.6149025
000090 a6 d6 29 c1 a8 d6 29 c1 a6 d6 29 c1 a6 d6 29 c1
       -10.614904 -10.614906 -10.614904 -10.614904
0000a0 a4 d6 29 c1 9e d6 29 c1 a6 d6 29 c1 a1 d6 29 c1
       -10.6149025 -10.614897 -10.614904 -10.6149
0000b0 a8 d6 29 c1 a4 d6 29 c1 a8 d6 29 c1 a6 d6 29 c1
       -10.614906 -10.6149025 -10.614906 -10.614904
0000c0 a4 d6 29 c1 a5 d6 29 c1 a5 d6 29 c1 a5 d6 29 c1
       -10.6149025 -10.614903 -10.614903 -10.614903
0000d0 9f d6 29 c1 a4 d6 29 c1 a4 d6 29 c1 a7 d6 29 c1
       -10.614898 -10.6149025 -10.6149025 -10.614905
0000e0 a4 d6 29 c1 a6 d6 29 c1 a1 d6 29 c1 a4 d6 29 c1
       -10.6149025 -10.614904 -10.6149 -10.6149025
0000f0 a5 d6 29 c1 a6 d6 29 c1 a5 d6 29 c1 a5 d6 29 c1
       -10.614903 -10.614904 -10.614903 -10.614903
000100 a5 d6 29 c1 a1 d6 29 c1 a8 d6 29 c1 a1 d6 29 c1
       -10.614903 -10.6149 -10.614906 -10.6149
000110 a4 d6 29 c1 a4 d6 29 c1 a6 d6 29 c1 a1 d6 29 c1
       -10.6149025 -10.6149025 -10.614904 -10.6149
000120 a5 d6 29 c1 a6 d6 29 c1 a4 d6 29 c1 a1 d6 29 c1
       -10.614903 -10.614904 -10.6149025 -10.6149
000130 a5 d6 29 c1 a5 d6 29 c1 a6 d6 29 c1 a6 d6 29 c1
       -10.614903 -10.614903 -10.614904 -10.614904
000140 a4 d6 29 c1 a5 d6 29 c1 a4 d6 29 c1 a4 d6 29 c1
       -10.6149025 -10.614903 -10.6149025 -10.6149025
000150 a1 d6 29 c1 a4 d6 29 c1 a4 d6 29 c1 a1 d6 29 c1
       -10.6149 -10.6149025 -10.6149025 -10.6149
000160 a6 d6 29 c1 a2 d6 29 c1 a8 d6 29 c1 a4 d6 29 c1
       -10.614904 -10.614901 -10.614906 -10.6149025
000170 a1 d6 29 c1 a8 d6 29 c1 a8 d6 29 c1 a4 d6 29 c1
       -10.6149 -10.614906 -10.614906 -10.6149025
000180 bc 6f 4a 41 bc 6f 4a 41 bc 6f 4a 41 bc 6f 4a 41
       12.652279 12.652279 12.652279 12.652279
