experiments/models_mr=0.1_cr=0.1_pr=0.1/residual_synthetic_n=100_seed=16_B=100_lambda=1e3_dim=2_epoch=300_spe=10_bs=100_lr=0.1_seed=10.model (torch, 84927 bytes, 5 tensors)

_BaseModel__x0_s f4 [100, 2]
0.4830511 -1.2865019 0.77350855 -1.4324704 0.6852364 -1.3173306 0.74233073 -1.3758668
0.7855472 -1.3482292 0.8206877 -1.1431224 0.69953454 -1.1669686 0.78160137 -1.2423573
0.80201495 -1.0753893 0.72287124 -0.8525735 1.9714034 1.2662209 1.784716 1.8199812
1.8771274 2.0709379 1.757562 1.6420196 1.8465883 2.083976 2.0537634 1.7162807
1.9379715 1.8685007 2.033155 1.8496299 1.7433407 1.6030829 2.0156667 1.8071513
0.10473811 -2.8368113 0.025879975 -2.7161121 -0.13228652 -2.7500374 0.119110055 -2.263556
-0.3639317 -2.9337947 -0.22559771 -2.9696596 -0.18910143 -2.8232133 -0.06551553 -2.7674649
-0.046760518 -2.877651 -0.08257101 -2.8364954 -0.06026409 1.5482312 -0.057884105 2.0593681
0.07674217 1.958204 0.14277376 2.1414902 0.05723468 1.9807937 0.21457388 2.124736
-0.08721383 1.6727378 0.19664885 1.9878894 0.046110243 1.8637708 0.20390022 1.9735242
-3.4292135 3.6320157 -3.8521738 3.4291408 -3.2043366 3.26789 -3.63757 3.6388881
-3.361731 3.2492526 -3.4680202 3.242322 -3.3649497 3.826853 -3.6388805 3.7313159
-3.3180993 3.1741867 -3.3416293 3.3115854 -0.35559094 0.23343708 -1.0127332 0.61444753
-0.30684757 0.18621036 -0.03996605 0.17066117 -0.5870582 0.39257082 -0.9701861 0.5762199
-0.11657219 0.15766212 -0.97459495 0.6886 -0.45409405 0.20769295 -0.28360865 0.19425376
2.9051669 -0.34709555 2.0182073 -0.28899994 2.8473933 -0.4700661 1.8199962 -0.24272177
2.858296 -0.45351827 2.8322728 -0.5864419 2.0959985 -0.30487996 2.801373 -0.47705472
1.9683894 -0.2668188 2.3398876 -0.35535884 -0.889545 -0.77752423 -1.2369382 -0.28130856
-1.1678339 -1.628338 -1.2154294 -1.6727331 -1.2883816 -1.5370232 -1.4036726 -1.3584627
-0.7096163 -1.1373082 -1.4734819 -1.3322494 -0.8534797 -1.5616584 -1.0275054 -1.4606832
1.154504 0.15047742 1.0929797 0.5458291 1.0969325 -0.029022796 1.053135 0.41046682
0.94563395 -0.1254894 0.97360003 0.19239514 1.2050714 0.4524128 1.1525476 0.69368213
1.0772935 0.30289516 1.1243036 0.2893946 -4.119284 -2.7969809 -4.3360295 -2.5157573
-4.493999 -2.3601823 -4.366426 -2.143957 -4.2087145 -2.0529773 -4.367081 -2.3137865
-4.2576113 -2.395829 -4.515015 -1.7496399 -4.2885704 -2.936476 -4.2505116 -2.6024082
00000000: 7952 f73e 18ac a4bf a804 463f 315b b7bf
00000010: a76b 2f3f 4a9e a8bf 6309 3e3f 671c b0bf
00000020: 9f19 493f c692 acbf 9718 523f d651 92bf
00000030: b214 333f 3a5f 95bf 0717 483f 9005 9fbf
00000040: da50 4d3f 5ba6 89bf 170e 393f 4242 5abf
00000050: f256 fc3f 8713 a23f 9371 e43f 25f5 e83f
00000060: b645 f03f 3f8a 0440 cbf7 e03f b32d d23f
00000070: 015d ec3f dd5f 0540 dc70 0340 16af db3f
00000080: 730f f83f 082b ef3f 361f 0240 acc0 ec3f
00000090: ca25 df3f d231 cd3f af00 0140 bc50 e73f
000000a0: ef80 d63d 518e 35c0 3e02 d43c c8d4 2dc0
000000b0: 1e76 07be 9d00 30c0 f9ef f33d 1ade 10c0
000000c0: 4155 babe 4bc3 3bc0 1603 67be e70e 3ec0
000000d0: cea3 41be 87af 34c0 022d 86bd 251e 31c0
000000e0: f587 3fbd 6f2b 38c0 fd1a a9bd 2489 35c0
000000f0: 7ad7 76bd 712c c63f e217 6dbd b0cc 0340
00000100: 002b 9d3d 6ea6 fa3f 4933 123e 2d0e 0940
00000110: e96e 6a3d a68a fd3f 41b9 5b3e adfb 0740
00000120: 2a9d b2bd 461c d63f 515e 493e 2973 fe3f
00000130: 18de 3c3d 0b90 ee3f 38cb 503e 719c fc3f
00000140: 3c78 5bc0 f272 6840 048a 76c0 0b77 5b40
00000150: da13 4dc0 1c25 5140 f2cd 68c0 8be3 6840
00000160: 9a26 57c0 c1f3 4f40 0bf4 5dc0 3482 4f40
00000170: 565b 57c0 29eb 7440 6be3 68c0 e1cd 6e40
00000180: bd5b 54c0 e025 4b40 41dd 55c0 04f1 5340
00000190: 0410 b6be 210a 6f3e 3ea1 81bf 6f4c 1d3f
000001a0: 201b 9dbe eead 3e3e 71b3 23bd cdc1 2e3e
000001b0: 7249 16bf 0bff c83e 1e5e 78bf 2683 133f
000001c0: 66bd eebd 2e72 213e 0e7f 79bf 1748 303f
000001d0: 047f e8be 76ad 543e 2735 91be 75ea 463e
000001e0: 41ee 3940 82b6 b1be 4f2a 0140 cdf7 93be
000001f0: b13b 3640 81ac f0be a3f5 e83f 0e8c 78be
00000200: 52ee 3640 8c33 e8be f543 3540 0e21 16bf
00000210: d724 0640 3a19 9cbe b249 3340 8440 f4be
00000220: 2ff4 fb3f 799c 88be b8c0 1540 98f1 b5be
00000230: 39b9 63bf d40b 47bf fe53 9ebf ad07 90be
00000240: 957b 95bf 616d d0bf 3193 9bbf 1e1c d6bf
00000250: b0e9 a4bf 2dbd c4bf 8bab b3bf 1be2 adbf
00000260: 6aa9 35bf 5193 91bf 0e9b bcbf 2687 aabf
00000270: a57d 5abf 6ce4 c7bf 4c85 83bf abf7 babf
00000280: c9c6 933f c116 1a3e c2e6 8b3f 75bb 0b3f
00000290: 4968 8c3f 37c1 edbc 21cd 863f b528 d23e
000002a0: 1115 723f 4b80 00be da3d 793f 3b03 453e
000002b0: c83f 9a3f a7a2 e73e ae86 933f 2795 313f
000002c0: c1e4 893f 1315 9b3e 2ee9 8f3f 872b 943e
000002d0: 2dd1 83c0 bc01 33c0 c1c0 8ac0 2b02 21c0
000002e0: d7ce 8fc0 3a0d 17c0 c3b9 8bc0 9736 09c0
000002f0: caad 86c0 fb63 03c0 21bf 8bc0 1415 14c0
00000300: 5a3e 88c0 4355 19c0 017b 90c0 33f4 dfbf
00000310: f83b 89c0 39ef 3bc0 3104 88c0 db8d 26c0

_BaseModel__v_s f4 [100, 100, 2]
0.8546631 0.14575593 0.86351407 0.1441494 0.8555341 0.14875746 0.8668391 0.12450872
0.8658359 0.14875688 0.89414907 -0.0012785573 0.8628957 0.14296499 0.8676092 0.11683802
0.85236555 0.14704806 0.8860002 0.07942825 0.8533055 0.14702845 0.8536621 0.14660235
0.86089486 0.1490039 0.8571037 0.14629284 0.86408603 0.1544654 0.86151457 0.14829664
0.8552737 0.15356494 0.86022127 0.1446148 0.8553858 0.14628288 0.8655293 0.1450534
0.86400414 0.15177828 0.8605166 0.14641947 0.85659695 0.1407649 0.8569873 0.13852373
0.8625786 0.15213092 0.8660355 0.16769621 0.859082 0.14521311 0.8514639 0.13760656
0.85903484 0.14637493 0.8600812 0.14224073 0.8582691 0.14495434 0.8519835 0.14623906
0.8575568 0.14773801 0.8224331 0.15428126 0.8519077 0.14592387 0.85808706 0.14721413
0.85503423 0.15301403 0.85988986 0.1492288 0.85725164 0.1492164 0.880762 0.14715178
0.87409055 0.14653106 0.85895365 0.15306842 0.8547376 0.1569675 0.85697347 0.15638337
0.869067 0.15671861 0.8545464 0.14618789 0.8680655 0.1461617 0.8623742 0.15251037
0.85965663 0.15084079 0.8537788 0.15670663 0.8585471 0.15123662 0.85843724 0.1453547
0.8644453 0.14856204 0.85955584 0.1433739 0.85896105 0.14734197 0.849687 0.13717039
0.87048477 0.15392451 0.8490708 0.14731604 0.8631219 0.15171929 0.8629205 0.15228023
0.86433387 0.1468282 0.8523309 0.15283869 0.8599702 0.15668166 0.8640562 0.15151311
0.869667 0.1557745 0.8604851 0.15246189 0.86939335 0.1550171 0.8666914 0.15040769
0.8593917 0.14655133 0.87062424 0.15058719 0.8610599 0.1490155 0.85178906 0.072968006
0.86118203 0.14413649 0.8778215 0.16726498 0.8656275 0.14488688 0.8288067 0.102791995
0.8457074 0.1224174 0.72337085 0.039430827 0.85653013 0.14643246 0.8602683 0.1489947
0.72946876 0.87934273 0.85114574 0.15210904 0.95903766 0.0857665 0.8568561 0.13404724
0.88390416 0.091505654 0.83638006 0.22479118 0.9203891 -0.012574603 0.9590271 0.08553451
0.79870605 0.23017798 0.8461984 0.104221515 0.87175435 0.15159166 0.8756946 0.1544921
0.8596169 0.15487891 0.85874784 0.15337195 0.8534488 0.15066938 0.8699445 0.14514521
0.867903 0.15481114 0.8695972 0.14691263 0.8537376 0.1418299 0.862558 0.14798379
-0.20242268 0.033671707 -0.20519279 0.031282693 -0.19663818 0.02220397 -0.16798812 -0.047646392
-0.16031899 0.03361681 -0.19675088 -0.3039073 -0.19097471 0.03278997 -0.1757254 -0.17691498
-0.20677549 0.042893738 -0.22066295 -0.10912826 -0.20197879 0.0339053 -0.20250843 0.030538125
-0.18097924 0.041675866 -0.20488216 0.03254536 -0.19326259 0.069653474 -0.17129964 0.057450358
-0.1155108 -0.006248164 -0.1831519 -0.002669734 -0.20414956 0.03356547 -0.13612822 0.06789257
-0.20274892 0.042562626 -0.20437337 0.030105758 -0.17016447 0.02660987 -0.19085091 -0.0012625721
-0.19365185 0.019778598 -0.20546846 0.031363875 -0.2029204 0.030364497 -0.19056076 0.011506793
00000000: 33cb 5a3f 0b41 153e 420f 5d3f e69b 133e
00000010: 4804 5b3f e053 183e 2be9 5d3f 6efe fe3d
00000020: 6ca7 5d3f b953 183e f4e6 643f 4495 a7ba
00000030: bce6 5c3f 6a65 123e a31b 5e3f c648 ef3d
00000040: a134 5a3f c493 163e e9d0 623f 47ab a23d
00000050: 3b72 5a3f a08e 163e 9989 5a3f ed1e 163e
00000060: 9b63 5c3f 7a94 183e 266b 5b3f cacd 153e
00000070: be34 5d3f 2e2c 1e3e 388c 5c3f 13db 173e
00000080: 38f3 5a3f 2140 1d3e 7637 5c3f e715 143e
00000090: 90fa 5a3f 2ecb 153e 5493 5d3f e188 143e
000000a0: 602f 5d3f c46b 1b3e d14a 5c3f fcee 153e
000000b0: f049 5b3f ad24 103e 8563 5b3f 2ad9 0d3e
000000c0: f3d1 5c3f 35c8 1b3e 81b4 5d3f 8eb8 2b3e
000000d0: ccec 5b3f bfb2 143e 8af9 593f bce8 0c3e
000000e0: b5e9 5b3f 4fe3 153e 482e 5c3f 8ea7 113e
000000f0: 86b7 5b3f e96e 143e 971b 5a3f b1bf 153e
00000100: d888 5b3f a248 173e fa8a 523f e8fb 1d3e
00000110: 9f16 5a3f 116d 153e 98ab 5b3f 4dbf 163e
00000120: 86e3 5a3f b6af 1c3e be21 5c3f 6fcf 183e
00000130: d874 5b3f 2fcc 183e 9e79 613f f5ae 163e
00000140: 66c4 5f3f 3d0c 163e 63e4 5b3f f8bd 1c3e
00000150: 15d0 5a3f 17bc 203e 9d62 5b3f f622 203e
00000160: 2d7b 5e3f d87a 203e 8ec3 5a3f 47b2 153e
00000170: 8a39 5e3f 6aab 153e 8ec4 5c3f ae2b 1c3e
00000180: 7512 5c3f 0276 1a3e 3f91 5a3f b477 203e
00000190: bec9 5b3f c6dd 1a3e 8bc2 5b3f ddd7 143e
000001a0: 4a4c 5d3f a620 183e da0b 5c3f 9cd0 123e
000001b0: dfe4 5b3f d0e0 163e 1685 593f 6576 0c3e
000001c0: 17d8 5e3f 639e 1d3e b45c 593f 04da 163e
000001d0: 8ff5 5c3f 4d5c 1b3e 5ce8 5c3f 59ef 1b3e
000001e0: fc44 5d3f 225a 163e 5c32 5a3f bf81 1c3e
000001f0: 0227 5c3f 2871 203e ca32 5d3f 4126 1b3e
00000200: 7fa2 5e3f 5a83 1f3e c048 5c3f f81e 1c3e
00000210: 9090 5e3f cdbc 1e3e 7ddf 5d3f 7904 1a3e
00000220: 1801 5c3f 8d11 163e 3be1 5e3f 8733 1a3e
00000230: 6c6e 5c3f 8597 183e d90e 5a3f 4070 953d
00000240: 6d76 5c3f 8498 133e e9b8 603f 8347 2b3e
00000250: c499 5d3f 3a5d 143e ad2c 543f 9c84 d23d
00000260: 4880 583f f9b5 fa3d d52e 393f 3882 213d
00000270: 8f45 5b3f 64f2 153e 8b3a 5c3f 1192 183e
00000280: 77be 3a3f 9b1c 613f b0e4 593f 79c2 1b3e
00000290: 7e83 753f 59a6 af3d ec5a 5b3f ae43 093e
000002a0: 8b47 623f 5167 bb3d 011d 563f a92f 663e
000002b0: 9f9e 6b3f b505 4ebc cd82 753f b82c af3d
000002c0: 0078 4c3f c7b3 6b3e 75a0 583f 1772 d53d
000002d0: 4b2b 5f3f d83a 1b3e 852d 603f 2d33 1e3e
000002e0: da0f 5c3f 9498 1e3e e6d6 5b3f 890d 1d3e
000002f0: 9f7b 5a3f 1349 1a3e afb4 5e3f f2a0 143e
00000300: e42e 5e3f d086 1e3e ec9d 5e3f 4470 163e
00000310: 8c8e 5a3f db3b 113e 9ad0 5c3f 1089 173e
00000320: e447 4fbe 58eb 093d 0f1e 52be 4822 003d
00000330: 855b 49be 1ae5 b53c 1405 2cbe dd28 43bd
00000340: a92a 24be c8b1 093d 1079 49be bd99 9bbe
00000350: e08e 43be c74e 063d 5cf1 33be 3329 35be
00000360: f4bc 53be 58b1 2f3d 78f5 61be a37e dfbd
00000370: 87d3 4ebe 49e0 0a3d 5f5e 4fbe 172b fa3c
00000380: 9f52 39be 50b4 2a3d a1cc 51be 494e 053d
00000390: a1e6 45be 7ba6 8e3d 2c69 2fbe 1151 6b3d
000003a0: ed90 ecbd 66bd ccbb 2c8c 3bbe b4f6 2ebb
000003b0: 950c 51be f27b 093d 3265 0bbe 420b 8b3d
000003c0: 6a9d 4fbe 2656 2e3d 4147 51be 5aa0 f63c
000003d0: 983f 2ebe f1fc d93c 6c6e 43be e47c a5ba
000003e0: ac4c 46be ba06 a23c 5366 52be 6877 003d
000003f0: 5eca 4fbe f7be f83c 5c22 43be fd86 3c3c

_BaseModel__beta_s f4 [2]
2.3848267 -0.46469432
00000000: 00a1 1840 6aec edbe

_BaseModel__prior_b_sigma_s f4 [100]
-2.7468739 -1.2935513 -2.0791144 -1.3169616 -2.9854016 -2.52819 -1.2480884 1.560195
2.2211654 2.3177726 2.1868482 -2.6824365 -2.102695 -0.9233135 -2.5723956 -1.3120654
-1.9718386 -1.2394716 -0.8197184 0.51378536 0.8588091 1.87164 2.77707 2.7924464
1.338279 2.1436663 4.503046 6.6415772 6.607692 6.326147 2.9225988 -0.9581986
-0.7814798 -2.1614137 -1.8513954 0.68072695 1.8901476 4.506417 6.6840854 7.457482
6.7618003 2.816239 1.8409901 0.4537911 0.56394666 0.70598847 0.24142641 -0.9372242
-0.948434 -2.9335735 -3.0853896 -1.0605179 -1.2002244 -1.1146331 -1.1469935 -2.7198703
-2.2618012 -1.2246052 -1.1882228 -0.9135335 -1.252078 0.22407693 -0.7474487 0.62357146
0.3652294 0.9858936 1.0539086 0.014214329 0.09913251 0.8647654 2.5158994 2.8094723
1.9238622 0.83260775 -1.0258318 -1.0306342 -1.7863619 -3.337091 -3.2871978 -1.5119958
-1.4726816 -1.5674826 -3.6262276 -2.3249137 -3.2599576 -1.5648038 -3.0229406 -1.4987261
-1.6199433 -1.5560594 -1.9182879 -2.5337088 -2.0964687 -3.337876 -1.537703 -3.5873325
-3.3645635 -1.7516065 -1.6036706 -2.7926548
00000000: c8cc 2fc0 1793 a5bf 3610 05c0 3392 a8bf
00000010: d210 3fc0 ddcd 21c0 5cc1 9fbf 78b4 c73f
00000020: 9327 0e40 6356 1440 52f5 0b40 0aad 2bc0
00000030: 8e92 06c0 465e 6cbf 21a2 24c0 c2f1 a7bf
00000040: 3565 fcbf 01a7 9ebf 11d9 51bf 7087 033f
00000050: eada 5b3f e691 ef3f 84bb 3140 71b7 3240
00000060: ba4c ab3f d431 0940 f418 9040 cd87 d440
00000070: 3672 d340 cc6f ca40 dc0b 3b40 814c 75bf
00000080: 0f0f 48bf 9a54 0ac0 86fa ecbf 1f44 2e3f
00000090: 5bf0 f13f 9134 9040 07e4 d540 b1a3 ee40
000000a0: ab60 d840 433d 3440 90a5 eb3f 4f57 e83e
000000b0: cf5e 103f a9bb 343f 7c38 773e eded 6fbf
000000c0: 92cc 72bf abbf 3bc0 0677 45c0 0dbf 87bf
000000d0: f4a0 99bf 4cac 8ebf afd0 92bf 5b12 2ec0
000000e0: 5ac1 10c0 ddbf 9cbf af17 98bf 55dd 69bf
000000f0: 1844 a0bf 6c74 653e cc58 3fbf 61a2 1f3f
00000100: 59ff ba3e 8663 7c3f 7ae6 863f 38e3 683c
00000110: fc05 cb3d 4461 5d3f 7f04 2140 65ce 3340
00000120: 1e41 f63f c825 553f 754e 83bf d2eb 83bf
00000130: 82a7 e4bf e692 55c0 7361 52c0 1489 c1bf
00000140: d580 bcbf 45a3 c8bf 1d14 68c0 63cb 14c0
00000150: 25a3 50c0 7e4b c8bf dc77 41c0 42d6 bfbf
00000160: 4d5a cfbf f42c c7bf 758a f5bf 4928 22c0
00000170: 8b2c 06c0 c39f 55c0 74d3 c4bf db96 65c0
00000180: 0255 57c0 a434 e0bf 1445 cdbf dbba 32c0

_BaseModel__prior_c_sigma_s f4 [100]
-0.021067694 1.436709 1.529706 3.4173398 -2.1875188 4.348086 1.3529246 3.3437293
2.0923145 5.3981485 0.22009382 -0.2811963 -1.4975059 0.35271734 -2.5284078 -2.5165548
-1.4299835 -1.6760652 0.5055976 -1.4888066 2.0540137 1.4894131 -2.4314716 3.1128025
-1.230357 -1.4706334 1.6107228 3.4188826 -2.4776561 1.6318438 0.82278216 0.8333548
-2.6597176 1.2174535 -0.34434623 1.0336968 -2.3849225 -1.0826881 -2.0352058 -1.3612823
-1.5645515 -1.5996999 -1.7891161 -1.5934128 -1.5673546 -1.6125855 -1.7592793 -2.214082
-1.7129893 -1.599699 -2.4403167 -1.5637691 -2.0788207 1.1058186 -2.60396 -1.4251827
-2.0723147 -1.543601 -2.6633713 -2.2305558 -1.7861029 -1.4269186 -1.611377 -1.2108794
-1.7065208 -1.7897266 -1.4035504 -1.9925855 -2.1298716 -1.5181948 1.4680932 7.1774893
-2.5797946 2.050233 3.2120805 4.2508717 2.7960134 7.2592525 0.26203588 -0.99889326
7.3774943 2.2769928 6.173569 3.3260827 4.8959603 5.334751 7.6499457 6.1064644
3.6260889 5.5875154 -1.6668861 -1.5609069 -1.8981266 -1.5727595 -1.5022094 -1.5615417
-1.8791852 -1.5590744 -2.375094 -1.8680054
00000000: 2896 acbc 15e6 b73f 68cd c33f b2b5 5a40
00000010: 4f00 0cc0 8523 8b40 a22c ad3f a9ff 5540
00000020: 7be8 0540 a2bd ac40 4660 613e f6f8 8fbe
00000030: 46ae bfbf 5e97 b43e 6fd1 21c0 3c0f 21c0
00000040: b309 b7bf 4e89 d6bf d86e 013f 3791 bebf
00000050: f674 0340 17a5 be3f 3b9d 1bc0 2838 4740
00000060: 577c 9dbf b73d bcbf 2a2c ce3f f9ce 5a40
00000070: eb91 1ec0 42e0 d03f daa1 523f bd56 553f
00000080: d038 2ac0 84d5 9b3f 264e b0be 2d50 843f
00000090: 92a2 18c0 8695 8abf d040 02c0 803e aebf
000000a0: 3943 c8bf f7c2 ccbf c201 e5bf f3f4 cbbf
000000b0: 139f c8bf 3469 cebf 1030 e1bf 85b3 0dc0
000000c0: 3c43 dbbf f0c2 ccbf 262e 1cc0 9629 c8bf
000000d0: 660b 05c0 778b 8d3f 48a7 26c0 636c b6bf
000000e0: cea0 04c0 b894 c5bf ad74 2ac0 6dc1 0ec0
000000f0: 059f e4bf 45a5 b6bf 9a41 cebf 19fe 9abf
00000100: 466f dabf c315 e5bf 8aa7 b3bf 0b0d ffbf
00000110: d14f 08c0 3554 c2bf 7aea bb3f fead e540
00000120: 5b1b 25c0 0437 0340 ba92 4d40 2407 8840
00000130: e2f1 3240 cc4b e840 9129 863e 78b7 7fbf
00000140: 6f14 ec40 40ba 1140 e18d c540 8ade 5440
00000150: b5ab 9c40 48b6 aa40 5bcc f440 2868 c340
00000160: d711 6840 edcc b240 865c d5bf cccb c7bf
00000170: d0f5 f2bf 2f50 c9bf 6648 c0bf 99e0 c7bf
00000180: 2489 f0bf c08f c7bf 8a01 18c0 cd1a efbf
