experiments/models_mr=0.1_cr=0.1_pr=0.1/residual_synthetic_n=100_seed=16_B=100_lambda=1e9_dim=2_epoch=300_spe=10_bs=100_lr=0.1_seed=20.model (torch, 84927 bytes, 5 tensors)

_BaseModel__x0_s f4 [100, 2]
00000000: 0b97 b4bf eb96 8cbf 9eb3 a7bf 1b46 d3bf
00000010: d587 60bf 7d38 88bf 54a5 79bf 450a 8ebf
00000020: 14ad c3bf 003d 52bf cfca 2bbf 2630 e0bf
00000030: 0000 23bf 5d15 90bf 9c23 f6be 61be b5bf
00000040: 70ad a0be f9b6 82bf 34b1 1dbf d496 e7bf
00000050: e0c8 ea3f e0e5 1ac0 d639 be3f e2bf 2ac0
00000060: ae6a 223f 58e8 6bc0 5a77 663f 062c 2cc0
00000070: 98de b13f edaf 4bc0 71f5 bd3f 78e1 3dc0
00000080: 5e90 1040 8fe3 29c0 61b8 c83f b41c 13c0
00000090: fd95 d13f 9501 41c0 1bfb 2f3f a6dc 26c0
000000a0: 24c1 0bc0 3e5c 963e 9366 55c0 de19 8c3c
000000b0: d024 39c0 f153 37be 8a50 29c0 d4b5 47be
000000c0: eb9d 80c0 82e9 53bf dbd1 73c0 6138 d6bc
000000d0: 741f 35c0 9d9a 8f3e a346 1fc0 cb7c de3e
000000e0: 0d37 41c0 6929 f1bd dc30 68c0 4b5d 17be
000000f0: e812 2240 9fbf 0bbf 7fbc 4540 7359 58be
00000100: 6b83 4540 4c76 fdbe 17fb 1440 cb5c 19bf
00000110: a940 1940 85e9 9dbf ec6a 3a40 984f cfbe
00000120: abb4 1940 5e3c d3be 7a41 3b40 47d7 a2bf
00000130: a7f4 6b40 0c78 49bf 267d 0340 0110 24bf
00000140: 080e a4c0 5a31 4ac0 2a93 73c0 d956 1dc0
00000150: 5604 87c0 72ec 08c0 f6dd 96c0 70c1 4dc0
00000160: adf6 a6c0 ffac 24c0 ceb7 8cc0 42d5 20c0
00000170: db56 8fc0 f3c1 52c0 9020 85c0 78c4 47c0
00000180: 3453 99c0 58b0 3ec0 a99d 9ec0 372d 23c0
00000190: 5de1 863f 2f5d 0040 2073 0340 60d1 1740
000001a0: 66d9 903f 9cc1 1940 7a4a 403f c260 2240
000001b0: e6a1 d83f d1ee 1d40 dfea 0b40 6b70 3340
000001c0: cde6 333f ed2c 5740 d58e fc3f 78b1 3340
000001d0: a270 a43f f6a5 0b40 dec8 b03f da8a 2640
000001e0: 69b8 59bf 35ff 4440 b84b bebe fa6c 6340
000001f0: 9615 debe 8520 8540 56c8 773f a876 7540
00000200: adfe 18bf d11e 6340 c8ed 70bd 195b 8040
00000210: 4539 d1be 5e7d 5640 520c 55bd 1db3 5340
00000220: 5cb1 d53c 243a 4940 fce9 f03c e581 7340
00000230: f4f3 363e 6efb 053f 846c 0c3f 2a83 2e3f
00000240: 74d1 cfbe 9a38 253f 1182 66bf eb6b 553f
00000250: b28d 84bf 6709 8c3f 4c15 29be dae7 703f
00000260: 712b 113e 526d 523f aab5 29bf 5b76 863f
00000270: 250a 8cbf 0d05 473f 71e6 19be 9b8a a83f
00000280: 0dc3 b9be 0f74 81bf 16f8 9c3e aa29 4dbf
00000290: c842 8dbe 9f0c 98bf ee5a 1c3c 2ad1 95bf
000002a0: 3530 22bf 97ad f6be 24d4 47be af2b 6abf
000002b0: c2a6 e0bb 5566 07bf 9e12 813f 3a29 49bf
000002c0: 973e 893d 9f7d 85bf 24ff ba3e 1968 2fbf
000002d0: 6f9e f43f 6765 a540 57be 2b40 3cac b540
000002e0: c4ca 2f40 2d4a a540 3292 2440 63d1 9940
000002f0: 8ef8 1940 f486 a940 27d2 0b40 ef30 9e40
00000300: 7f27 0340 3f5b b040 0e15 5c40 a2d1 ad40
00000310: c9db 0640 207b 9440 5697 863f f15b bd40
-1.4108595 -1.0983557 -1.310169 -1.650577 -0.87707263 -1.0642239 -0.97517896 -1.1096884
-1.5287194 -0.8212433 -0.67106336 -1.7514694 -0.63671875 -1.125652 -0.48074043 -1.4198724
-0.31382322 -1.0212089 -0.61598516 -1.8092904 1.8342552 -2.4202805 1.48614 -2.6679616
0.6344403 -3.6860561 0.90025866 -2.690187 1.3896055 -3.1826127 1.4840528 -2.9668865
2.2588115 -2.654514 1.5681268 -2.298627 1.6373898 -3.0157216 0.6874253 -2.6072173
-2.1836634 0.2936725 -3.3343856 0.017102178 -2.8928719 -0.17903115 -2.6455407 -0.19502956
-4.019277 -0.8277818 -3.8096836 -0.02614993 -2.8300447 0.28047648 -2.4886863 0.43454584
-3.018985 -0.117754765 -3.6279821 -0.14781682 2.532404 -0.54589266 3.08963 -0.21127872
3.086146 -0.49504316 2.3278253 -0.59907216 2.3945715 -1.233689 2.912776 -0.40490413
2.401652 -0.41256994 2.9258714 -1.2721947 3.6868074 -0.786988 2.0545135 -0.6408692
-5.126713 -3.1592622 -3.8058572 -2.4584258 -4.2192793 -2.1394315 -4.714595 -3.2149315
-5.217612 -2.5730588 -4.397437 -2.5130162 -4.4793525 -3.2930877 -4.160225 -3.1213665
-4.7914066 -2.9795132 -4.9567456 -2.5496347 1.0537525 2.0056875 2.0539017 2.3721542
1.1316345 2.402442 0.7511364 2.5371556 1.6924407 2.4677012 2.1862104 2.8037364
0.7027405 3.362117 1.9731089 2.8077068 1.2846873 2.1820045 1.38113 2.6022248
-0.8504701 3.0780766 -0.37167144 3.5535264 -0.43375844 4.1602197 0.96790063 3.8353672
-0.59763604 3.548756 -0.058820516 4.0111203 -0.40864006 3.3514018 -0.052013703 3.3078072
0.026085548 3.1441736 0.029408447 3.8048031 0.17866498 0.52336776 0.5485308 0.6816889
-0.40589488 0.6453949 -0.90042216 0.83367795 -1.0355742 1.0940369 -0.1651203 0.9410378
0.14176728 0.8219806 -0.6629282 1.0504869 -1.0940596 0.7774208 -0.15029313 1.3167299
-0.36281624 -1.0113543 0.30658025 -0.801417 -0.27590013 -1.1878852 0.009543164 -1.1704457
-0.6335481 -0.48179314 -0.19514519 -0.91472906 -0.0068558166 -0.5289052 1.0083807 -0.7857853
0.06701391 -1.0428962 0.36522782 -0.68518215 1.911085 5.168628 2.6834924 5.6772747
2.7467508 5.1653047 2.571423 4.80681 2.4057956 5.297724 2.1847017 4.9434733
2.0492857 5.5111384 3.438785 5.43184 2.1071646 4.64003 1.0514934 5.9174733

_BaseModel__v_s f4 [100, 100, 2]
00000000: 4066 533a 3f96 21be 5dd3 bdc0 09dd 2740
00000010: 1fd8 59c0 c506 a6c0 4d2f adc0 8b15 a6c0
00000020: 5aad 8b3f 6076 d3c0 64d2 41c0 27cf 4fc0
00000030: 7b60 8bc0 13b7 e23d 1c41 5ac1 3a87 a5c0
00000040: ed23 0140 4e51 e1c0 0b73 30be 5b6b a040
00000050: 3631 54c0 293e 53c0 1a87 b43e 0154 2e40
00000060: 8386 ab40 d445 02be a41d ccbf 7dda 03c1
00000070: 0632 cb40 5c4b f1c0 5dbb a040 4f9f 0d40
00000080: 6ae1 f8bf 01dd 36c0 7354 c040 589e c4bc
00000090: d000 0341 591f 7fc0 aebb 8440 d5b6 fec0
000000a0: 1af5 9bc0 dbb3 e440 b48a 3d40 8f7c 5cc0
000000b0: 4540 05c1 d6f3 ad40 1cc5 5dc0 1764 1140
000000c0: 5fa5 5d3f ee26 8740 288a 8440 9d80 5f40
000000d0: 3e57 a6c0 d6db 9cc0 df4f c9c0 9bcd ebbf
000000e0: e54d 22c0 8c0b 25c0 6e46 1bc1 c714 b3c0
000000f0: e5a3 3bc0 b3b8 2840 c26f 81bf 85ff 46c0
00000100: 6d26 f6be 02d3 8cc0 2efc 1141 8c29 80c0
00000110: b07f d240 17ce 6140 94f1 0241 4c8c 5ac0
00000120: 4262 ce40 183a a0c0 df78 b5bf a192 aa40
00000130: 2715 ec40 12af 1940 68ab e040 2360 40c0
00000140: 5149 0cc1 ce99 e1bf a551 2bc1 2203 02c1
00000150: ce16 27c1 3d2c b3c0 7e10 d6bf 921d cc3f
00000160: 9c8d 96c0 78de 82c0 f7d6 883e 483a 763f
00000170: 6610 26c1 20fd 98bf 7769 bc3d 7922 4ac0
00000180: 6434 19c1 45a2 dec0 f7e3 e1bf aac4 cfc0
00000190: b8ec 82c0 8934 5e40 5a65 a0bf 547a 5240
000001a0: 09ad bf40 3f68 5340 7085 bbbf f19c 30c0
000001b0: a525 ce40 44cc dc40 e457 42c0 b585 2bc0
000001c0: 02ef de40 feda ebbf 7faf c93f b2dd ddbd
000001d0: 25be f33e c5de ee40 deb5 71bf 8435 0d41
000001e0: 54de 25c1 fee6 0240 b527 c840 329b e2c0
000001f0: a1d7 eb3f 708a d640 dc45 85c0 6c6a b1bf
00000200: 6759 ffbe 7037 6140 e97d 1fc1 b898 3a41
00000210: b7a9 5640 72b7 2941 e71c 03c1 e526 2140
00000220: 0411 c0be 20ab 1a41 4938 17c0 5734 8640
00000230: 819a 9540 d40e e7bb e727 50bf 2ed2 c140
00000240: 8ae1 cd3f eb5a 8440 cd2d 86c0 51e3 6a40
00000250: 9f80 21bf de4e fcbf 99e9 9ebf bd09 9c3f
00000260: a590 5fc0 f792 3a3f 2bd6 62c0 351c 5f40
00000270: 8d01 10bf ebda 30c0 1669 b140 a5df 83c0
00000280: 75da 3a41 5ad9 e3be 645a bc40 50f7 65be
00000290: ad52 49c0 a1da 5040 b5f8 d240 f53c 1c40
000002a0: 8dfa 5f40 ebc9 a2c0 e581 a940 4bdb c9c0
000002b0: 0de1 6040 8240 81c0 ac53 41bf ae67 d7c0
000002c0: 0a29 35be b122 20c0 71f0 8ac0 c17a a6c0
000002d0: 30e2 5dc0 7044 6c41 de5b 413d 3436 79bf
000002e0: 6391 b840 bd16 a540 a38a e640 790b 5a40
000002f0: b347 f840 630d 1240 0c1c bd3e 8547 d93f
00000300: fea2 09c1 cf4a 8940 a4a7 93bf 1f11 1e41
00000310: 3afd a440 be0d 0241 a47e c040 dbc8 8d40
00000320: e98d 0740 d072 323a 1929 1ac1 0d25 2840
00000330: 71a9 3bc0 ab4a 1dbf 43cd 06c1 bf79 bcc0
00000340: 4b56 e0c0 d6ef 2bc1 ca75 c1c0 c57b a9bf
00000350: e75b ccc0 3ed2 1fc1 721d 8ec1 00c6 efbf
00000360: 95af 97c0 8ae4 0ec1 eb34 5dc0 3384 b040
00000370: 9872 c2c0 15fe 86c0 8fb8 5ec0 0185 ddc0
00000380: 644d af40 b993 be3f 25bb aebe 6c4d 0dc1
00000390: bcef a540 bc92 f2c0 8f5c 7140 715c 5140
000003a0: 1146 85c0 86e1 30c0 76e0 d540 ee83 6dc0
000003b0: c18d d240 1b8f b7c0 ba3c 2240 e519 cdc0
000003c0: 477a 0cc1 4839 3b41 3d16 8740 9ce7 74c0
000003d0: 8c13 a1c0 1aea 8f40 8da4 ddbe 1ca0 d03e
000003e0: 106f 6540 7a81 b440 8809 9fbe 058c f0bf
000003f0: 1e41 e3c0 2a59 43c0 acd5 cdc0 1ae2 42c0
0.00080642477 -0.1577997 -5.932051 2.622866 -3.403816 -5.1883264 -5.412024 -5.1901298
1.0912278 -6.6082 -3.0284662 -3.2470186 -4.3555274 0.11070075 -13.640896 -5.172757
2.0178177 -7.041175 -0.17231385 5.013105 -3.3155036 -3.300669 0.35259324 2.7238772
5.36017 -0.1272195 -1.5946546 -8.240842 6.3498564 -7.540449 5.0228715 2.2128484
-1.9443791 -2.857239 6.0103087 -0.024001285 8.187698 -3.9862883 4.14791 -7.9598184
-4.8736696 7.146955 2.9615908 -3.4451025 -8.328191 5.436015 -3.4651556 2.271734
0.8658046 4.223502 4.141865 3.492225 -5.1981497 -4.9018354 -6.291 -1.8422121
-2.5360043 -2.5788298 -9.704695 -5.5962863 -2.9318783 2.6362731 -1.0112231 -3.1093457
-0.48076192 -4.400758 9.124067 -4.0050716 6.578087 3.5282037 8.183979 -3.414813
6.4494944 -5.0070915 -1.4177512 5.330399 7.377582 2.4013104 7.0209236 -3.0058677
-8.7678995 -1.7625062 -10.707433 -8.125765 -10.443068 -5.59915 -1.6723783 1.5946524
-4.7047863 -4.089657 0.26726505 0.9618268 -10.379004 -1.1952248 0.09199803 -3.158354
-9.575291 -6.9573083 -1.7647694 -6.492757 -4.0913963 3.4719565 -1.253093 3.2887163
5.9898725 3.3032377 -1.4650097 -2.759579 6.4420953 6.899935 -3.0366144 -2.6800358
6.9666758 -1.8426206 1.5756682 -0.10833301 0.47606006 7.4646935 -0.9441813 8.825565
-10.366779 2.0453486 6.254847 -7.0814447 1.842518 6.704399 -4.1647778 -1.3860602
-0.49872896 3.5190086 -9.96824 11.662285 3.3541086 10.607286 -8.194556 2.517999
-0.37512982 9.666779 -2.3628104 4.193889 4.6751103 -0.007051328 -0.81310886 6.0569067
1.6084454 4.1360984 -4.193091 3.6701243 -0.63086885 -1.9711568 -1.2415038 1.2190472
-3.4932034 0.728805 -3.5443218 3.4860966 -0.56252366 -2.7633617 5.544078 -4.1210504
11.678334 -0.44501764 5.886034 -0.22457623 -3.1456711 3.263344 6.5928597 2.4412205
3.4996674 -5.087148 5.2971063 -6.308019 3.513736 -4.0391245 -0.755183 -6.731406
-0.17691436 -2.5021174 -4.3418508 -5.2024846 -3.4669304 14.766708 0.047206752 -0.9734833
5.7677474 5.1590257 7.2044234 3.4069502 7.7587523 2.282067 0.3693546 1.6974951
-8.602293 4.290382 -1.1535535 9.87918 5.1559114 8.128355 6.015459 4.4307685
2.1180365 0.00068072695 -9.635034 2.6272614 -2.932217 -0.6144206 -8.425113 -5.8898616
-7.010534 -10.746054 -6.0456285 -1.3240896 -6.3862185 -9.988829 -17.764378 -1.87323
-4.7401834 -8.930796 -3.4563549 5.5161376 -6.0764885 -4.218516 -3.4800146 -6.922486
5.478197 1.4888831 -0.34127155 -8.831402 5.1855145 -7.580412 3.7712743 3.2712672
-4.164803 -2.7637649 6.68365 -3.7111773 6.579804 -5.736219 2.5349565 -6.409411
-8.779853 11.701485 4.2214646 -3.8266363 -5.033636 4.497327 -0.43289605 0.40747154
3.5849037 5.6408052 -0.3106196 -1.879273 -7.101699 -3.0523171 -6.432333 -3.0450501

_BaseModel__beta_s f4 [2]
00000000: 8909 5740 b5a1 d5bf
3.359957 -1.6689974

_BaseModel__prior_b_sigma_s f4 [100]
00000000: d7c3 8ac0 a75d 8ac0 bd3a 8ac0 2789 8ac0
00000010: d796 89c0 4557 8ac0 dd8d 89c0 ea1e 8ac0
00000020: db06 87c0 483b 85c0 bace 85c0 19f1 88c0
00000030: 9887 88c0 d307 89c0 0cf8 88c0 8c07 8ac0
00000040: 6b36 8ac0 e952 8ac0 02dc 89c0 06cc 89c0
00000050: 6274 0641 6274 0641 6274 0641 6274 0641
00000060: 0610 86c0 14f8 85c0 c08a 84c0 333b 82c0
00000070: 76a4 83c0 66cd 7ec0 af99 83c0 6876 87c0
00000080: 2755 86c0 304f 85c0 6aaf 85c0 3c71 85c0
00000090: 77c9 82c0 6675 7dc0 3750 76c0 5438 6ec0
000000a0: d2f8 6ec0 2e61 7ac0 2cdd 7cc0 1383 7ec0
000000b0: bebe 83c0 ae62 82c0 4ac8 81c0 90fb 82c0
000000c0: 8b6a 81c0 64d9 81c0 ed80 82c0 c3cf 84c0
000000d0: 2881 88c0 4536 88c0 c310 88c0 ad76 84c0
000000e0: 9ebc 83c0 eeb3 84c0 c7ff 84c0 0822 81c0
000000f0: a37c 80c0 cae2 7cc0 c1d6 7dc0 f5eb 7ec0
00000100: 6274 0641 0420 7bc0 1fba 7dc0 684e 7fc0
00000110: e300 7dc0 c96e 7cc0 ec0f 76c0 25f0 71c0
00000120: aa8f 78c0 601a 7dc0 c34f 7fc0 61ca 80c0
00000130: 165d 81c0 b868 80c0 4be5 80c0 2a34 81c0
00000140: c950 81c0 7498 80c0 7232 80c0 666b 80c0
00000150: 6204 7dc0 5a12 7bc0 582e 7ec0 e62d 81c0
00000160: a8f2 7fc0 7d3f 7fc0 5bce 79c0 b9cd 74c0
00000170: a248 75c0 cac9 6fc0 2a0a 75c0 09fc 6ec0
00000180: eed0 6ec0 3023 6ac0 fa35 6bc0 6274 0641
-4.336406 -4.323932 -4.31967 -4.329242 -4.299663 -4.323153 -4.2985673 -4.3162737
-4.219587 -4.1634865 -4.181485 -4.279431 -4.266552 -4.282205 -4.280279 -4.3134212
-4.319143 -4.322621 -4.3081064 -4.306155 8.403414 8.403414 8.403414 8.403414
-4.189456 -4.186533 -4.1419373 -4.0697265 -4.113826 -3.9812865 -4.11251 -4.233204
-4.1978946 -4.1659164 -4.177663 -4.1700726 -4.087093 -3.9602904 -3.848646 -3.722188
-3.7339368 -3.9121814 -3.9509993 -3.9767501 -4.117034 -4.074546 -4.0556993 -4.0932083
-4.0442557 -4.057787 -4.078238 -4.1503615 -4.265766 -4.2566247 -4.252046 -4.139487
-4.1167746 -4.146964 -4.156223 -4.035404 -4.0152144 -3.951342 -3.9662325 -3.9831517
8.403414 -3.923829 -3.964485 -3.9891605 -3.9531791 -3.9442618 -3.8447218 -3.7802823
-3.8837686 -3.9547348 -3.9892433 -4.0247045 -4.042613 -4.012783 -4.02799 -4.0376177
-4.0411115 -4.01861 -4.006158 -4.01311 -3.9533925 -3.922995 -3.9715786 -4.036853
-3.9991856 -3.98825 -3.90322 -3.8250563 -3.8325582 -3.7466912 -3.8287454 -3.734133
-3.731502 -3.6583977 -3.6751695 8.403414

_BaseModel__prior_c_sigma_s f4 [100]
00000000: a81c 27c1 9eed 26c1 08f4 26c1 02d1 26c1
00000010: b12b 27c1 4f96 25c1 e0d0 26c1 1e85 26c1
00000020: 8e25 25c1 ace7 25c1 aaf0 23c1 ca66 25c1
00000030: 6b78 23c1 e42e 24c1 20c0 25c1 2a33 26c1
00000040: 157f 24c1 4784 24c1 0531 25c1 d5c3 25c1
00000050: 7977 25c1 3b37 26c1 a413 27c1 68f0 24c1
00000060: 4bbb 26c1 a8e7 27c1 45e5 25c1 0613 27c1
00000070: 7991 26c1 78c5 25c1 2288 26c1 c6eb 25c1
00000080: f971 26c1 ecc2 25c1 be3f 27c1 6966 26c1
00000090: e914 27c1 9b74 27c1 3fd0 25c1 80ec 25c1
000000a0: 8194 26c1 5bad 25c1 3ce7 24c1 643a 26c1
000000b0: 1eee 27c1 68e5 24c1 95d4 25c1 0935 27c1
000000c0: 1d6a 24c1 6676 27c1 fad8 25c1 0661 26c1
000000d0: 83a7 23c1 2f0a 25c1 3b5f 26c1 37d0 24c1
000000e0: 34d7 24c1 f8db 25c1 dcc1 24c1 41b2 24c1
000000f0: a644 26c1 da1c 27c1 005d 26c1 3bbb 25c1
00000100: c092 26c1 e4ce 24c1 8764 27c1 82a8 25c1
00000110: 21ed 26c1 8866 24c1 43d2 25c1 28ec 24c1
00000120: 512d 27c1 d250 25c1 315b 27c1 79b4 24c1
00000130: 7482 25c1 788d 25c1 ae45 24c1 8002 25c1
00000140: 1106 26c1 bca8 26c1 ba6c 26c1 b588 25c1
00000150: 8195 26c1 3a4e 26c1 03ac 25c1 d1dd 26c1
00000160: 2028 26c1 04cb 26c1 2c01 25c1 bee2 25c1
00000170: d67f 27c1 f32c 26c1 157f 27c1 5ef6 27c1
00000180: 7a96 4641 7a96 4641 7a96 4641 7a96 4641
-10.444496 -10.433012 -10.434578 -10.426027 -10.448167 -10.349196 -10.425995 -10.407499
-10.321669 -10.3690605 -10.246256 -10.337595 -10.216899 -10.261448 -10.3594055 -10.387491
-10.281026 -10.282294 -10.324468 -10.360311 -10.341668 -10.388484 -10.442295 -10.308693
-10.420726 -10.494057 -10.368474 -10.442144 -10.410516 -10.36071 -10.408236 -10.370062
-10.402825 -10.360088 -10.453062 -10.4000025 -10.442605 -10.465968 -10.363341 -10.370239
-10.411256 -10.354823 -10.306454 -10.389256 -10.495634 -10.306007 -10.3644 -10.450448
-10.275907 -10.466406 -10.365473 -10.398687 -10.228396 -10.314986 -10.39825 -10.300834
-10.30254 -10.366203 -10.297329 -10.293519 -10.39176 -10.444544 -10.397705 -10.358211
-10.410828 -10.30051 -10.462043 -10.35364 -10.432893 -10.275032 -10.363833 -10.307655
-10.448564 -10.3322315 -10.459764 -10.294061 -10.344349 -10.347038 -10.267012 -10.31311
-10.376481 -10.416195 -10.401545 -10.345876 -10.4115 -10.394098 -10.354495 -10.429154
-10.384796 -10.424564 -10.312786 -10.367857 -10.46871 -10.385974 -10.468526 -10.497648
12.411737 12.411737 12.411737 12.411737
