experiments/models_mr=0.1_cr=0.1_pr=0.1/residual_synthetic_n=100_seed=16_B=100_lambda=1e2_dim=2_epoch=300_spe=10_bs=100_lr=0.1_seed=10.model (torch, 84927 bytes, 5 tensors)

_BaseModel__x0_s f4 [100, 2]
00000000: 6420 3ebe 962e a93f f412 92be 9a56 bd3f
00000010: fd3c 8abe c8c5 b73f bd69 77be 2eb9 b73f
00000020: 1cdb a9be c03c b83f 8129 a7be f721 ba3f
00000030: 4f91 e1be 9c3e b23f 4bcf bbbe e327 b63f
00000040: 5cee d7be f708 af3f b74e fdbe b050 b43f
00000050: a00f 17c0 916f 683e 292a 1cc0 218b 3fbe
00000060: df73 23c0 6b70 8abe c778 17c0 cb39 d6bd
00000070: 343c 25c0 f6c2 bebe bfcf 14c0 7b11 df3d
00000080: 0af6 1ac0 86a2 46be cf7f 1bc0 3962 693d
00000090: b30c 18c0 c08a 04be c8f5 1cc0 5744 aa3d
000000a0: 6f15 853f 14f7 0940 c1fd 873f 98e5 0340
000000b0: f791 943f 50ad 0640 95bb 633f 7e89 fa3f
000000c0: 6273 af3f 2a1f 0e40 2349 af3f d816 1040
000000d0: 6e7a a23f c8a7 0a40 0083 a23f fd84 0240
000000e0: cb56 913f 365b 1140 f322 973f 79d7 0e40
000000f0: 7d2a 6cbf 9a3b 9abf d76f aabf b97a debf
00000100: c8b5 b2bf 261d dcbf b939 c1bf fcaa c9bf
00000110: 73ee aebf 7b24 d4bf b9a3 c1bf fff1 c8bf
00000120: c75e 84bf 6d5b babf e52f bebf 7568 ccbf
00000130: daa8 a3bf b11e d8bf af21 c6bf c771 c9bf
00000140: 888c 7dc0 e5cd 4240 31d7 82c0 867f 2040
00000150: d859 8ec0 624c 4d40 5e88 7ac0 5098 3340
00000160: cc36 8ec0 81c6 3f40 a89f 8dc0 310d 3840
00000170: 65dd 72c0 ab7d 4840 1a0d 74c0 f531 3540
00000180: 4d24 91c0 19c8 3f40 35bd 8cc0 93ec 4140
00000190: 461d 093f bef4 cabf 56ef b03e 3a99 d5bf
000001a0: 0271 113f b3ac c3bf 158c 123f 52a0 c2bf
000001b0: 4e18 bd3e 1c1e cfbf 9ab6 d23e 3b53 cdbf
000001c0: 3769 e23e 261b f1bf 7a69 713e f9ed e1bf
000001d0: 9185 313f f915 babf 6904 2a3f 955d c0bf
000001e0: f261 e63f 33fe 61c0 628a f23f 4f6c 41c0
000001f0: 7aac 0540 b688 56c0 b4bb 0a40 eebb 25c0
00000200: 0b04 0340 4720 58c0 f763 1e40 3189 44c0
00000210: da8e f73f 29b6 42c0 4a9c 1040 17df 43c0
00000220: ca15 f13f 7ca6 3ec0 d779 0540 2dcc 3ec0
00000230: cadd 763f 2dd8 e53e d98a 453f 8599 333e
00000240: bb2c bb3f edf2 283f 4463 8f3f af72 2c3f
00000250: d208 c23f 3e28 293f 9dee b43f e0d6 2f3f
00000260: 5961 843f 91e7 133f 8472 993f cf2b 283f
00000270: 0f94 a03f 1918 263f 8ae5 9a3f 022a 123f
00000280: 4754 6dbf 173d 94bd df31 57bf be3b 55be
00000290: d0f0 57bf 4a7a aabd 893c 62bf 77ce 14be
000002a0: d0c9 24bf f3dd 6d3d 0394 67bf 2a10 e6bd
000002b0: 864c 58bf bcc9 51be cbea 80bf 14f5 50be
000002c0: ec46 7cbf 833c 66bd 096c 61bf 6f15 34be
000002d0: 3101 8940 d5b4 13bf 52de 9440 9a8c 40bf
000002e0: 9507 9d40 ce6d 5abf f722 a140 2a79 ffbe
000002f0: 81a9 9f40 76c9 91be 9e49 9c40 7dac 23bf
00000300: d803 9740 f86d 02bf 68bc ae40 141d 08bf
00000310: db88 8840 3941 65bf 5143 9040 cbac 2dbf
-0.18567044 1.3217342 -0.28530085 1.4792054 -0.26999655 1.4357233 -0.2416143 1.4353387
-0.3317498 1.439354 -0.32648852 1.4541615 -0.44056174 1.3925357 -0.3668159 1.4230922
-0.4217404 1.3674611 -0.49474117 1.4087124 -2.3603287 0.22698809 -2.4400733 -0.18705417
-2.5539472 -0.27038893 -2.3667467 -0.10460242 -2.5817995 -0.37258118 -2.3251798 0.10892006
-2.421267 -0.19397935 -2.4296758 0.056978438 -2.375775 -0.12943554 -2.4525013 0.08313816
1.0397166 2.1557055 1.0624315 2.0608883 1.1607045 2.1043282 0.889581 1.9573209
1.3707087 2.220652 1.3694195 2.2513943 1.2693613 2.1664906 1.2696228 2.039367
1.1354612 2.271192 1.1807541 2.2319014 -0.9225233 -1.2049439 -1.3315381 -1.7381202
-1.3961725 -1.7196395 -1.509574 -1.5755305 -1.3666519 -1.6573633 -1.5128089 -1.5698851
-1.0341424 -1.4559151 -1.4858366 -1.5969378 -1.2785904 -1.6884366 -1.547903 -1.5737847
-3.9617023 3.0438168 -4.0887685 2.5077834 -4.4484673 3.207787 -3.9145732 2.8061714
-4.444189 2.9964907 -4.4257393 2.8758051 -3.7947628 3.1326702 -3.8132997 2.8311741
-4.5356812 2.996588 -4.3980966 3.0300643 0.5356029 -1.5855939 0.345576 -1.6687386
0.5681306 -1.5287079 0.57245 -1.5205176 0.36932606 -1.6181064 0.4115494 -1.6041025
0.44220898 -1.883641 0.23575392 -1.7650748 0.6934443 -1.4537956 0.6641298 -1.5028559
1.799864 -3.53114 1.8948481 -3.0222356 2.0886521 -3.3520942 2.1677065 -2.5895953
2.0471218 -3.37697 2.4748514 -3.0708735 1.934047 -3.0423682 2.2595391 -3.0604913
1.8834774 -2.9789114 2.0855615 -2.981212 0.96432173 0.44891492 0.7716499 0.17539032
1.4623026 0.65995675 1.1202168 0.67362493 1.5158942 0.6607703 1.4135319 0.6868725
1.0342208 0.5777522 1.1988072 0.65691847 1.2545184 0.6488052 1.21013 0.5709535
-0.9270672 -0.072382145 -0.8406047 -0.20823571 -0.84351826 -0.08324106 -0.8837362 -0.14531885
-0.6437044 0.058072995 -0.9046022 -0.11233552 -0.84491765 -0.20487112 -1.0071653 -0.2040599
-0.9854572 -0.056210052 -0.88055474 -0.17586301 4.2813954 -0.576978 4.6521387 -0.7521454
4.9071755 -0.853238 5.035518 -0.49897128 4.9894414 -0.28474015 4.8839865 -0.6393507
4.719219 -0.5094905 5.460499 -0.5316937 4.266706 -0.89552647 4.5082173 -0.67841786

_BaseModel__v_s f4 [100, 100, 2]
00000000: ff2e a03b 599d a6be 8254 61bb eade 81be
00000010: caa8 403a 6ad0 aabe 4a6e c4ba aaa4 a6be
00000020: 5666 2f3c 6ac7 a9be c02b 783a cf1c a7be
00000030: ffbf 4dbc af59 a8be 00d5 cd3b 9547 a7be
00000040: 32f5 fb3a d06c a6be 18bc 6ebb 1095 a8be
00000050: 821c 5c3c bf34 a8be e11e ef3b a3d3 a5be
00000060: 2c69 ab3b d327 b6be 88aa 77ba 0edb a5be
00000070: 8bc9 8c3b 375a aabe c6e4 8e3b 9657 2bbe
00000080: 8514 a9bb c6fe 82be 587b c23b a00b abbe
00000090: f79d 9d3b da74 a6be 144d 303b a500 afbe
000000a0: 282c 873b 446e a8be df8b 713c 1451 a8be
000000b0: 0500 1f3c 9ee1 a8be b36a f13b 3261 a8be
000000c0: 2ff7 8e3c 0e8f 9cbe 0b66 013c 345e acbe
000000d0: 4221 e13b 39c8 acbe 6430 883a 6c58 b7be
000000e0: 0254 883c 28c3 a6be af67 d83b 02ff a9be
000000f0: dcb6 123c 9edf aabe 9fc0 c13d 8d9c d93c
00000100: 46bd eaba 7485 a4be 46e8 d43b 258b abbe
00000110: 626a 0d3c 8ade a8be 0e4a 263a c6e0 a6be
00000120: c8d0 2e3c 9a61 adbe 80d3 813b 096a a8be
00000130: 80a7 443b c020 aabe 5eef 5a3c 121d abbe
00000140: 66b7 a33b 97e1 a6be 3016 d7ba 6012 a8be
00000150: a64f c8bb aca2 9ebe 7bdd eb3b dd4f a8be
00000160: f0c7 3039 00a3 a8be dcc7 3c3b 453f a2be
00000170: 1475 f43b 1f5b a8be 4c15 3c3c 6798 acbe
00000180: 7083 8abb e252 adbe 6ead a4bc 2bdc afbe
00000190: 1c3a 873b 58c1 a7be 260c df3a 8bcc a8be
000001a0: 7eae 423b 7276 a8be 0858 a9bd 431b 2fbf
000001b0: 143d e53b 4426 a4be 32ce 2a3b ea4d a6be
000001c0: cfe0 4f3c 9847 acbe 5771 043c 30a2 aabe
000001d0: 1a96 a53c a203 a9be 63fe a23b e5df a6be
000001e0: 5289 f23b 35f0 9fbe f025 043c 4551 a7be
000001f0: f3af 113c 1305 a9be 337a bd3b 5bd5 a7be
00000200: d3c5 313c 6a16 a9be 3a02 f43b 32d6 a8be
00000210: 65b9 3f3c 459a a6be 0c2a 463c 65b0 a8be
00000220: 2ef7 01bc cc21 b1be 694e 803b c2b6 a6be
00000230: ee78 f83c feeb b1be 974e fb3b c1c1 abbe
00000240: 106b adbc 0945 a3be 3442 033b 8e3e a7be
00000250: 773f 1d3b f03a abbe 56dd 603b 770d abbe
00000260: 75a0 b13b 8139 a7be f9df 673c ea3f a2be
00000270: acc8 f13b 2e58 a8be 72f7 e33b 1dd3 a8be
00000280: 6b75 463b 96fc a7be 5cb2 e93b 8f07 a9be
00000290: 6394 0f3c 6185 abbe 812f b13b 4797 a7be
000002a0: d3d2 0e3c b2e7 04bf 5ca3 a23c f76e e5be
000002b0: d8b5 e53b ad3a a5be 9b33 c33a 3bd8 a7be
000002c0: 6405 c83b 8856 a7be 1971 db3b 9569 a3be
000002d0: fdde a93c c193 a3be 84f3 6c3c d3b7 a4be
000002e0: b080 c3ba f09b a8be b6f1 e93b e2f3 a7be
000002f0: 72e1 5e3b e299 a9be cbb0 933b eba4 abbe
00000300: 44b8 bf3b eb80 a7be a2b0 933c af18 a9be
00000310: f80e e33b 8fb0 a9be 2677 983c ba76 9dbe
00000320: e738 a1bd b166 153e 2653 a4bd b734 123e
00000330: 2e82 a4bd c770 173e 20ed 85bd 21fd 1d3e
00000340: fbe7 a6bd bdb6 163e fb8e aabd 02fc 113e
00000350: de39 a6bd e73a 0f3e 4f5f a3bd 1465 143e
00000360: 62b3 a4bd 6191 0d3e 87ec a2bd 1ef3 1d3e
00000370: 679c a6bd 358b 103e 7c47 a7bd 067a 163e
00000380: 1a4e bfbd 4314 0d3e 8a6c a6bd f81a 133e
00000390: c205 a2bd 3210 1a3e f627 55bc 9fa6 8b3e
000003a0: 523a abbd fbcc 103e d3d1 a5bd d65f 133e
000003b0: 1851 a6bd 4ff0 143e d5df a3bd 1a3a 113e
000003c0: 6022 aabd 80fc 103e 5318 a9bd 0772 163e
000003d0: 0868 a5bd 0c6d 0c3e 270e a9bd f161 0f3e
000003e0: 66bd abbd d75a 123e 5c42 a3bd 7ee6 113e
000003f0: 181b 3cbd b994 2a3e 50f8 b3bd 22e3 0d3e
0.004888415 -0.32541922 -0.0034382646 -0.25365382 0.000734937 -0.33362132 -0.0014986482 -0.32547504
0.010705551 -0.33159953 0.00094669685 -0.32639167 -0.0125579825 -0.32880923 0.006281495 -0.326718
0.0019222854 -0.32504892 -0.003642803 -0.32926226 0.013434531 -0.32852742 0.007297382 -0.32388029
0.0052310433 -0.35577258 -0.00094477134 -0.32393688 0.0042964867 -0.33271953 0.004360768 -0.1673263
-0.005159917 -0.25585002 0.005935114 -0.33407307 0.0048100906 -0.32511026 0.002690141 -0.3418018
0.004125137 -0.32896626 0.0147428205 -0.32874358 0.0097045945 -0.32984632 0.007367456 -0.32886654
0.01745185 -0.30577892 0.007897864 -0.3366562 0.0068704197 -0.33746508 0.0010390398 -0.35809648
0.01664162 -0.32570767 0.006604157 -0.33202368 0.00895473 -0.3337373 0.09460568 0.026563907
-0.0017909191 -0.32133067 0.0064974157 -0.33504596 0.008631321 -0.32982284 0.00063434325 -0.32593364
0.0106698945 -0.33863527 0.0039619803 -0.32893398 0.0030007064 -0.3322811 0.013362734 -0.33420616
0.004996228 -0.32593986 -0.0016409811 -0.3282652 -0.0061130105 -0.30983484 0.0071980334 -0.3287343
0.0001685915 -0.3293686 0.002880565 -0.31688896 0.007460246 -0.3288202 0.011479687 -0.33710024
-0.0042270944 -0.33852297 -0.020102229 -0.34347662 0.0041268 -0.32764697 0.001701717 -0.32968554
0.0029706056 -0.32902867 -0.08268744 -0.68400973 0.0069958065 -0.32060444 0.0026062843 -0.3248132
0.012687876 -0.33648372 0.008083663 -0.33326864 0.020213176 -0.33010584 0.004974173 -0.32592693
0.0074016238 -0.3123795 0.008065686 -0.3267919 0.008892047 -0.33011684 0.0057823895 -0.32779965
0.010850388 -0.33024913 0.0074465545 -0.32975918 0.011701916 -0.32539573 0.012094986 -0.32947078
-0.007932467 -0.34596097 0.003915597 -0.32561308 0.030331101 -0.3475036 0.0076692807 -0.3354626
-0.021169215 -0.31888607 0.0020028474 -0.32664913 0.0023994127 -0.33443403 0.0034311614 -0.3340871
0.0054207393 -0.3266106 0.01415252 -0.31689388 0.0073786583 -0.32879776 0.006956988 -0.32973567
0.003028239 -0.32809895 0.007131858 -0.3301358 0.0087634055 -0.33500198 0.0054072742 -0.32732603
0.008717257 -0.5191604 0.019853286 -0.44811222 0.007010203 -0.3227133 0.0014892699 -0.32782158
0.0061041582 -0.32683206 0.006696832 -0.3191649 0.020736212 -0.31948665 0.0144623555 -0.32171497
-0.0014915671 -0.3293147 0.00713941 -0.32803255 0.0034008888 -0.33125216 0.0045071593 -0.3352426
0.0058508236 -0.32715544 0.018028561 -0.33026645 0.0069292746 -0.33142516 0.018611502 -0.30754644
-0.078721814 0.14589955 -0.08023672 0.14277922 -0.08032642 0.14789115 -0.06539369 0.15428592
-0.081497155 0.14718147 -0.083280526 0.1425629 -0.08116506 0.13987313 -0.07977163 0.14491683
-0.08042027 0.13824989 -0.0795527 0.15424773 -0.081353 0.14115603 -0.081679314 0.14694986
-0.093410686 0.1377726 -0.08126171 0.14365757 -0.079112545 0.1504524 -0.013010016 0.2727556
-0.08360733 0.14140694 -0.080966614 0.14392027 -0.08120936 0.14544795 -0.08001677 0.1418232
-0.08307338 0.14158821 -0.082565926 0.14691935 -0.08076483 0.13713473 -0.082546525 0.14002205
-0.08385734 0.14292465 -0.079716414 0.14248082 -0.045924276 0.16658296 -0.08787596 0.13856176

_BaseModel__beta_s f4 [2]
00000000: 9ed8 2340 fa90 cebe
2.5600963 -0.40344983

_BaseModel__prior_b_sigma_s f4 [100]
00000000: 21c8 0ec0 0081 35c0 c392 60c0 5970 a5bf
00000010: 1627 0ac0 1f9f 51c0 acca 55c0 90ae 2940
00000020: b219 f7bf b00c 00bf 9bd0 fdbf bb0b 56c0
00000030: ad3f 50c0 e766 3bc0 356b dfbf 07b9 3a40
00000040: 6c77 dfbf 5b5c c7bf 5cea 25bf c642 3d40
00000050: 045c 56c0 4279 5ec0 1c14 4e40 ccf1 5640
00000060: 8d41 5a40 1ebd 6340 a754 7740 21bb 8340
00000070: 7c7d 8140 e9a5 6a40 d918 e3bf 3077 51c0
00000080: 55b2 5fc0 1f01 e4bf 31d8 e5bf c557 dabf
00000090: a83d 4ac0 90ab 3c40 9a5b 4c40 acd6 5d40
000000a0: 7fc9 4d40 a570 3440 1327 3fc0 7e41 eabf
000000b0: 60a1 fabf bdf0 40c0 cb52 3a40 3e1c 85bf
000000c0: 1c9a 07c0 c264 3ec0 8991 5bc0 3f51 4fbf
000000d0: 3648 3440 5b22 45bf 7243 02c0 c728 3ec0
000000e0: 9b96 c5bf c8a4 5cc0 983e 2ec0 b76f 3840
000000f0: a649 3b40 ea95 3d40 96a5 3c40 4729 3840
00000100: a7b8 3940 082f 3f40 9039 4140 54b3 4e40
00000110: 7b20 5540 dc8a 6440 f342 7f40 5d60 6e40
00000120: 183c 5440 2e8f 4240 5d3f 3f40 0313 3940
00000130: 1ed1 2cc0 7853 2dc0 a94f 3640 f9a4 4640
00000140: d8b0 51bf 4979 b0bf d959 ecbf e278 57c0
00000150: 53c5 ffbf c43e 97bf c474 d9bf 1aa2 53c0
00000160: 5935 59c0 ddde 01c0 879e 66bf 0f68 3940
00000170: 528b 48c0 de83 0cc0 3354 e1bf d289 5fc0
00000180: 36e0 b4bf bbd7 10c0 bde9 1440 8d7b d7bf
-2.230965 -2.8359985 -3.5089576 -1.2924911 -2.1586356 -3.275337 -3.340495 2.6512794
-1.9304717 -0.5001936 -1.9829286 -3.344466 -3.2538865 -2.9281557 -1.7454592 2.9175432
-1.745832 -1.557506 -0.6481073 2.9572005 -3.3493662 -3.476151 3.2199774 3.358508
3.410251 3.5584178 3.8645418 4.116593 4.046568 3.6663764 -1.7741958 -3.2728996
-3.4952595 -1.7812842 -1.7956601 -1.7058035 -3.1600132 2.9479713 3.193091 3.4662275
3.2154233 2.8193753 -2.98676 -1.8301237 -1.9580498 -3.0146935 2.9113033 -1.0399244
-2.118781 -2.9748998 -3.4307578 -0.80983347 2.8169074 -0.7700555 -2.0353665 -2.9712389
-1.5436586 -3.4475574 -2.7225704 2.8818185 2.9263701 2.962275 2.9476066 2.8775194
2.9018953 2.9872456 3.0191383 3.2296953 3.3301075 3.5709753 3.9884613 3.7246315
3.3161678 3.039989 2.9882424 2.8917854 -2.7002635 -2.7082195 2.848612 3.1038191
-0.8191047 -1.3787013 -1.8464919 -3.366753 -1.9982094 -1.181603 -1.6988759 -3.306769
-3.393881 -2.0292275 -0.90085644 2.8969762 -3.1335034 -2.1955485 -1.760382 -3.492787
-1.4130924 -2.2631671 2.3267663 -1.683458

_BaseModel__prior_c_sigma_s f4 [100]
00000000: 7211 7840 0a00 5340 f095 3340 2e5d 3c40
00000010: 8a41 2640 6bec 25c0 6a15 babf b8f4 4140
00000020: 42f8 fabf bdd7 12c0 71cd 04c0 ae97 3840
00000030: 5262 c5bf 1848 3a40 e6f9 2d40 e16d 5a40
00000040: 9451 4140 a369 3d40 1d9e 3e40 4d03 19c0
00000050: f4fe f2bf 5b3b a7bf 1ccb d4bf ebf6 5e40
00000060: 3b56 b7bf 4baa d2bf b6b5 b7bf 42f0 b8bf
00000070: 8573 cabf 394c 0ec0 8f5a 8140 ae4f 5640
00000080: 98a6 2840 6bd9 e1bf 23b1 5040 b64e 4640
00000090: 276a 5140 4d4e 2cc0 f605 2dc0 525f 3840
000000a0: e4c3 e5bf 3393 19c0 9447 b5bf 2703 1bc0
000000b0: cd50 2bc0 e42c b6bf 6bed 1ac0 4d32 d1bf
000000c0: 5b2f 0cc0 dbd1 d4bf 61f7 3040 00b8 c1bf
000000d0: 81a5 d4bf ad0d 5540 8c6a b7bf 5f30 2e40
000000e0: e909 01c0 cb95 adbf 93db e0bf 7ae5 3340
000000f0: 43a6 2cc0 fe90 c3bf 7363 06c0 584e 2140
00000100: 91af a7bf 83a8 26c0 0fed 15c0 ca25 a8bf
00000110: b051 cdbf 1799 b7bf c5f9 b0bf 6e04 7140
00000120: ec11 c2bf 4da7 bfbf 75a5 5440 4707 f0bf
00000130: fc30 d8bf ccce d7bf a539 18c0 4ba7 00c0
00000140: c7f8 8d40 42eb 6440 3e87 7e40 8964 6640
00000150: d3ff 7f40 f543 7f40 057c 8a40 47e6 6140
00000160: ecf3 a240 88d4 6c40 9f50 cdbf c47d c1bf
00000170: 8c61 b6bf 3501 05c0 a0d5 23c0 b165 e2bf
00000180: 71d3 c4bf 34f3 b6bf 95d6 10c0 3f48 adbf
3.8760648 3.2968774 2.8060265 2.9431872 2.5977502 -2.5925548 -1.4537785 3.0305614
-1.9607012 -2.2944176 -2.0750391 2.8842578 -1.542063 2.9106503 2.7183776 3.4129565
3.0206041 2.9595726 2.9784005 -2.3908265 -1.8984056 -1.3064989 -1.6624484 3.4838207
-1.432319 -1.6458219 -1.4352329 -1.4448321 -1.5816504 -2.2234023 4.0423045 3.3486133
2.635168 -1.7644476 3.2608116 3.0985541 3.272104 -2.692279 -2.7034888 2.880818
-1.7950406 -2.3996093 -1.4162469 -2.4220674 -2.6768067 -1.423245 -2.4207408 -1.6343476
-2.1903903 -1.6626543 2.7650988 -1.5134277 -1.6613008 3.3289597 -1.432939 2.7217023
-2.0162299 -1.3561338 -1.7567009 2.8108811 -2.6976478 -1.5278623 -2.09982 2.5204067
-1.3100454 -2.6040351 -2.342594 -1.3136532 -1.6040554 -1.4343594 -1.3826224 3.7658954
-1.5161719 -1.4972931 3.3225987 -1.8752221 -1.6889949 -1.6859984 -2.3785183 -2.0102108
4.4366183 3.576859 3.9770045 3.5998862 3.9999893 3.9885228 4.327639 3.52968
5.0922756 3.7004719 -1.6040229 -1.5116506 -1.4248519 -2.0781987 -2.5599136 -1.7687284
-1.5377027 -1.429297 -2.263097 -1.3537673
