experiments/models_mr=0.1_cr=0.1_pr=0.1/residual_synthetic_n=100_seed=16_B=100_lambda=1e7_dim=2_epoch=300_spe=10_bs=100_lr=0.1_seed=40.model (torch, 84927 bytes, 5 tensors)

_BaseModel__x0_s f4 [100, 2]
-0.12386076 -0.8477709 -0.20061159 -1.4125233 0.108504474 -1.2827785 -0.091316506 -1.3195955
-0.16165271 -1.2528015 0.26222742 -1.2180707 -0.0014744541 -0.9187089 0.26321146 -1.1474348
0.046925765 -0.90722746 0.1417852 -1.1177696 0.32825735 1.4837236 0.64845204 1.6570373
0.42042756 1.7045816 1.0620333 1.545573 0.037104003 1.6019715 0.8145188 1.5372815
0.7825165 1.7366594 0.7889877 1.6717416 0.8690554 1.7026682 1.0200379 1.5355226
-1.521842 -1.8205569 -1.9315944 -1.3930483 -2.0743992 -1.3217673 -1.4798133 -1.3972051
-1.9844562 -2.0029655 -2.2611878 -1.4258792 -1.9567704 -1.7345955 -2.004444 -1.6269349
-1.8385341 -1.6624461 -1.8874221 -1.8426688 -0.8578208 2.3561077 -0.23532961 2.9291143
-0.7274705 2.589936 -0.4719463 2.589011 -0.21933961 2.658832 -0.8264654 3.1236126
-0.33167583 2.5375488 -0.3022959 2.5602746 -0.82261914 2.8871741 -0.017045874 3.0764613
2.5018651 -3.2532935 1.9406695 -3.1437721 2.1496022 -2.6513135 2.2457612 -3.276913
2.4806328 -2.91492 1.9595964 -2.808074 2.2230225 -3.2965481 2.1874843 -3.1570132
2.4657648 -3.0842912 2.291209 -2.8847728 2.88601 2.1280246 2.6875055 2.8233273
2.9459867 2.0651364 2.7775235 1.841794 2.578165 2.2847667 2.358589 2.754676
2.9520755 1.9943504 2.525555 2.9499319 3.1603043 2.7317994 2.8257735 2.334986
3.799538 0.6769595 4.008426 1.0141985 4.4192863 0.66662675 4.1523347 1.6314057
4.399269 0.8534995 4.6831527 0.8749275 4.208111 1.1013364 3.9708822 1.0337292
4.0994263 1.3311146 4.0914745 1.0050294 -1.2085196 0.23395658 -1.233394 0.7033192
-1.2371029 -0.011421416 -1.2761655 -0.23958212 -1.4964012 0.040085137 -1.6870946 0.4169419
-1.0118555 0.037047714 -1.4012918 -0.03546478 -1.060096 -0.4492027 -1.2735565 0.0012492705
0.51745224 0.103543214 0.51636845 0.5754294 0.5792902 -0.043126814 0.6989199 0.22803974
0.51324826 -0.16025043 0.6286852 0.1239474 0.9247715 0.19254297 0.07198149 0.7534997
0.8102065 0.23963653 0.44650915 0.17726332 -4.2446566 -3.662176 -4.318935 -3.9953334
-3.9519684 -4.215275 -4.050853 -4.3761706 -3.81002 -4.4908204 -3.8701475 -4.0146074
-4.487811 -4.0644383 -3.1180935 -4.1522174 -4.240071 -3.8169851 -4.750475 -2.9234
00000000: b6aa fdbd 8407 59bf 206d 4dbe 90cd b4bf
00000010: 9837 de3d 1632 a4bf 2604 bbbd 81e8 a8bf
00000020: 4a88 25be cd5b a0bf ac42 863e bee9 9bbf
00000030: 7842 c1ba 8230 6bbf a7c3 863e 25df 92bf
00000040: 3b35 403d 0f40 68bf 2430 113e 1313 8fbf
00000050: 5911 a83e a8ea bd3f f400 263f cc19 d43f
00000060: 4842 d73e bb2f da3f b5f0 873f 56d5 c53f
00000070: 5efa 173d 670d cd3f 4e84 503f a4c5 c43f
00000080: 0053 483f db4a de3f 19fb 493f a1fb d53f
00000090: 6a7a 5e3f 08f1 d93f 9a90 823f 018c c43f
000000a0: b8cb c2bf 0208 e9bf 7c3e f7bf 684f b2bf
000000b0: f5c2 04c0 ac2f a9bf 866a bdbf 9ed7 b2bf
000000c0: a902 febf 9630 00c0 4db7 10c0 3683 b6bf
000000d0: 7477 fabf 3a07 debf cf48 00c0 673f d0bf
000000e0: 1655 ebbf 09cb d4bf 0c97 f1bf 92dc ebbf
000000f0: 259a 5bbf 78ca 1640 3ffa 70be 9c76 3b40
00000100: 823b 3abf 83c1 2540 f2a2 f1be 5bb2 2540
00000110: 909a 60be 4e2a 2a40 3d93 53bf 45e9 4740
00000120: 6ad1 a9be 3367 2240 87c6 9abe 8adb 2340
00000130: 2b97 52bf 76c7 3840 caa3 8bbc bee4 4440
00000140: 8f1e 2040 f635 50c0 dc67 f83f 9033 49c0
00000150: 1593 0940 1faf 29c0 8dba 0f40 f1b8 51c0
00000160: b0c2 1e40 0d8e 3ac0 0ed4 fa3f 7cb7 33c0
00000170: 0046 0e40 a5fa 52c0 beff 0b40 810c 4ac0
00000180: 17cf 1d40 0765 45c0 2ba3 1240 1ea0 38c0
00000190: 63b4 3840 8e31 0840 1700 2c40 65b1 3440
000001a0: 0c8b 3c40 322b 0440 f2c2 3140 e8bf eb3f
000001b0: a800 2540 9e39 1240 1ff3 1640 9d4c 3040
000001c0: ceee 3c40 e046 ff3f b1a2 2140 afcb 3c40
000001d0: 6d42 4a40 cdd5 2e40 79d9 3440 6970 1540
000001e0: a12b 7340 384d 2d3f 0745 8040 42d1 813f
000001f0: cb6a 8d40 0da8 2a3f eddf 8440 e7d1 d03f
00000200: d0c6 8c40 f17e 5a3f 63dc 9540 40fb 5f3f
00000210: d8a8 8640 97f8 8c3f ef22 7e40 3d51 843f
00000220: 802e 8340 f761 aa3f 5ced 8240 cea4 803f
00000230: c5b0 9abf 5092 6f3e dbdf 9dbf ba0c 343f
00000240: 6359 9ebf e420 3bbc 6459 a3bf 0455 75be
00000250: 138a bfbf 5030 243d b7f2 d7bf 6979 d53e
00000260: 7b84 81bf 58bf 173d 885d b3bf 8443 11bd
00000270: 3ab1 87bf e5fd e5be e603 a3bf 90be a33a
00000280: c077 043f 770e d43d b930 043f 574f 133f
00000290: 5d4c 143f bea5 30bd 6aec 323f 4083 693e
000002a0: 3d64 033f b018 24be 83f1 203f 22d8 fd3d
000002b0: d3bd 6c3f fc29 453e 086b 933d 5be5 403f
000002c0: b169 4f3f 4763 753e d99c e43e 8484 353e
000002d0: 3ad4 87c0 1761 6ac0 b734 8ac0 8bb3 7fc0
000002e0: 0ded 7cc0 88e3 86c0 96a0 81c0 9709 8cc0
000002f0: 5ed7 73c0 cdb4 8fc0 7fb0 77c0 aa77 80c0
00000300: 269c 8fc0 e10f 82c0 d88e 47c0 f7de 84c0
00000310: a9ae 87c0 7c49 74c0 e403 98c0 fc18 3bc0

_BaseModel__v_s f4 [100, 100, 2]
0.4427075 0.029005527 0.5608791 -0.71495336 -0.55567086 -0.47994173 0.80086875 -0.0405923
1.1936324 -0.0071866848 -3.0282373 -0.32584518 0.79884815 0.06604737 -1.8555859 -1.452493
-0.16695596 -0.27585226 0.7530461 -0.03929295 0.79685813 1.3376365 -0.16007379 0.29282835
0.6921414 2.4059143 0.52584624 1.571123 0.6416727 0.030757165 0.56559974 0.0796327
2.28586 0.06440914 0.8825362 0.6631611 0.16093355 0.52117133 1.0362414 0.09583103
-5.646371 0.053637758 -0.9507655 -0.77219963 0.9289253 -0.018992545 0.9019146 0.23763782
0.028265223 0.12312317 0.8406397 0.16106176 0.9099225 0.045307465 -0.73663306 0.237578
-2.6204011 0.18725093 1.0113287 0.20928472 0.833461 -0.09065737 -1.8170596 0.03434755
0.57196677 1.1572771 0.6053523 0.1959545 2.5786116 4.7655983 7.7602525 4.8240747
0.892642 0.038077883 0.8925012 0.56546736 0.9926966 0.077098295 0.5823927 -0.06571908
0.76801234 0.3248861 1.3920826 -3.2891152 0.7608843 -0.5905801 1.0221113 0.016533516
0.89513206 -0.09416946 0.7461263 -2.2168114 0.81223804 -0.06677151 0.73467046 0.0002370812
4.3392816 -4.2631145 0.73361254 0.29767787 2.2247505 0.2538522 0.9003578 0.23319915
4.965035 1.8545977 0.75517297 0.002109468 0.97701716 0.37284845 0.80468386 0.053823233
3.8411994 0.039866433 1.666009 0.11667074 0.7262634 -0.07241166 1.0615896 0.29333946
1.9687898 0.30839586 0.44803354 3.6885302 6.777711 0.14530545 1.0181541 1.8016988
3.0363183 -2.2990296 2.165975 -4.8581696 0.6506753 2.070348 3.4536574 -1.314944
0.8346324 0.39464736 4.447218 -0.09288623 0.27070498 0.15541637 0.8945875 -0.13210802
-0.21656132 0.7233628 0.8915818 0.4477353 0.85076445 0.0068005025 0.9482197 0.2693027
-0.44620425 -0.16186449 0.8779992 0.18179432 0.9036868 0.20121084 1.1655877 0.10779976
4.9298406 0.61743695 1.066544 1.8403934 1.0846521 0.14002565 1.1152651 0.21901622
-1.0466685 0.29435253 1.0340041 3.1704051 2.3116949 0.105283365 -0.28414392 2.5562956
2.533018 -0.034650303 -0.8089779 0.0325106 1.1355218 -0.22958414 0.9810281 0.32371378
-1.433682 0.030115258 0.45380586 0.17707425 0.90383315 -1.1069804 -0.7653656 -1.453719
-4.791599 5.602238 -8.587885 -9.901188 4.7715273 0.13864201 0.35849506 -7.2058883
-0.18952002 -0.12329598 0.15568388 -0.4454849 0.41645798 -0.42069882 0.0773319 -0.18941256
-0.003679032 -2.790402 -2.6024842 -0.12167868 0.032175254 -2.8691282 -6.00072 -1.4840722
0.56001353 -0.22496855 0.028659137 -0.35465494 0.89365125 -0.3440031 0.12423277 -1.0486658
-0.026438331 3.6108165 -0.19706255 0.6699685 -0.016179532 -0.1452407 -0.044069715 -0.744353
1.7120956 -0.0660438 0.0053631244 2.9241784 0.07299538 -0.260778 -0.022161273 -0.08971106
-3.9271202 -0.08679782 -0.87337923 -1.7312772 0.25047302 -0.283035 0.087980784 -0.0064297356
0.251283 0.005274713 -0.040808648 0.21092315 0.03784515 -0.3200638 -0.5627198 0.016602311
00000000: 8faa e23e 009d ed3c c695 0f3f 2f07 37bf
00000010: 7240 0ebf ecba f5be bc05 4d3f 1d44 26bd
00000020: f2c8 983f 487e ebbb a4ce 41c0 2ed5 a6be
00000030: 5081 4c3f d843 873d d783 edbf 4aeb b9bf
00000040: 81f6 2abe 823c 8dbe a1c7 403f a5f1 20bd
00000050: e5fe 4b3f ac37 ab3f 62ea 23be 99ed 953e
00000060: 2e30 313f 80fa 1940 dc9d 063f 8f1a c93f
00000070: a944 243f 73f6 fb3c 25cb 103f 7816 a33d
00000080: 884b 1240 f0e8 833d e4ed 613f edc4 293f
00000090: c4cb 243e 7c6b 053f 8fa3 843f 0f43 c43d
000000a0: 12af b4c0 44b3 5b3d 5e65 73bf e0ae 45bf
000000b0: 0cce 6d3f 4196 9bbc e0e3 663f 5457 733e
000000c0: 788c e73c 0028 fc3d 2a34 573f 60ed 243e
000000d0: aef0 683f 5294 393d fc93 3cbf a647 733e
000000e0: a7b4 27c0 b5be 3f3e 3873 813f bc4e 563e
000000f0: b35d 553f 92aa b9bd 6995 e8bf 04b0 0c3d
00000100: 6a6c 123f a821 943f 5ef8 1a3f 4ca8 483e
00000110: f907 2540 c87f 9840 fd53 f840 d25e 9a40
00000120: 3084 643f 8ef7 1b3d f57a 643f 78c2 103f
00000130: 5d21 7e3f b6e5 9d3d b017 153f ba97 86bd
00000140: 759c 443f 7957 a63e c32f b23f dd80 52c0
00000150: 50c9 423f 4230 17bf 8bd4 823f 4c71 873c
00000160: 6027 653f ebdb c0bd 2202 3f3f 3de0 0dc0
00000170: d5ee 4f3f 80bf 88bd 5d13 3c3f 0099 7839
00000180: 65db 8a40 6f6b 88c0 08ce 3b3f 3c69 983e
00000190: 5062 0e40 eaf8 813e d97d 663f c2cb 6e3e
000001a0: 91e1 9e40 7563 ed3f 0453 413f 003f 0a3b
000001b0: cc1d 7a3f fee5 be3e c3ff 4d3f c075 5c3d
000001c0: 36d6 7540 fc4a 233d c83f d53f 12f1 ee3d
000001d0: 66ec 393f 904c 94bd 2be2 873f 9730 963e
000001e0: 4e01 fc3f 10e6 9d3e a764 e53e e110 6c40
000001f0: 02e3 d840 f4ca 143e e052 823f 119e e63f
00000200: 0a53 4240 4d23 13c0 569f 0a40 2076 9bc0
00000210: a892 263f 9580 0440 b908 5d40 1650 a8bf
00000220: 78aa 553f 380f ca3e 9c4f 8e40 233b bebd
00000230: d899 8a3e 7825 1f3e b003 653f 5347 07be
00000240: 40c2 5dbe 4e2e 393f b43e 643f 903d e53e
00000250: b3cb 593f c0d6 de3b 87be 723f 0be2 893e
00000260: e274 e4be cebf 25be 8ec4 603f 4a28 3a3e
00000270: 0558 673f 370a 4e3e fa31 953f 1fc6 dc3d
00000280: 41c1 9d40 5910 1e3f 8484 883f 0392 eb3f
00000290: e1d5 8a3f e262 0f3e 02c1 8e3f ca45 603e
000002a0: 3cf9 85bf 60b5 963e 3f5a 843f ebe7 4a40
000002b0: cff2 1340 ce9e d73d 507b 91be 599a 2340
000002c0: f81c 2240 7aed 0dbd 2d19 4fbf d629 053d
000002d0: c758 913f 1b18 6bbe a824 7b3f d0bd a53e
000002e0: e482 b7bf 46b4 f63c 3e59 e83e f452 353e
000002f0: 9c61 673f 89b1 8dbf 00ef 43bf 7713 babf
00000300: c754 99c0 8945 b340 fa67 09c1 446b 1ec1
00000310: 5ab0 9840 2cf8 0d3e aa8c b73e a396 e6c0
00000320: 8911 42be 9a82 fcbd 986b 1f3e 9916 e4be
00000330: fb39 d53e d665 d7be 3060 9e3d 5ef5 41be
00000340: ea1b 71bb f295 32c0 1a8f 26c0 ac32 f9bd
00000350: 33ca 033d cc9f 37c0 e605 c0c0 14f6 bdbf
00000360: 0c5d 0f3f 285e 66be 91c6 ea3c 5595 b5be
00000370: 54c6 643f 2d21 b0be c06d fe3d ae3a 86bf
00000380: 3395 d8bc 9e17 6740 c4ca 49be 0e83 2b3f
00000390: f08a 84bc fab9 14be 7282 34bd eb8d 3ebf
000003a0: f325 db3f f941 87bd 26bd af3b bd25 3b40
000003b0: 9a7e 953d b284 85be 8f8b b5bc 6fba b7bd
000003c0: f055 7bc0 0ec3 b1bd c895 5fbf 7e9a ddbf
000003d0: 003e 803e f7e9 90be 452f b43d 88b0 d2bb
000003e0: 2aa8 803e 80d7 ac3b f826 27bd 3dfc 573e
000003f0: 8403 1b3d 67df a3be 680e 10bf 9201 883c

_BaseModel__beta_s f4 [2]
2.9254284 -0.6405846
00000000: 383a 3b40 5afd 23bf

_BaseModel__prior_b_sigma_s f4 [100]
-5.3355393 -5.4229646 -5.493425 -5.6373477 -4.944109 -5.07598 -4.9495263 -4.9229555
-4.12492 -4.0407343 -4.139455 -5.5075502 -4.9380736 -5.2546177 -5.5031657 -6.358139
-6.2547507 -5.5141754 -4.9912205 -4.8409767 -4.7729836 -4.141211 -3.6327882 -3.5337179
-3.9723146 -4.0213985 -3.6886203 -3.319459 6.944835 6.944836 -3.777612 -4.834994
-4.381474 -4.244266 -4.3680396 -4.2893624 -3.7632933 -3.30552 -3.0241134 -2.562994
-2.7157462 -3.0932648 -3.255239 -3.414473 -3.396369 -3.5003114 -3.343265 -3.4645982
-3.429948 -3.4639893 -3.56749 -3.892237 -4.476515 -4.3428497 -4.150201 -3.7524722
-3.6467366 -4.0851984 -4.236898 -3.7477758 -3.5016778 -3.5645323 -3.672601 -3.640401
-3.5027769 -3.2381346 -3.2885973 -3.5467377 -3.412191 -3.41103 -2.9563713 -2.8352835
-3.0803378 -3.3848557 -3.639421 -3.6585019 -3.84776 -3.597978 -3.7672918 -4.0157046
-3.8936198 -3.7901523 -3.9481523 -3.8505924 -3.7077405 -3.3812656 -3.7370193 -3.7997913
-3.6532028 -3.6092558 -3.228942 -3.1078663 -3.059487 -2.70757 -2.9867587 -2.4356525
6.9448576 6.944864 6.9448686 6.9448757
00000000: bdbc aac0 ed88 adc0 23ca afc0 2765 b4c0
00000010: 2436 9ec0 6e6e a2c0 8562 9ec0 da88 9dc0
00000020: 58ff 83c0 b24d 81c0 6a76 84c0 da3d b0c0
00000030: b304 9ec0 d425 a8c0 ef19 b0c0 e075 cbc0
00000040: eb26 c8c0 2074 b0c0 14b8 9fc0 48e9 9ac0
00000050: 48bc 98c0 cd84 84c0 9a7f 68c0 6f28 62c0
00000060: 673a 7ec0 4caf 80c0 5b12 6cc0 0472 54c0
00000070: 173c de40 193c de40 65c4 71c0 45b8 9ac0
00000080: 0935 8cc0 07d1 87c0 fbc6 8bc0 7542 89c0
00000090: ccd9 70c0 a48d 53c0 138b 41c0 1808 24c0
000000a0: c9ce 2dc0 0df8 45c0 d655 50c0 ba86 5ac0
000000b0: 1c5e 59c0 1a05 60c0 0ef8 55c0 fabb 5dc0
000000c0: 4584 5bc0 00b2 5dc0 c251 64c0 691a 79c0
000000d0: 9c3f 8fc0 a0f8 8ac0 72ce 84c0 8128 70c0
000000e0: 2264 69c0 f2b9 82c0 ab94 87c0 8fdb 6fc0
000000f0: 7d1b 60c0 4c21 64c0 e50b 6bc0 54fc 68c0
00000100: 7f2d 60c0 993d 4fc0 6178 52c0 c0fd 62c0
00000110: 5661 5ac0 514e 5ac0 3035 3dc0 4975 35c0
00000120: 4124 45c0 7aa1 58c0 46ec 68c0 e524 6ac0
00000130: b341 76c0 4645 66c0 4f1b 71c0 a780 80c0
00000140: 1131 79c0 db91 72c0 87ae 7cc0 1b70 76c0
00000150: 9f4b 6dc0 a866 58c0 532b 6fc0 c82f 73c0
00000160: 13ce 69c0 0cfe 66c0 fca6 4ec0 48e7 46c0
00000170: a3ce 43c0 d448 2dc0 0e27 3fc0 bbe1 1bc0
00000180: 463c de40 533c de40 5d3c de40 6c3c de40

_BaseModel__prior_c_sigma_s f4 [100]
-8.020008 -6.8094826 -6.7782154 -6.4267983 -7.0954075 -6.297307 -6.9870996 -6.01695
-6.7870994 -6.713723 -6.1474543 -6.1772857 -5.9843364 -6.0947905 -7.145085 -6.157855
-5.86799 -5.979001 -6.367064 -6.2217593 -6.1065264 -6.763786 -6.8004065 -6.6064434
-6.4031286 -6.922816 -6.7046843 -6.529268 -5.6850424 -6.0679927 -6.949662 -7.469381
-6.818164 -6.678824 -7.0670643 8.773018 -7.474014 -7.827574 -7.138762 -6.9827023
-6.684431 -5.483073 -7.777493 -6.017367 -8.363893 -6.84094 -8.075026 -6.422299
-6.5244045 -7.026498 -6.878922 -7.2398105 -5.709185 -6.499225 -6.736585 -8.068552
-7.0315933 -8.038427 -6.2943277 -6.925644 -7.261101 -7.0874505 -7.054185 -6.577698
-6.8204217 -6.1340055 -7.393533 -5.991636 -6.2209134 -6.556527 -7.053554 -6.278361
-7.041048 -7.5575533 -6.7744446 -5.78842 -6.8940945 -6.5939345 -7.9115124 -7.7097883
-6.5571375 -6.7773104 -6.3755813 -6.782395 -6.0911694 -6.5387836 -6.462956 -6.075405
-7.28326 -6.321722 -7.720673 -6.880156 -5.9078546 -8.664916 -8.617836 -7.08489
8.773018 8.773018 8.773018 8.773018
00000000: f451 00c1 48e7 d9c0 24e7 d8c0 55a8 cdc0
00000010: 940d e3c0 8a83 c9c0 5296 dfc0 db8a c0c0
00000020: eb2f d9c0 d2d6 d6c0 f2b7 c4c0 53ac c5c0
00000030: af7f bfc0 8608 c3c0 89a4 e4c0 260d c5c0
00000040: 93c6 bbc0 fa53 bfc0 fdbe cbc0 a718 c7c0
00000050: aa68 c3c0 ef70 d8c0 ee9c d9c0 fc67 d3c0
00000060: 6ee6 ccc0 b587 ddc0 c68c d6c0 c3ef d0c0
00000070: deeb b5c0 ff2c c2c0 a263 dec0 2b05 efc0
00000080: 662e dac0 edb8 d5c0 6425 e2c0 485e 0c41
00000090: 1f2b efc0 7c7b fac0 bd70 e4c0 4c72 dfc0
000000a0: dce6 d5c0 5675 afc0 39e1 f8c0 458e c0c0
000000b0: 81d2 05c1 fbe8 dac0 4e33 01c1 7983 cdc0
000000c0: ecc7 d0c0 12d9 e0c0 2120 dcc0 87ac e7c0
000000d0: a5b1 b6c0 a7f9 cfc0 1b92 d7c0 ca18 01c1
000000e0: d002 e1c0 669d 00c1 226b c9c0 e09e ddc0
000000f0: f05a e8c0 65cc e2c0 e2bb e1c0 817c d2c0
00000100: e540 dac0 c649 c4c0 d397 ecc0 7bbb bfc0
00000110: b911 c7c0 12cf d1c0 b7b6 e1c0 55e8 c8c0
00000120: 4450 e1c0 7ad7 f1c0 40c8 d8c0 bd3a b9c0
00000130: 6c9c dcc0 8301 d3c0 1c2b fdc0 96b6 f6c0
00000140: 12d4 d1c0 badf d8c0 c304 ccc0 6109 d9c0
00000150: dcea c2c0 b73d d1c0 89d0 cec0 b869 c2c0
00000160: 7710 e9c0 8c4b cac0 c10f f7c0 3d2a dcc0
00000170: 250d bdc0 7fa3 0ac1 a8e2 09c1 6bb7 e2c0
00000180: 485e 0c41 485e 0c41 485e 0c41 485e 0c41
