experiments/models_mr=0.1_cr=0.1_pr=0.1/residual_synthetic_n=100_seed=16_B=100_lambda=1e7_dim=2_epoch=300_spe=10_bs=100_lr=0.1_seed=50.model (torch, 84927 bytes, 5 tensors)

_BaseModel__x0_s f4 [100, 2]
000000 6d d7 d6 bf db 27 c9 bf 43 50 21 c0 57 e1 b1 bf
       -1.6784493 -1.5715288 -2.5205238 -1.3896893
000010 c1 8a f1 bf 1a e6 b3 bf 56 32 ff bf e3 77 a9 bf
       -1.8870469 -1.4054596 -1.9937236 -1.3239712
000020 37 65 c3 bf 25 40 c2 bf f5 7b 1d c0 1d 03 57 bf
       -1.5265263 -1.5175825 -2.4606907 -0.83989125
000030 c8 3e c5 bf 85 7f ac bf 8c 0e 00 c0 a4 72 68 bf
       -1.5409784 -1.3476416 -2.0008879 -0.9079993
000040 17 93 d0 bf 24 11 8b bf be a6 14 c0 0c 15 74 bf
       -1.6294888 -1.0864606 -2.3226771 -0.95344615
000050 79 d5 1c c0 0e bc 7a 3f b6 5a 30 c0 f3 9f b5 3f
       -2.4505293 0.979432 -2.7555366 1.4189438
000060 3e bb 57 c0 c5 42 1c 3f 7d 50 31 c0 5c 56 ed 3f
       -3.3708034 0.6103938 -2.7705376 1.854198
000070 ff e6 37 c0 f2 8f 74 3f 4a fb 2e c0 64 60 b5 3f
       -2.873474 0.95532143 -2.7340875 1.4170041
000080 26 84 37 c0 ff 88 85 3f 0d fe 26 c0 cf 8a c3 3f
       -2.8674407 1.0432433 -2.609256 1.5276736
000090 7a 62 30 c0 dd 8d ca 3f 06 98 2b c0 c8 33 e8 3f
       -2.7560105 1.5824543 -2.6811538 1.8140802
0000a0 35 a6 ef bf f1 14 49 c0 d6 2c 3d c0 35 73 3f c0
       -1.8722597 -3.1419032 -2.9558616 -2.9914067
0000b0 98 2e 23 c0 f5 12 4b c0 5d 9c 1b c0 49 87 28 c0
       -2.5497189 -3.173032 -2.4314187 -2.6332572
0000c0 62 b0 5e c0 7e bd 33 c0 81 1c 35 c0 36 c3 47 c0
       -3.4795156 -2.8084407 -2.8298647 -3.1212897
0000d0 e2 27 04 c0 a9 b1 4e c0 4d 49 00 c0 69 2c 51 c0
       -2.0649343 -3.2295935 -2.004474 -3.2683356
0000e0 d1 92 30 c0 69 4f 3b c0 1d a7 56 c0 10 7b 3a c0
       -2.758961 -2.9267218 -3.3539498 -2.9137611
0000f0 e6 f6 58 bf b4 69 c7 3f 33 f0 a4 bf c7 1d 14 40
       -0.8475174 1.5579133 -1.2885803 2.3143175
000100 b3 75 b5 bf a1 93 0f 40 f1 b6 91 bf 7d 1c f5 3f
       -1.4176544 2.2433856 -1.1383954 1.9149319
000110 c8 ea 93 bf 75 39 df 3f 8b 5f 7d bf 80 58 14 40
       -1.1556025 1.743941 -0.9897391 2.3179016
000120 96 f8 67 bf 97 14 c5 3f 18 61 a4 bf d5 eb 18 40
       -0.9061369 1.5396909 -1.2842131 2.389394
000130 cd 7e cb bf 64 4b 2d 40 94 77 5c bf 17 0f 03 40
       -1.5898072 2.7077265 -0.8611996 2.047796
000140 cb 9a 88 40 06 ec 12 40 ba ff 9d 40 d2 d3 c7 3f
       4.2688956 2.2956557 4.9374666 1.5611517
000150 ba 8d 91 40 6c 7a 88 3f ff 08 86 40 c2 a9 0b 40
       4.5485506 1.066236 4.188598 2.1822362
000160 a1 01 87 40 dd 3e c7 3f 02 ef 87 40 f4 39 b9 3f
       4.218949 1.5566059 4.2479258 1.4470811
000170 b7 9a 94 40 54 d7 16 40 d0 26 9f 40 f5 95 00 40
       4.643886 2.3568926 4.973488 2.0091527
000180 0a 6f 8e 40 21 1c fc 3f 78 41 86 40 02 f6 dd 3f
       4.4510546 1.9696084 4.195492 1.7340701
000190 12 ee 10 3f f7 81 00 40 9f e0 77 3f b6 72 83 3f
       0.56613266 2.0079324 0.9682712 1.0269382
0001a0 f9 b4 75 3f 24 4b e9 3f 92 88 25 3f a4 04 f9 3f
       0.9597927 1.8226056 0.64661515 1.9454541
0001b0 bf f3 78 3f 6c e2 b9 3f 2d 9c 58 3f 24 64 6d 3f
       0.9724693 1.4522223 0.84613305 0.9273093
0001c0 5f 39 4b 3f e6 8d 12 40 60 82 61 3f 23 13 85 3f
       0.79384416 2.2899108 0.8808956 1.0396465
0001d0 08 4e c0 3f 3d 3e d6 3f 6e e2 91 3f 46 0e d7 3f
       1.5023813 1.6737744 1.1397226 1.6801231
0001e0 b4 40 c5 3e 4b c2 80 40 01 1a 7c 3f 4d cb 69 40
       0.38525927 4.0237174 0.9847718 3.6530335
0001f0 4e 04 9b 3f a7 88 92 40 b9 da 03 40 7b 70 5c 40
       1.2110689 4.579181 2.0602248 3.4443653
000200 bc 03 53 3f 1b 0a 81 40 f9 c5 e5 3f 68 d1 8b 40
       0.82427573 4.0324836 1.7951041 4.3693123
000210 d4 00 81 3f 5e f4 6f 40 53 63 a7 3f ac 77 6e 40
       1.0078378 3.74929 1.3077186 3.7260542
000220 9c 01 88 3f 09 42 5f 40 fc d5 b7 3f 1f 9e 7c 40
       1.0625491 3.4884055 1.4362178 3.947151
000230 9d 13 17 be 78 d5 63 bf 2a c8 cd 3c 53 e5 54 bf
       -0.14753576 -0.889976 0.02511986 -0.8316242
000240 52 66 95 be 44 37 08 c0 56 a1 f4 be 47 52 20 c0
       -0.29179627 -2.1283731 -0.4777934 -2.5050218
000250 be e4 b9 be 25 df 2b c0 f8 14 26 3e 16 fb f6 bf
       -0.3630733 -2.6854947 0.16218936 -1.9295375
000260 ca 95 bb be 7c bc c5 bf 76 fa 90 3c e5 2e 11 c0
       -0.36637717 -1.5448146 0.017697554 -2.2684872
000270 37 9a 2d bf e6 be 20 c0 fd 8c 66 3e 0d 36 00 c0
       -0.6781344 -2.5116515 0.2251472 -2.003299
000280 1b d7 bb bf a2 22 10 be 0e e2 6b bf 2b cc 11 3e
       -1.467502 -0.14075711 -0.9214181 0.1423804
000290 ed 30 e0 bf b7 33 9c bd a6 41 aa bf 60 5f 37 bb
       -1.7514931 -0.07627051 -1.3301284 -0.0027980432
0002a0 1a eb fe bf a9 0b 48 be 26 37 d9 bf 56 ac 96 3d
       -1.9915497 -0.19535698 -1.6969955 0.07357089
0002b0 71 81 c4 bf 72 19 a1 3e a4 1e 9e bf 71 8b f3 3e
       -1.5352002 0.31464726 -1.2353101 0.47567323
0002c0 3b 2a c0 bf 9b e4 de 3d 21 82 a2 bf d1 f4 4d 3c
       -1.5012888 0.10883447 -1.2695962 0.012570576
0002d0 06 f3 78 40 90 2f 0a c0 f6 23 6a 40 dd a5 03 c0
       3.889833 -2.159153 3.658445 -2.0569985
0002e0 7a 05 5c 40 0e 21 d5 bf 16 77 3f 40 ed aa b8 bf
       3.4378343 -1.6650712 2.9916434 -1.4427162
0002f0 a6 64 83 40 5e e7 a8 bf b2 7f 5b 40 07 ad d7 bf
       4.106036 -1.3195608 3.429669 -1.6849679
000300 95 72 29 40 ac f4 04 c0 c6 80 61 40 19 63 32 bf
       2.6476185 -2.0774336 3.5234847 -0.6968246
000310 13 a8 5b 40 93 a8 f5 bf 4d 8f 37 40 37 f4 2b c0
       3.4321334 -1.919207 2.8681214 -2.6867807

_BaseModel__v_s f4 [100, 100, 2]
000000 4d f8 ed be 29 08 85 3f e0 48 b4 be 63 b3 61 3f
       -0.464785 1.0393115 -0.3521185 0.8816435
000010 db 94 19 bf 04 e0 49 3f aa 23 1e c1 24 8b 15 3f
       -0.5999276 0.78857446 -9.883707 0.58415437
000020 6a fb 82 c0 40 0a e9 bf 9b 13 99 bf c2 93 23 c0
       -4.09319 -1.8206253 -1.1959108 -2.5558934
000030 79 42 38 bf f2 c3 93 bf ef 3d a9 c0 f6 82 85 c0
       -0.7197643 -1.1544173 -5.2888103 -4.1722364
000040 1e c2 bb c0 ca 07 0d 3f 0c 4e 21 bf 6e f3 d1 bf
       -5.867446 0.5509001 -0.63009715 -1.6402414
000050 38 95 d6 c0 f8 71 80 3f de 32 e3 be f7 3c b1 3f
       -6.705715 1.003478 -0.44374746 1.384673
000060 92 aa d4 bf fa 7a bf be e8 8b d2 be 39 2d 57 3f
       -1.6614554 -0.3739851 -0.41122365 0.8405338
000070 22 6d c6 c0 89 b8 15 3f 85 b0 e3 bf bc ed 1f 3f
       -6.200822 0.58484703 -1.7788244 0.6247213
000080 50 c0 9a bf 31 66 a7 3f 37 64 02 c0 52 c3 10 3f
       -1.2089939 1.3078061 -2.0373666 0.56548035
000090 39 ea 93 c0 cf a7 8b 3f c4 53 cc be 98 3d 1a 3f
       -4.6223416 1.0910586 -0.39907658 0.60250235
0000a0 a9 fe 5b c0 ee 6c 6d c0 10 71 84 bf ab 10 79 be
       -3.4374182 -3.7097735 -1.0347004 -0.24322765
0000b0 9b 66 8d c0 a1 4f 41 bf 58 87 98 3b 8e 06 ff bf
       -4.418775 -0.7551213 0.004654806 -1.9923875
0000c0 92 f0 84 be 3c 23 5e c0 a9 33 d4 bf 3e 00 79 bf
       -0.2596479 -3.4709005 -1.6578265 -0.97265995
0000d0 15 a1 13 c0 b7 f9 84 c0 2c 0b 53 c0 9e bc 56 c0
       -2.3067067 -4.155483 -3.2975569 -3.3552623
0000e0 84 36 27 bf 6a 48 d6 bf 21 3c df be 6b c0 6e 3f
       -0.6531756 -1.6740849 -0.43600562 0.93262357
0000f0 78 aa 34 bf 86 8a 02 40 af 09 1a c0 70 16 53 3f
       -0.70572615 2.0397048 -2.406841 0.8245611
000100 ae 24 60 bf 54 47 67 40 5d 7e d7 be cd e5 fb 3f
       -0.8755597 3.6137285 -0.42088595 1.9679505
000110 88 cd bf be f5 58 b3 40 92 d4 74 bf c3 14 e0 3f
       -0.37461495 5.604609 -0.95636857 1.7506336
000120 ca ed 1a c0 87 df 8f 3f bf 05 52 bf 27 9e f5 3f
       -2.4207635 1.124009 -0.8204002 1.9188889
000130 e9 15 23 bf 8e 9f 9f 40 57 af d4 be b3 95 1e 40
       -0.6370531 4.988227 -0.41540024 2.477887
000140 64 95 52 bf 23 14 2a 40 1e 1f 65 3e ac c4 8e 3f
       -0.822592 2.657479 0.22375152 1.115377
000150 3c 4a 75 bf 54 fb a7 3f 34 43 93 40 73 0f e9 3e
       -0.958164 1.3123574 4.6019535 0.455196
000160 80 05 81 bf 15 0d 40 3f b8 ac 83 40 52 d1 75 3f
       -1.0079803 0.7501996 4.114834 0.9602252
000170 10 72 8c bf 30 20 2b 3f e8 bb 27 bf 57 02 d0 3f
       -1.0972309 0.6684599 -0.655211 1.6250714
000180 6c 4c b1 40 ee 9b b3 3f 7c 7e 81 40 88 1f 05 3f
       5.540579 1.4031961 4.04669 0.5200124
000190 64 a7 62 3f 37 63 13 3f c1 da 82 bf 6d 50 08 3f
       0.8853667 0.57573265 -1.0223008 0.5324772
0001a0 c9 d2 ac be 90 cf 04 40 62 8d 4d 3f ad 57 b6 3f
       -0.33754566 2.0751686 0.8029386 1.4245507
0001b0 82 0b 7d bf a4 d8 9b 3f 71 dc 1b 3e d3 1e 5d 3f
       -0.98845685 1.2175488 0.1522081 0.8637516
0001c0 98 46 4e 40 25 f5 32 3f 63 0e 41 bf 86 42 1d 3f
       3.2230587 0.6990531 -0.7541258 0.6142963
0001d0 30 8e 80 3e 2c c8 84 3f 6f 73 1a 3f cf 72 12 3f
       0.2510848 1.0373588 0.6033239 0.57206434
0001e0 3b 35 fd c0 f2 9d 95 40 f8 7f 26 bf 5f 08 1b 3f
       -7.912748 4.6755304 -0.65039015 0.6055965
0001f0 72 e2 d8 bf 6a d0 93 3f 3b 8c 09 be de 52 18 3f
       -1.6944106 1.1547978 -0.134324 0.59501445
000200 d4 df 16 bf 57 04 b8 40 d5 15 6d c0 75 ab ac 40
       -0.58935285 5.75053 -3.7044575 5.39593
000210 94 13 e5 bf b1 e5 8d 40 29 ca 25 bf c9 3e dc 40
       -1.78966 4.4342885 -0.64761597 6.882664
000220 3b 26 23 bf 85 29 8d 40 3e 7e 29 c0 f9 f2 1f 40
       -0.6373021 4.4113183 -2.6483302 2.4992049
000230 3d 2f 50 bf 70 39 34 3c c2 21 18 bf 9a c1 06 c0
       -0.8132208 0.011000022 -0.5942651 -2.1055665
000240 94 ae 8f bf 46 c6 8f 3d 7b 10 27 bf 00 be 3f c0
       -1.1225152 0.070202395 -0.6525952 -2.9959717
000250 25 13 8d bf 23 ae 0b c0 e2 7c 01 bf 3d 57 b5 bf
       -1.1021467 -2.1825035 -0.5058118 -1.4167248
000260 06 52 27 bf d2 4e 5c 3f 31 27 33 bf 38 2a 54 3f
       -0.6535953 0.8605777 -0.69981676 0.8287692
000270 bd b6 f8 be 85 69 72 bf 5d aa e3 be 9e 03 15 3f
       -0.48576918 -0.9469226 -0.44465914 0.58208644
000280 59 8a 30 3d 49 ba 20 40 2b 74 00 bf d9 c4 23 3f
       0.04310069 2.51137 -0.5017726 0.6397224
000290 14 86 2b bf 06 a4 2f 3f b9 ba 99 be c6 4e d2 3f
       -0.6700146 0.68609655 -0.3002527 1.643029
0002a0 89 70 c3 be 32 e8 94 3f f2 68 e2 be 65 cd ab 3f
       -0.38171795 1.163336 -0.44220692 1.3422056
0002b0 3c 17 20 bf d6 6c 17 3f ab 00 72 bf 0a 74 8a 3f
       -0.6253545 0.59150445 -0.9453227 1.0816662
0002c0 8b 28 97 bc d1 c1 90 3f 03 38 99 bf 3f 20 7e 3f
       -0.01845195 1.1309148 -1.1970218 0.99267954
0002d0 ac 45 82 40 1d b3 c5 bf 23 7c 70 be f8 08 39 3f
       4.071005 -1.5445286 -0.23484854 0.7227931
0002e0 00 46 8c 3f 54 ec 21 3f bf c3 9f 3f 65 82 44 3f
       1.0958862 0.63251233 1.2481612 0.76761466
0002f0 6b c0 3c bf d4 e5 2d 3f 57 19 64 bf 81 54 88 3e
       -0.73731107 0.67928815 -0.89101166 0.2662697
000300 5a b6 78 40 37 a9 c5 c0 75 1a a5 3f e5 ea 30 c0
       3.8861299 -6.176906 1.2898699 -2.7643368
000310 af 2d 9d 40 4b a2 05 c0 66 72 27 41 6c 81 86 c0
       4.9118266 -2.0880306 10.465429 -4.2032986
000320 bf cd 50 bf 53 0a 96 3f bd 4d 8b bf 3a 3d 5c 3f
       -0.81563944 1.1721901 -1.0883099 0.86030924
000330 c5 46 ad be 0d 6c 03 3f 7d 5c f2 c0 61 90 8a 3f
       -0.33843055 0.5133675 -7.57379 1.0825311
000340 f4 32 2d c1 8a 44 e2 bf 6f 8f 0e c0 21 33 03 c0
       -10.82494 -1.7677166 -2.2275045 -2.0499957
000350 50 4e 8c c0 a3 2d 19 c0 2b ff ad c0 60 07 f0 c0
       -4.3845596 -2.3934104 -5.4373984 -7.5009003
000360 b5 f6 08 c1 aa c8 20 3f 1f d1 38 be b8 9f 2f 3f
       -8.560231 0.6280619 -0.18048523 0.68603086
000370 a1 f6 a3 c0 11 0e 89 3f 96 94 a4 bf 71 ba 38 3f
       -5.123856 1.0707418 -1.2857845 0.72159487
000380 3f 5e 63 3e 87 17 a3 3f d2 a0 07 bf ed 25 a0 be
       0.22203921 1.2741555 -0.5297977 -0.31278935
000390 43 bb 9e c0 00 98 70 3f a6 ac 96 be fd 60 0a 3f
       -4.960359 0.93981934 -0.29428595 0.5405424
0003a0 62 5a 44 3d 11 0a 7f 3f b6 3f d5 bd 1b ed 65 3f
       0.04793776 0.99624735 -0.104125425 0.8981492
0003b0 68 3d 3e c0 4a 18 b8 3f 4b 62 8b be dc 08 4f 3f
       -2.972498 1.4382412 -0.2722343 0.80872893
0003c0 68 ea ac c0 30 86 cc c0 38 39 0d 3f a3 4b 10 c0
       -5.403614 -6.3913803 0.55165434 -2.2546165
0003d0 e4 6a 0d c0 8c ba eb bf 1c 91 b4 be 10 a9 e6 be
       -2.209649 -1.8416305 -0.3526696 -0.4505086
0003e0 11 5b e1 3e bb 00 8f bf 84 66 45 bf 0c 7a f1 bf
       0.4401479 -1.1172098 -0.7710955 -1.8865371
0003f0 09 ce 18 c0 d6 da 60 c0 ee 33 9f c0 06 ea 34 c0
       -2.3875754 -3.5133567 -4.975089 -2.8267837

_BaseModel__beta_s f4 [2]
000000 88 e5 54 40 6f a4 61 bf
       3.3265095 -0.8814153

_BaseModel__prior_b_sigma_s f4 [100]
000000 58 9e 82 c0 57 05 7a c0 29 f8 76 c0 32 17 7f c0
       -4.081829 -3.906576 -3.8588965 -3.9857907
000010 03 97 7e c0 90 d1 85 c0 b6 22 7c c0 1d cb 75 c0
       -3.977967 -4.1818314 -3.9396186 -3.840522
000020 a2 8c 62 c0 35 ff 4e c0 b5 ec 51 c0 c8 f6 6b c0
       -3.5398335 -3.2343266 -3.2800725 -3.6869373
000030 2a ac 60 c0 9e 9a 6a c0 3a 1d 74 c0 b8 35 81 c0
       -3.510508 -3.665687 -3.8142838 -4.0378075
000040 f3 6d 84 c0 67 6c 81 c0 23 26 88 c0 7e d0 86 c0
       -4.1384215 -4.0444827 -4.2546554 -4.2129507
000050 fa 65 85 c0 00 68 7c c0 74 64 67 c0 4c 41 5a c0
       -4.1686983 -3.9438477 -3.6155062 -3.4102354
000060 0b 1e 6d c0 ca 70 66 c0 0d 75 5a c0 15 77 41 c0
       -3.7049587 -3.600634 -3.4133942 -3.0228932
000070 9c 70 40 c0 49 dc 37 c0 28 55 6b c0 20 d1 94 c0
       -3.0068731 -2.8728201 -3.6770725 -4.650528
000080 43 0d 82 c0 93 97 79 c0 a5 e2 7c c0 8b 11 89 c0
       -4.064119 -3.8998764 -3.9513333 -4.2833915
000090 7f 07 88 c0 19 5e 6f c0 0a d5 4a c0 b3 4a df 40
       -4.250915 -3.7401183 -3.1692529 6.9778686
0000a0 b5 4a df 40 aa 27 49 c0 a6 86 5a c0 7c 36 69 c0
       6.9778695 -3.143046 -3.4144683 -3.6439505
0000b0 5c aa 88 c0 ee cd 88 c0 4f cd 87 c0 cf 9c 85 c0
       -4.270796 -4.275138 -4.243812 -4.1753917
0000c0 5b 13 85 c0 9d f8 8e c0 af c3 8e c0 7e 35 a2 c0
       -4.1586127 -4.4678483 -4.461387 -5.06903
0000d0 a5 64 c0 c0 37 30 c1 c0 15 a6 b6 c0 5b 2f ac c0
       -6.0122857 -6.0371356 -5.7077737 -5.3807807
0000e0 5c 4d a3 c0 c2 6f b3 c0 ad 75 b6 c0 a4 da a2 c0
       -5.1031933 -5.6073923 -5.7018647 -5.0891895
0000f0 be 66 92 c0 4b 7f 90 c0 65 41 94 c0 34 fc 86 c0
       -4.575042 -4.5155387 -4.6329827 -4.2182865
000100 6d 64 82 c0 23 72 72 c0 3e 87 6e c0 3d d9 72 c0
       -4.074759 -3.7882164 -3.7270045 -3.7945092
000110 ce 3a 7f c0 61 b0 79 c0 0c 52 49 c0 b2 09 3d c0
       -3.9879642 -3.9013903 -3.1456327 -2.9537168
000120 1f 79 61 c0 f4 8f 7d c0 df 93 97 c0 47 c6 9a c0
       -3.5230176 -3.9619112 -4.7368007 -4.836704
000130 74 5f 99 c0 58 29 92 c0 06 96 95 c0 e4 d6 a1 c0
       -4.792902 -4.567547 -4.6745634 -5.057482
000140 c3 79 9b c0 bf ea 8a c0 00 34 8c c0 d3 e5 95 c0
       -4.8586135 -4.3411555 -4.3813477 -4.6843047
000150 76 29 98 c0 6e c9 8d c0 80 d7 99 c0 41 25 93 c0
       -4.755061 -4.4308386 -4.807556 -4.5982976
000160 05 43 92 c0 7c 5a 8d c0 b9 4b 81 c0 ee 50 66 c0
       -4.570681 -4.4172955 -4.0404935 -3.5986896
000170 f4 ef 5e c0 ad 27 47 c0 a6 4a df 40 7e 99 36 c0
       -3.4833956 -3.1117966 6.9778624 -2.8531184
000180 f5 ca 25 c0 ca 4a df 40 de 4a df 40 e1 4a df 40
       -2.5905125 6.9778795 6.977889 6.9778905

_BaseModel__prior_c_sigma_s f4 [100]
000000 6c 40 e7 c0 8e 0d e8 c0 23 39 e0 c0 b8 fe cc c0
       -7.226614 -7.2516546 -7.0069747 -6.4060936
000010 d7 aa ec c0 6d cf e8 c0 22 1b fd c0 fd 53 dc c0
       -7.3958545 -7.2753205 -7.909562 -6.8852525
000020 6b 92 e2 c0 8d 64 d2 c0 2a 5b e5 c0 39 3f e9 c0
       -7.0803733 -6.5747743 -7.1673784 -7.2889676
000030 94 4a dd c0 72 2f e5 c0 db ad e8 c0 1d 4e e9 c0
       -6.915354 -7.1620417 -7.2712226 -7.2907853
000040 64 c1 ce c0 cb 00 dc c0 76 45 dc c0 38 3c f0 c0
       -6.4611073 -6.875097 -6.883479 -7.507351
000050 f9 4e dd c0 40 c6 c3 c0 aa 31 fd c0 c6 08 d1 c0
       -6.91589 -6.1179504 -7.9123125 -6.532321
000060 c1 13 cf c0 66 d0 f9 c0 8a 9c ef c0 3b 02 d8 c0
       -6.4711614 -7.8066893 -7.487859 -6.7502723
000070 a2 ed d5 c0 7e bf d5 c0 71 14 d7 c0 3c f6 d1 c0
       -6.685258 -6.6796255 -6.7212453 -6.561308
000080 9a e7 d9 c0 e7 87 e1 c0 28 7e e2 c0 c8 6e eb c0
       -6.8095217 -7.0478396 -7.0779 -7.357273
000090 dc be ca c0 a4 17 dc c0 f0 bb d0 c0 27 32 ee c0
       -6.3357983 -6.877886 -6.5229416 -7.443622
0000a0 ce 88 05 c1 9d f8 d7 c0 f9 b5 f9 c0 26 c5 fe c0
       -8.3459 -6.7490983 -7.8034635 -7.961566
0000b0 e7 b1 05 c1 7e 2b f5 c0 ea c9 0a c1 0e c7 03 c1
       -8.355933 -7.661559 -8.674295 -8.236097
0000c0 d1 88 f2 c0 94 54 02 c1 ef 3e de c0 77 1e f1 c0
       -7.579201 -8.145649 -6.9451823 -7.534969
0000d0 02 a0 e4 c0 bf 78 fd c0 c6 3e dd c0 1e ab fb c0
       -7.144532 -7.9209895 -6.913913 -7.8646383
0000e0 6f 90 fc c0 8e ed 0b c1 71 7c d8 c0 20 4d de c0
       -7.892631 -8.745497 -6.7651906 -6.9469147
0000f0 4a 2a f3 c0 fc 4d f7 c0 76 a8 f3 c0 b7 e6 ca c0
       -7.5989122 -7.7282696 -7.614314 -6.3406634
000100 5c f2 fb c0 9c a5 dd c0 c8 6d f3 c0 5f df e9 c0
       -7.873335 -6.926466 -7.607151 -7.308517
000110 bf 69 f1 c0 4c 7a e2 c0 ad 02 cb c0 bf d5 bf c0
       -7.5441585 -7.077429 -6.3440766 -5.994842
000120 e8 78 ee c0 df 4a d8 c0 37 4c e1 c0 a3 c3 be c0
       -7.452259 -6.7591395 -7.0405536 -5.9613814
000130 8a 7c c9 c0 f4 35 c0 c0 16 3b d5 c0 1b 3a e5 c0
       -6.2964525 -6.006586 -6.6634626 -7.163343
000140 1d 23 c6 c0 52 c2 e6 c0 47 49 e3 c0 93 eb c9 c0
       -6.1917863 -7.2112207 -7.102695 -6.3100066
000150 3e 91 d1 c0 bf d2 db c0 9e 18 d9 c0 a6 26 c8 c0
       -6.5489798 -6.869476 -6.784255 -6.254718
000160 8f bc de c0 15 8a c9 c0 37 39 02 c1 82 4f 0a c1
       -6.9605174 -6.2981057 -8.138968 -8.644411
000170 b0 8d 0a c1 59 e7 07 c1 82 85 11 c1 fe c0 18 c1
       -8.659592 -8.493981 -9.095095 -9.547117
000180 38 45 13 41 38 45 13 41 38 45 13 41 38 45 13 41
       9.204399 9.204399 9.204399 9.204399
