experiments/models_mr=0.1_cr=0.1_pr=0.1/residual_synthetic_n=100_seed=16_B=100_lambda=1e10_dim=2_epoch=300_spe=10_bs=100_lr=0.1_seed=10.model (torch, 83991 bytes, 5 tensors)

_BaseModel__x0_s f4 [100, 2]
000000 c7 c2 16 40 47 32 05 bf c8 70 03 40 d0 1e fb be
       2.3556383 -0.5202984 2.0537586 -0.49046946
000010 29 51 b7 3f 7f a7 13 bf 99 39 d4 3f d7 f6 5e bf
       1.4321643 -0.57677454 1.6580077 -0.870954
000020 89 bc 0b 40 7d d3 73 bf 83 ca ab 3f fe 74 0a bf
       2.1833823 -0.9524458 1.3421177 -0.54084766
000030 a9 8c 05 40 1c d9 bd be 70 5d b2 3f 76 61 1c bf
       2.0867102 -0.37079704 1.3934765 -0.61086214
000040 61 e9 ac 3f ad 20 85 be 82 90 fa 3f db 23 69 be
       1.3508722 -0.26001492 1.957535 -0.22767584
000050 f8 05 fd bf 2f 80 c3 3f 99 26 d4 bf 50 37 af 3f
       -1.9767447 1.5273494 -1.6574279 1.3688755
000060 47 2b 1b c0 c0 49 d1 3f 37 3b eb bf fc 46 8b 3f
       -2.4245164 1.6350632 -1.8377446 1.0881038
000070 30 4d 26 c0 99 f7 8c 3f eb b1 cc bf 7a 0c ad 3f
       -2.5984612 1.1013061 -1.5991796 1.3519433
000080 d4 fb c3 bf 73 23 b8 3f 9b 80 e9 bf 72 d2 b4 3f
       -1.5311227 1.4385818 -1.8242372 1.4126723
000090 f4 a6 0c c0 5e cc 7b 3f 7d 60 d8 bf ec 2c 9b 3f
       -2.19769 0.98358715 -1.6904446 1.2123084
0000a0 93 34 14 40 70 ab 23 c0 90 54 a3 3f 7e 24 42 c0
       2.3157089 -2.5573387 1.2760181 -3.0334773
0000b0 b6 b8 c5 3f 01 55 3c c0 0e 76 d8 3f 91 bb 25 c0
       1.5446994 -2.9426882 1.6911027 -2.5895731
0000c0 81 99 c6 3f 68 11 47 c0 8e a6 a5 3f 99 ce 4b c0
       1.5515596 -3.1104374 1.2941453 -3.1844847
0000d0 fe 3c 08 40 bd b9 54 c0 6a 90 fe 3f b9 9b 44 c0
       2.1287227 -3.3238366 1.9887822 -3.0720046
0000e0 66 6f cb 3f bf c1 2f c0 6a fd ae 3f 1f 4d 4f c0
       1.5893371 -2.7462003 1.3671086 -3.239082
0000f0 f2 fd 11 bf 0a 1c 27 40 38 e8 c4 be 6a e1 42 40
       -0.57028115 2.6110864 -0.3845842 3.0450082
000100 10 f4 a3 be 1b 91 25 40 d7 cf 48 be dc 0b 26 40
       -0.32022142 2.5869815 -0.19610535 2.5944738
000110 3e b7 d9 be bb f5 31 40 21 a6 8b bf ad 94 40 40
       -0.42522615 2.7806232 -1.0910074 3.0090744
000120 4b d4 f0 be 8a 7d 20 40 c9 c3 94 bf 5c b5 3c 40
       -0.47036967 2.5076623 -1.1622249 2.9485693
000130 21 3d 03 bf 93 d3 58 40 d0 28 b5 bf d8 4a 43 40
       -0.5126515 3.3879135 -1.415308 3.051443
000140 9f e2 8c c0 8e 3f 0a 40 ab 73 56 c0 30 ad 42 40
       -4.4026637 2.160129 -3.3508098 3.0418205
000150 fb c2 68 c0 79 b7 4a 40 9a bc 82 c0 8e 19 0c 40
       -3.6369007 3.1674483 -4.0855227 2.1890597
000160 48 6c 92 c0 b6 c4 1b 40 11 03 80 c0 1a 94 3d 40
       -4.575718 2.4338813 -4.0003743 2.9621644
000170 d4 89 80 c0 90 0c 07 40 22 c3 6d c0 07 de 1f 40
       -4.0168247 2.1101418 -3.715035 2.4979265
000180 3d ee 8b c0 f8 74 18 40 dd e8 89 c0 fd 99 26 40
       -4.372832 2.3821392 -4.3096757 2.6031487
000190 54 2a 4a bf 8a 6e 54 3e 33 7d f2 bf a9 fc 4b bf
       -0.7897084 0.20745292 -1.8944458 -0.79682404
0001a0 b8 0c 78 bf 3b 5e 5b be c3 5a 3f bf 9c 17 22 be
       -0.9689441 -0.21422665 -0.74747866 -0.15829319
0001b0 41 38 cb bf 6f 8f 37 bf 59 e8 01 c0 eb db 4c bf
       -1.5876542 -0.7170324 -2.0298064 -0.8002307
0001c0 9b b7 5b bf fc 7b 0b 3e 7d 7d ff bf cd b1 2c bf
       -0.85827035 0.13621515 -1.9960171 -0.674588
0001d0 a2 60 9c bf 01 e8 cd be 2e 8b a6 bf 8f 4c 06 be
       -1.221699 -0.40216067 -1.3011224 -0.13115142
0001e0 c8 8c 97 3f a1 d2 eb 3f 47 0b 89 3e fe 3f c1 3f
       1.1839838 1.8423654 0.26766416 1.5097654
0001f0 e7 96 10 3f e6 3f fb 3f b0 90 ca be 5f 9d 8e 3f
       0.5648026 1.9628875 -0.39563513 1.1141776
000200 99 a6 3e 3f 16 44 e1 3f 05 f0 d8 3e 50 13 01 40
       0.7447296 1.7598903 0.4237062 2.0168037
000210 1e dc 86 3e aa 95 e7 3f f7 95 10 3e be 69 b6 3f
       0.2633981 1.8092549 0.14119707 1.425102
000220 c6 b0 06 bd 39 14 bf 3f ce 1a 82 3e 35 10 c5 3f
       -0.032883428 1.4928046 0.25411075 1.5395571
000230 2e 16 b7 bd b4 b6 37 be 0d 85 b3 be d6 18 92 bd
       -0.08939777 -0.1794079 -0.35062447 -0.07133643
000240 ad 0c 2a 3e c0 45 93 bf 5c 17 54 ba b1 cd e9 bf
       0.16606398 -1.1505661 -0.0008090639 -1.8265897
000250 be 0f a1 be 58 25 f0 bf 94 aa 2e be 63 19 aa bf
       -0.31457323 -1.8761396 -0.17057258 -1.3288997
000260 55 ff 9c 3e 80 86 bf bf a1 04 ae bd b8 5c b7 bf
       0.30663553 -1.4962921 -0.08496977 -1.432517
000270 42 a7 80 bd 1c 9c fb bf 1e d0 a1 be 10 04 a1 bf
       -0.06281902 -1.9657016 -0.31604093 -1.2579365
000280 ae 55 a6 3f fd 2d 1d be f9 3d b8 3f 7a 6f 17 3f
       1.2994897 -0.15349574 1.4393913 0.59154475
000290 2e 76 b9 3f 9e e6 19 bf c8 78 a2 3f 9f 94 22 3e
       1.448919 -0.6011752 1.269311 0.15877007
0002a0 32 d3 ef 3f e1 b3 56 bd 12 cb a1 3f cb 82 af be
       1.8736327 -0.05241764 1.2640097 -0.34279475
0002b0 34 77 84 3f 28 bd 2a be a9 a1 01 3f 3c ab 2c 3f
       1.0348878 -0.1667372 0.506373 0.6744878
0002c0 fe fe 83 3f 00 6a cb be 61 e5 83 3f 76 86 23 3e
       1.0312192 -0.3972931 1.0304376 0.15969262
0002d0 fe eb 30 c0 ed 2c 43 c0 f9 2a 22 c0 1f 16 6f c0
       -2.7644038 -3.049617 -2.5338728 -3.7357252
0002e0 27 56 12 c0 c1 b1 66 c0 fe 04 00 c0 1f 58 2f c0
       -2.2865083 -3.6045992 -2.0003047 -2.7397535
0002f0 3f 03 1d c0 c5 2d 65 c0 51 83 14 c0 5e c0 42 c0
       -2.4533231 -3.5809186 -2.320515 -3.0429912
000300 15 87 33 c0 35 34 41 c0 5f f4 f7 bf 05 85 8b c0
       -2.8051198 -3.0188115 -1.9371451 -4.3599877
000310 99 9f 0f c0 44 f2 3d c0 62 2f 75 c0 9e 0e 43 c0
       -2.244116 -2.9679117 -3.831017 -3.0477672

_BaseModel__v_s f4 [100, 100, 2]
000000 28 64 3f c0 66 d1 2c c0 34 e8 b4 3f fb 2e 02 c1
       -2.990488 -2.7002807 1.4133363 -8.13647
000010 99 6e f4 40 d7 41 0f c1 90 9d 15 41 fc a9 87 3d
       7.6385007 -8.953574 9.350967 0.06624219
000020 db 62 c4 be 82 1d a6 c0 3d 9d 3c 41 8a b2 fe c0
       -0.3835667 -5.191102 11.788388 -7.9592943
000030 09 f1 b7 40 4d 6c c7 3f 42 f8 b2 40 28 f7 97 bd
       5.748173 1.5579926 5.592805 -0.07420188
000040 d7 02 1a 40 02 7f 84 c0 63 86 f7 c0 0e c0 ec c0
       2.4064233 -4.140504 -7.7351546 -7.398444
000050 b3 da a5 40 31 0e a6 40 32 a4 f3 bf 63 28 cd 40
       5.1829467 5.1892323 -1.9034483 6.41118
000060 75 11 9c c0 8c 9d 32 41 f1 28 99 c0 c6 1e 79 40
       -4.877131 11.163464 -4.7862477 3.8925033
000070 1d 39 7c 40 d3 d0 b4 40 55 a3 99 c0 82 f3 26 bf
       3.940986 5.650491 -4.801188 -0.65215313
000080 6f b4 cc c0 a2 a1 0a c0 59 ff 87 40 2e 33 0d 41
       -6.3970256 -2.1661153 4.2499204 8.824995
000090 f4 74 a3 40 5c 2f e5 40 23 d0 ff 3f b0 a7 5a bf
       5.1080265 7.162031 1.9985393 -0.8541212
0000a0 da fd ba 3e 11 d4 3c c1 0f 8f ad 40 a2 02 04 c0
       0.36521798 -11.801774 5.423713 -2.0626607
0000b0 db 43 a2 40 e2 25 17 c1 cd 16 1f c0 87 cd 02 bd
       5.070783 -9.446749 -2.4857666 -0.031934287
0000c0 2c f5 2e bf 44 d1 18 c1 1e 56 61 c0 7d 73 11 c1
       -0.6834285 -9.55109 -3.5208812 -9.090695
0000d0 ab 2f 90 c0 70 e2 a7 3f 8f 12 0a 41 29 60 e6 bf
       -4.505819 1.3115978 8.629531 -1.7998096
0000e0 7e 29 b3 bf 5f 90 02 c1 d0 b1 87 c0 5d 60 02 c1
       -1.3997037 -8.160247 -4.2404556 -8.148526
0000f0 f7 2a 33 c0 35 96 7c c0 03 52 df c0 c8 ea d3 40
       -2.7994974 -3.946668 -6.978761 6.62241
000100 7b 03 45 40 0b 21 2d 41 d2 1d a2 c0 f6 e4 08 c0
       3.0783374 10.820567 -5.06614 -2.1389747
000110 26 8b b6 c0 00 a1 8a 40 7f a2 f4 3f da fb 26 41
       -5.704486 4.3321533 1.911209 10.436487
000120 bc fa b9 c0 13 00 95 bf 63 9b 84 40 ff 1e 94 3f
       -5.811857 -1.1640648 4.143968 1.1571959
000130 65 b5 de 3f 30 04 02 41 70 92 4f c0 e7 bd 03 41
       1.7399107 8.126022 -3.2433128 8.233863
000140 36 46 3a c1 a9 12 e3 40 87 42 39 c1 a0 2a 41 be
       -11.642141 7.096028 -11.578742 -0.18863916
000150 3f 8c 46 c1 3d da 02 41 c4 5f 3b c1 9a 18 b2 40
       -12.40924 8.178281 -11.71088 5.565503
000160 bd e6 14 c1 d6 30 3f 41 9b 3a 47 3f 07 07 47 41
       -9.306333 11.949423 0.778238 12.439216
000170 f8 af ba c0 a9 1c f1 40 04 a1 2a 40 ea 0d 61 40
       -5.8339806 7.5347486 2.6660776 3.5164742
000180 45 da b2 40 58 75 95 c0 70 1d 1b c1 ff a2 b4 40
       5.589144 -4.670574 -9.694687 5.644897
000190 f4 72 89 c0 4e 98 83 c0 1a 68 36 40 be 3d 90 40
       -4.2952824 -4.112342 2.8501039 4.507537
0001a0 ac ed de c0 76 39 36 c0 35 39 86 40 da 0e 98 40
       -6.9665127 -2.8472571 4.1944833 4.751813
0001b0 8b eb dc c0 4c 8a 03 c0 74 78 da 3e 11 21 4f 40
       -6.903753 -2.055316 0.42670023 3.2363932
0001c0 18 18 30 c0 6c 15 00 41 a6 88 49 40 da d0 04 40
       -2.7514706 8.00523 3.1489654 2.0752473
0001d0 9f e7 80 c0 40 e8 1a 40 c0 72 e7 3e 3c 3b c0 be
       -4.028274 2.4204254 0.45204735 -0.37545192
0001e0 27 0b b2 40 d9 e5 7b 40 92 33 56 c1 6f bc 49 c0
       5.5638614 3.9359038 -13.38759 -3.152126
0001f0 46 16 34 41 a1 32 19 c0 f3 c3 1d 40 9b f2 e5 40
       11.255438 -2.3937151 2.4650848 7.185865
000200 27 ba 25 40 8c cd db 40 2f 03 f1 40 95 f5 2c 40
       2.5894868 6.868841 7.5316386 2.7024891
000210 d9 61 22 41 80 f9 62 c0 eb 27 db 40 af 63 e3 40
       10.148889 -3.5464783 6.848623 7.1059184
000220 f6 4e c9 3f 8f 8d 42 c0 ce 69 51 3e b9 7a 4b 40
       1.5727222 -3.03989 0.20450518 3.1793654
000230 94 4c b4 40 a0 e6 49 c0 61 39 9b 40 12 d6 18 c0
       5.634348 -3.1547012 4.8507543 -2.3880658
000240 68 6d d8 3f 93 ba 15 c1 7b 3b 47 3e 6e 88 9c 3f
       1.6908388 -9.35805 0.19456284 1.2229135
000250 10 4d 53 40 9c 88 8f c0 38 4d 5e bf 1d 37 38 40
       3.3015785 -4.485426 -0.86836576 2.8783638
000260 33 73 78 bf 95 a5 d5 3f 56 ea 91 c0 ea fc a1 c0
       -0.9705078 1.6691157 -4.5598555 -5.0621233
000270 81 d1 d6 40 6e c8 a9 bf f0 17 12 40 80 51 b8 c0
       6.713074 -1.3264291 2.282711 -5.7599487
000280 7b 27 02 3f 7e 30 66 40 28 dd 56 c0 8d ab a2 40
       0.5084149 3.5967097 -3.3572483 5.0834413
000290 a6 99 a0 c0 85 7b 8e 40 fb c5 c8 3f ca 03 9a c0
       -5.018756 4.452578 1.5685419 -4.8129625
0002a0 93 09 be c0 fe ac d2 c0 0d 57 d1 c0 5d 13 fb 40
       -5.9386687 -6.583617 -6.5418763 7.8461137
0002b0 d6 3e 9a c0 0a e3 65 40 5c a1 6f 40 13 35 3d c0
       -4.8201704 3.5919824 3.7442236 -2.9563644
0002c0 18 77 c2 c0 1f e1 20 41 f1 31 67 40 51 51 a6 c0
       -6.077038 10.054961 3.6124232 -5.1974263
0002d0 a3 a0 4e c1 35 5e 14 c1 a6 9c 6f c0 2c 39 1d c0
       -12.914218 -9.273 -3.743936 -2.4566145
0002e0 1e c8 cd 3f 21 64 40 c1 1c 5d 50 40 0d eb 45 c1
       1.6076696 -12.024446 3.255683 -12.369885
0002f0 ae be 65 40 34 72 d0 3d 5b 70 be c0 93 0d a1 c0
       3.5897632 0.101780325 -5.9512153 -5.032907
000300 75 9e 44 c1 5b ab 99 c0 19 ca 41 c1 fb fa 44 c0
       -12.288686 -4.8021674 -12.11184 -3.0778186
000310 6b 27 ec c0 45 71 0f c1 32 93 2c 40 c6 38 15 c0
       -7.379812 -8.965154 2.696484 -2.3315902
000320 b1 c8 b1 c0 12 f1 ae bf f9 43 39 40 f6 6d 2f c1
       -5.5557485 -1.3667319 2.8947737 -10.964346
000330 3d 95 a3 40 ad 10 ee c0 bf 64 28 41 ba 0e 47 c0
       5.1119676 -7.4395356 10.524596 -3.1102738
000340 a3 52 4d 41 3b a8 9a c0 5f 8b 23 41 91 b4 04 c1
       12.832675 -4.833036 10.221526 -8.294084
000350 0d 07 11 41 cf 1b c2 bf c6 cd 22 41 a4 85 e6 c0
       9.064221 -1.5164737 10.175238 -7.2038136
000360 d9 d0 10 41 78 d8 4b c0 3d 58 09 bd 2f e9 a9 c0
       9.050988 -3.1850872 -0.033531416 -5.309715
000370 c7 b4 b2 40 27 ea ae bf 4d 4b df 3d e2 49 30 bf
       5.5845675 -1.3665208 0.10903034 -0.68862736
000380 27 7c 5f c0 6c 3e 0f 41 6a aa 85 c0 55 ed a3 3f
       -3.4919527 8.95274 -4.1770525 1.2806803
000390 d8 48 9d 40 01 e0 dc 40 c6 b8 18 c0 b1 e4 d1 be
       4.915142 6.902344 -2.3862777 -0.4099479
0003a0 50 7c 48 c0 bd 6c 16 c0 0b c4 7f 40 65 92 e0 40
       -3.1325874 -2.3503869 3.9963405 7.0178704
0003b0 d5 34 c0 40 cb ca a4 40 fc 61 1a 40 f7 3f 7b 3f
       6.006449 5.149755 2.4122305 0.9814448
0003c0 b1 76 34 3f 8e 34 4b c1 5d 3d 8e 40 d4 3c be bf
       0.7049361 -12.700331 4.4449906 -1.4862313
0003d0 ed 0d ba be fd 9d f9 c0 41 c4 96 3f f9 f7 fb be
       -0.3633875 -7.8005357 1.1778642 -0.49212626
0003e0 a9 1a 9a be f0 fc 12 c1 65 56 6b 3f fe f0 bc c0
       -0.30098465 -9.186752 0.919287 -5.904418
0003f0 45 1f 76 bf ff c3 ab 3f 8a ee 07 41 5e 79 85 bd
       -0.96141464 1.3419188 8.495737 -0.065172896

_BaseModel__beta_s f4 [2]
000000 53 d1 49 40 4f a6 e3 bf
       3.1534011 -1.7785128

_BaseModel__prior_b_sigma_s f4 [100]
000000 8d 0f 82 bf 8c 0f 82 bf fb fc 81 bf 8e 0f 82 bf
       -1.0160996 -1.0160995 -1.0155329 -1.0160997
000010 fb fc 81 bf fc fc 81 bf c6 e9 81 bf fd fc 81 bf
       -1.0155329 -1.015533 -1.0149467 -1.0155331
000020 c7 e9 81 bf ff fc 81 bf fe fc 81 bf fe fc 81 bf
       -1.0149468 -1.0155333 -1.0155332 -1.0155332
000030 c8 e9 81 bf c8 e9 81 bf fc fc 81 bf 8e 0f 82 bf
       -1.0149469 -1.0149469 -1.015533 -1.0160997
000040 8d 0f 82 bf 8e 0f 82 bf 8e 0f 82 bf 8f 0f 82 bf
       -1.0160996 -1.0160997 -1.0160997 -1.0160998
000050 fc fc 81 bf 8c 0f 82 bf fc fc 81 bf fe fc 81 bf
       -1.015533 -1.0160995 -1.015533 -1.0155332
000060 ff fc 81 bf fe fc 81 bf a8 e9 81 bf a6 e9 81 bf
       -1.0155333 -1.0155332 -1.0149431 -1.0149429
000070 a9 e9 81 bf aa e9 81 bf ad e9 81 bf 8e 0f 82 bf
       -1.0149432 -1.0149434 -1.0149437 -1.0160997
000080 c7 e9 81 bf c8 e9 81 bf c7 e9 81 bf c8 e9 81 bf
       -1.0149468 -1.0149469 -1.0149468 -1.0149469
000090 a4 e9 81 bf a5 e9 81 bf a6 e9 81 bf aa e9 81 bf
       -1.0149426 -1.0149428 -1.0149429 -1.0149434
0000a0 aa e9 81 bf a7 e9 81 bf a5 e9 81 bf a7 e9 81 bf
       -1.0149434 -1.014943 -1.0149428 -1.014943
0000b0 c8 e9 81 bf a8 e9 81 bf ac e9 81 bf fa fc 81 bf
       -1.0149469 -1.0149431 -1.0149436 -1.0155327
0000c0 ff fc 81 bf c9 e9 81 bf a9 e9 81 bf fd fc 81 bf
       -1.0155333 -1.014947 -1.0149432 -1.0155331
0000d0 8b 0f 82 bf 8b 0f 82 bf fc fc 81 bf fe fc 81 bf
       -1.0160993 -1.0160993 -1.015533 -1.0155332
0000e0 fe fc 81 bf a8 e9 81 bf fe fc 81 bf aa e9 81 bf
       -1.0155332 -1.0149431 -1.0155332 -1.0149434
0000f0 aa e9 81 bf aa e9 81 bf c9 e9 81 bf fe fc 81 bf
       -1.0149434 -1.0149434 -1.014947 -1.0155332
000100 ab e9 81 bf a6 e9 81 bf a6 e9 81 bf cc e9 81 bf
       -1.0149435 -1.0149429 -1.0149429 -1.0149474
000110 3b d6 81 bf 3a d6 81 bf aa e9 81 bf 1e d6 81 bf
       -1.0143503 -1.0143502 -1.0149434 -1.0143468
000120 a9 e9 81 bf ac e9 81 bf aa e9 81 bf ac e9 81 bf
       -1.0149432 -1.0149436 -1.0149434 -1.0149436
000130 ab e9 81 bf aa e9 81 bf a7 e9 81 bf cb e9 81 bf
       -1.0149435 -1.0149434 -1.014943 -1.0149473
000140 a8 e9 81 bf a7 e9 81 bf 1a d6 81 bf ab e9 81 bf
       -1.0149431 -1.014943 -1.0143464 -1.0149435
000150 a9 e9 81 bf 38 d6 81 bf a9 e9 81 bf a9 e9 81 bf
       -1.0149432 -1.0143499 -1.0149432 -1.0149432
000160 38 d6 81 bf ab e9 81 bf 3b d6 81 bf ac e9 81 bf
       -1.0143499 -1.0149435 -1.0143503 -1.0149436
000170 ab e9 81 bf ac e9 81 bf 1d d6 81 bf b0 e9 81 bf
       -1.0149435 -1.0149436 -1.0143467 -1.0149441
000180 ae e9 81 bf b0 e9 81 bf ee a9 bf 40 f2 d5 81 bf
       -1.0149438 -1.0149441 5.9894934 -1.0143416

_BaseModel__prior_c_sigma_s f4 [100]
000000 aa d6 29 c1 a9 d6 29 c1 aa d6 29 c1 aa d6 29 c1
       -10.614908 -10.614907 -10.614908 -10.614908
000010 aa d6 29 c1 a9 d6 29 c1 a9 d6 29 c1 a9 d6 29 c1
       -10.614908 -10.614907 -10.614907 -10.614907
000020 aa d6 29 c1 a9 d6 29 c1 a9 d6 29 c1 a9 d6 29 c1
       -10.614908 -10.614907 -10.614907 -10.614907
000030 a9 d6 29 c1 a9 d6 29 c1 aa d6 29 c1 aa d6 29 c1
       -10.614907 -10.614907 -10.614908 -10.614908
000040 a9 d6 29 c1 a9 d6 29 c1 a9 d6 29 c1 a9 d6 29 c1
       -10.614907 -10.614907 -10.614907 -10.614907
000050 aa d6 29 c1 a9 d6 29 c1 aa d6 29 c1 a9 d6 29 c1
       -10.614908 -10.614907 -10.614908 -10.614907
000060 aa d6 29 c1 aa d6 29 c1 a9 d6 29 c1 a9 d6 29 c1
       -10.614908 -10.614908 -10.614907 -10.614907
000070 a9 d6 29 c1 a9 d6 29 c1 aa d6 29 c1 aa d6 29 c1
       -10.614907 -10.614907 -10.614908 -10.614908
000080 aa d6 29 c1 aa d6 29 c1 aa d6 29 c1 aa d6 29 c1
       -10.614908 -10.614908 -10.614908 -10.614908
000090 aa d6 29 c1 aa d6 29 c1 a9 d6 29 c1 aa d6 29 c1
       -10.614908 -10.614908 -10.614907 -10.614908
0000a0 a9 d6 29 c1 a9 d6 29 c1 a9 d6 29 c1 a8 d6 29 c1
       -10.614907 -10.614907 -10.614907 -10.614906
0000b0 a9 d6 29 c1 a9 d6 29 c1 aa d6 29 c1 aa d6 29 c1
       -10.614907 -10.614907 -10.614908 -10.614908
0000c0 a8 d6 29 c1 a9 d6 29 c1 aa d6 29 c1 a9 d6 29 c1
       -10.614906 -10.614907 -10.614908 -10.614907
0000d0 a9 d6 29 c1 a9 d6 29 c1 aa d6 29 c1 aa d6 29 c1
       -10.614907 -10.614907 -10.614908 -10.614908
0000e0 a9 d6 29 c1 aa d6 29 c1 a9 d6 29 c1 aa d6 29 c1
       -10.614907 -10.614908 -10.614907 -10.614908
0000f0 aa d6 29 c1 aa d6 29 c1 aa d6 29 c1 a9 d6 29 c1
       -10.614908 -10.614908 -10.614908 -10.614907
000100 aa d6 29 c1 a9 d6 29 c1 aa d6 29 c1 a9 d6 29 c1
       -10.614908 -10.614907 -10.614908 -10.614907
000110 aa d6 29 c1 a9 d6 29 c1 a9 d6 29 c1 a9 d6 29 c1
       -10.614908 -10.614907 -10.614907 -10.614907
000120 aa d6 29 c1 a9 d6 29 c1 aa d6 29 c1 a9 d6 29 c1
       -10.614908 -10.614907 -10.614908 -10.614907
000130 a9 d6 29 c1 aa d6 29 c1 aa d6 29 c1 a9 d6 29 c1
       -10.614907 -10.614908 -10.614908 -10.614907
000140 aa d6 29 c1 aa d6 29 c1 a9 d6 29 c1 a9 d6 29 c1
       -10.614908 -10.614908 -10.614907 -10.614907
000150 a9 d6 29 c1 aa d6 29 c1 aa d6 29 c1 aa d6 29 c1
       -10.614907 -10.614908 -10.614908 -10.614908
000160 aa d6 29 c1 a9 d6 29 c1 a9 d6 29 c1 a9 d6 29 c1
       -10.614908 -10.614907 -10.614907 -10.614907
000170 a9 d6 29 c1 a9 d6 29 c1 a9 d6 29 c1 a9 d6 29 c1
       -10.614907 -10.614907 -10.614907 -10.614907
000180 c2 6f 4a 41 c2 6f 4a 41 c2 6f 4a 41 c2 6f 4a 41
       12.652285 12.652285 12.652285 12.652285
