experiments/models_mr=0.1_cr=0.1_pr=0.1/residual_synthetic_n=100_seed=16_B=100_lambda=1e1_dim=2_epoch=300_spe=10_bs=100_lr=0.1_seed=30.model (torch, 84927 bytes, 5 tensors)

_BaseModel__x0_s f4 [100, 2]
-0.92592454 0.6875487 -1.0329671 0.64375174 -1.064124 0.65330875 -1.0262514 0.68976206
-1.0833303 0.61861503 -1.1078362 0.69386405 -1.0845535 0.5589022 -1.0643636 0.5849517
-1.0658332 0.5604569 -1.121046 0.50530463 -0.6913468 -1.5917157 -0.3963055 -1.797372
-0.30460936 -1.8859606 -0.43938002 -1.7267046 -0.27397773 -1.9660143 -0.6655901 -1.6288103
-0.44936547 -1.7662389 -0.60475385 -1.7269503 -0.45440996 -1.7444514 -0.5921512 -1.7043939
-1.2578499 2.20224 -1.1498294 2.1181915 -1.1526277 2.2945962 -1.2175462 2.0829146
-1.2280107 2.4825044 -1.238338 2.518443 -1.1934843 2.399269 -1.0672858 2.3431532
-1.3364953 2.3245802 -1.2785461 2.3467197 1.1413639 -0.9358916 1.4286602 -1.1603292
1.391525 -1.3129282 1.239032 -1.3829559 1.3338076 -1.2312669 1.1972362 -1.3450843
1.3122195 -0.8811387 1.3043749 -1.3770245 1.4498897 -1.2195919 1.2155961 -1.3676475
-3.7130346 -1.7003562 -4.0590124 -1.3830627 -3.9522257 -2.0561993 -3.779543 -1.5043151
-4.029876 -1.9241146 -4.083434 -1.8362659 -3.5188425 -1.6536782 -3.6939883 -1.4631928
-4.100859 -1.9871541 -3.981034 -1.9112947 1.8405284 0.43821305 1.8498869 0.35579446
1.8626938 0.49754068 1.8110445 0.40564764 1.8238657 0.38637125 1.824496 0.3802239
2.091237 0.31695467 1.9299346 0.21308586 1.8871245 0.6186412 1.8730164 0.5326686
4.2067027 0.41875044 3.8329263 0.74425334 4.18611 0.7136294 3.6661468 1.1929162
4.194205 0.67907053 4.175037 1.1372956 3.8846667 0.77236426 4.086639 0.9828646
3.7913375 0.76503325 3.8831773 0.8754307 0.29231316 1.4617758 0.31551772 1.429289
0.27470788 2.0718536 0.1431485 1.761873 0.23375265 2.1107275 0.2278299 2.0325973
0.19198151 1.6688201 0.18193533 1.8262902 0.20282808 1.8722957 0.2628766 1.8200009
0.121907115 -0.20889343 0.2247706 -0.2472496 0.11768348 -0.19752459 0.17101985 -0.2583128
0.06945659 0.016409552 0.12705474 -0.22223543 0.18334067 -0.16053095 0.17301099 -0.3785574
0.109793015 -0.26090205 0.16228576 -0.25893727 0.53110856 -5.3257184 0.20084791 -5.1693254
0.012285216 -5.053853 -0.1668542 -5.265236 -0.20963845 -5.436543 -0.0022167242 -5.202156
0.105439976 -5.300424 -0.58715236 -5.195401 0.62589073 -5.1088333 0.3107123 -5.228974
00000000: 6409 6dbf 3103 303f 4438 84bf eacc 243f
00000010: 3735 88bf 3e3f 273f 355c 83bf 3f94 303f
00000020: 91aa 8abf 8e5d 1e3f 94cd 8dbf 13a1 313f
00000030: a6d2 8abf 3714 0f3f 113d 88bf 65bf 153f
00000040: 396d 88bf 1a7a 0f3f 6f7e 8fbf a55b 013f
00000050: 1bfc 30bf 57bd cbbf 8ee8 cabe 4910 e6bf
00000060: c2f5 9bbe 2867 f1bf 6bf6 e0be a804 ddbf
00000070: cf46 8cbe 5ba6 fbbf 1d64 2abf db7c d0bf
00000080: 3b13 e6be 1e14 e2bf 26d1 1abf b50c ddbf
00000090: 6ca8 e8be 2f4a dfbf 3997 17bf 9429 dabf
000000a0: 3a01 a1bf 80f1 0c40 9c2d 93bf 7390 0740
000000b0: 4e89 93bf aada 1240 8ed8 9bbf 794e 0540
000000c0: 742f 9dbf 5ae1 1e40 dc81 9ebf 2c2e 2140
000000d0: 18c4 98bf a08d 1940 d29c 88bf 39f6 1540
000000e0: 4712 abbf ecc5 1440 66a7 a3bf a830 1640
000000f0: 3618 923f 9896 6fbf 56de b63f ab85 94bf
00000100: 7e1d b23f 080e a8bf 9a98 9e3f b304 b1bf
00000110: 35ba aa3f 279a 9dbf 093f 993f b92b acbf
00000120: cff6 a73f 4e92 61bf c2f5 a63f 5742 b0bf
00000130: fc95 b93f 961b 9cbf a798 9b3f 130f afbf
00000140: 5ca2 6dc0 46a5 d9bf 6ee3 81c0 3308 b1bf
00000150: 44f1 7cc0 c598 03c0 08e4 71c0 668d c0bf
00000160: bff4 80c0 6349 f6bf 7eab 82c0 c30a ebbf
00000170: b734 61c0 baab d3bf 4e6a 6cc0 e749 bbbf
00000180: 3d3a 83c0 115b febf 43c9 7ec0 4ea5 f4bf
00000190: 6f96 eb3f 765d e03e 18c9 ec3f b12a b63e
000001a0: c06c ee3f a7bd fe3e 4ed0 e73f 0cb1 cf3e
000001b0: 6e74 e93f 74d2 c53e 1689 e93f b5ac c23e
000001c0: d4d6 0540 e247 a23e 1908 f73f 2e33 5a3e
000001d0: 4c8d f13f 455f 1e3f 00bf ef3f f85c 083f
000001e0: 4f9d 8640 7566 d63e aa4e 7540 6387 3e3f
000001f0: 9df4 8540 6bb0 363f 26a2 6a40 7ab1 983f
00000200: ed36 8640 91d7 2d3f e799 8540 e792 913f
00000210: 619e 7840 aab9 453f bfc5 8240 049d 7b3f
00000220: 46a5 7240 38d9 433f fa85 7840 3a1c 603f
00000230: 12aa 953e 781b bb3f 8a8b a13e f1f2 b63f
00000240: 83a6 8c3e 4099 0440 8595 123e 0e85 e13f
00000250: db5c 6f3e 2916 0740 3e4c 693e 1316 0240
00000260: cd96 443e e69b d53f 414d 3a3e e1c3 e93f
00000270: 2ab2 4f3e 63a7 ef3f c397 863e caf5 e83f
00000280: 70aa f93d 29e8 55be 442a 663e 002f 7dbe
00000290: 0904 f13d e343 4abe d41f 2f3e 9341 84be
000002a0: 423f 8e3d 536d 863c a31a 023e af91 63be
000002b0: a8bd 3b3e 3a62 24be cb29 313e 47d2 c1be
000002c0: 29db e03d f494 85be 3d2e 263e 6d93 84be
000002d0: bbf6 073f 496c aac0 13ab 4d3e 1d6b a5c0
000002e0: ee47 493c 2ab9 a1c0 d4db 2abe d07c a8c0
000002f0: 76ab 56be 29f8 adc0 7646 11bb 1078 a6c0
00000300: eaf0 d73d 139d a9c0 9e4f 16bf ba40 a6c0
00000310: 603a 203f 907b a3c0 af15 9f3e c153 a7c0

_BaseModel__v_s f4 [100, 100, 2]
0.0080361795 -0.17286797 0.0044334605 -0.17041159 0.005290117 -0.17129326 0.010651776 -0.16877308
0.0030709885 -0.20237166 0.010032207 -0.16586879 -0.0030665975 -0.17383082 0.0063114073 -0.16976972
0.0064933407 -0.16878413 0.0038501369 -0.16828443 0.0052020643 -0.17255396 0.005987514 -0.17153919
0.010641738 -0.16906275 0.0003397025 -0.16832854 0.005174616 -0.16700764 0.007585765 -0.17141019
0.0056944103 -0.16838858 0.0056544547 -0.17185117 0.00584179 -0.17095976 0.0062703146 -0.17124219
0.006718167 -0.17153537 0.011589306 -0.17089969 0.006760925 -0.17143565 0.0048004165 -0.17297232
0.0018596684 -0.17404246 0.0025916179 -0.1742852 0.0035126843 -0.17187683 0.003483709 -0.17117223
0.00864537 -0.168471 0.00843348 -0.17007385 0.0055279126 -0.17103866 0.0071777906 -0.170979
0.003884443 -0.16993997 -0.0002877582 -0.17398301 0.010057561 -0.16322191 0.006600145 -0.1706593
0.0015142174 -0.17712347 0.0027886347 -0.16989574 0.004041361 -0.16936766 0.0051520322 -0.17134687
0.00468696 -0.16933486 0.005424425 -0.17122172 0.009890106 -0.17026493 0.0036496876 -0.17559901
0.0012450302 -0.16955662 0.0060650352 -0.17272736 0.009581661 -0.17162809 -0.0007958007 -0.17435303
0.009689892 -0.16447693 0.0048093046 -0.1688152 0.009127254 -0.17115566 0.0018589902 -0.16997215
0.0053244024 -0.17149232 0.0004206837 -0.16987413 0.0073818187 -0.16857113 0.0062736375 -0.17246494
-0.0005913386 -0.17083605 0.00930052 -0.1657573 0.011592185 -0.17225154 0.0077810152 -0.1661836
0.006570963 -0.16984823 0.006600768 -0.1701418 -0.003029386 -0.1706494 0.009545694 -0.17285997
0.015093479 -0.1667272 0.011052878 -0.16978914 0.0012290236 -0.17055823 0.0038133517 -0.17215541
0.004092656 -0.16543439 0.001442187 -0.17050873 0.007390123 -0.16663471 0.012850272 -0.17528391
0.0052365847 -0.17387132 0.004660717 -0.16629677 0.007641907 -0.1693434 -0.000710275 -0.16894731
0.010443637 -0.17018005 0.0059779803 -0.17232077 -0.0006278618 -0.18017367 0.0043785386 -0.17103826
0.010108364 -0.17115279 0.0015373565 -0.17178266 0.00060886785 -0.16905543 0.010068202 -0.17943686
0.0021930523 -0.16992824 0.010089295 -0.16884679 0.0058385176 -0.17136414 0.0037261446 -0.1785346
0.0062342864 -0.16658327 0.0073676878 -0.17286426 0.0070896875 -0.1719792 0.0085275145 -0.17163675
0.0042365426 -0.16603397 0.013734469 -0.1713382 0.010158237 -0.1692946 0.0073020593 -0.16680147
0.0061276667 -0.1705345 0.0076463595 -0.1724269 0.0003472208 -0.1781781 0.0057124277 -0.17075953
-0.14487414 0.20688719 -0.14787777 0.21211684 -0.14324345 0.20850791 -0.1438015 0.20622401
-0.121316195 0.25695246 -0.140452 0.21043675 -0.14914641 0.20575021 -0.15382496 0.21343988
-0.14846668 0.20884378 -0.14895043 0.21595566 -0.142193 0.21310155 -0.14533043 0.20996352
-0.1508094 0.21973917 -0.14901465 0.21231124 -0.14355844 0.20905037 -0.14510019 0.21301787
-0.14470708 0.2095407 -0.13240562 0.20162518 -0.14650184 0.20977841 -0.14496946 0.21533532
-0.14567335 0.21316466 -0.14948827 0.21716356 -0.14475664 0.2120488 -0.14401056 0.21158776
-0.1383977 0.21121421 -0.13846569 0.21316835 -0.14501855 0.20926249 -0.1396491 0.21514082
00000000: 2eaa 033c 4d04 31be 9046 913b 6080 2ebe
00000010: b858 ad3b 8067 2fbe c984 2e3c dad2 2cbe
00000020: a342 493b 843a 4fbe 205e 243c 82d9 29be
00000030: f8f8 48bb b500 32be eccf ce3b 1dd8 2dbe
00000040: 17c6 d43b bfd5 2cbe 9452 7c3b c152 2cbe
00000050: 1476 aa3b fcb1 30be e832 c43b f8a7 2fbe
00000060: af5a 2e3c c91e 2dbe 191a b239 515e 2cbe
00000070: d38f a93b 0d04 2bbe 0292 f83b 2786 2fbe
00000080: 2d98 ba3b 0e6e 2cbe 0149 b93b c1f9 2fbe
00000090: 7d6c bf3b 1310 2fbe 3677 cd3b 1d5a 2fbe
000000a0: 1224 dc3b f8a6 2fbe 13e1 3d3c 5400 2fbe
000000b0: c08a dd3b d48c 2fbe d04c 9d3b a81f 31be
000000c0: 1ec0 f33a 3038 32be 22d8 293b d277 32be
000000d0: 1035 663b 7b00 30be f04e 643b c647 2fbe
000000e0: 4fa5 0d3c a983 2cbe 942c 0a3c d727 2ebe
000000f0: 7e23 b53b c224 2fbe ac33 eb3b 1e15 2fbe
00000100: 2492 7e3b be04 2ebe 40de 96b9 9a28 32be
00000110: 78c8 243c a523 27be 0746 d83b 50c1 2ebe
00000120: b478 c63a db5f 35be 87c1 363b 26f9 2dbe
00000130: 656d 843b b76e 2dbe 61d2 a83b 8e75 2fbe
00000140: 1295 993b 1e66 2dbe 60bf b13b bf54 2fbe
00000150: 1c0a 223c ee59 2ebe 992f 6f3b 3ad0 33be
00000160: 4830 a33a 40a0 2dbe 34bd c63b 71df 30be
00000170: 66fc 1c3c 46bf 2fbe 489d 50ba 9a89 32be
00000180: 5ac2 1e3c a46c 28be 5f97 9d3b e4dd 2cbe
00000190: 7a8a 153c 6e43 2fbe 5ca9 f33a 2e0d 2ebe
000001a0: 5378 ae3b af9b 2fbe 368f dc39 7cf3 2dbe
000001b0: 2fe3 f13b e99d 2cbe 1693 cd3b a69a 30be
000001c0: 1004 1bba a5ef 2ebe 3561 183c 48bc 29be
000001d0: 26ed 3d3c b562 30be e3f7 fe3b 092c 2abe
000001e0: 3c51 d73b b2ec 2dbe 414b d83b a739 2ebe
000001f0: aa88 46bb b7be 2ebe 8b65 1c3c 3402 31be
00000200: a44a 773c 89ba 2abe 2117 353c 34dd 2dbe
00000210: 3017 a13a d1a6 2ebe 6de9 793b 8249 30be
00000220: b01b 863b a267 29be c407 bd3a d799 2ebe
00000230: d828 f23b 4aa2 2abe f289 523c a07d 33be
00000240: a897 ab3b 530b 32be eeb8 983b b349 2abe
00000250: f668 fa3b 5b68 2dbe c031 3aba 8600 2dbe
00000260: ca1b 2b3c ae43 2ebe efe2 c33b db74 30be
00000270: 1897 24ba 727f 38be d879 8f3b a724 2fbe
00000280: 8d9d 253c ad42 2fbe 2081 c93a cbe7 2fbe
00000290: 6e9c 1f3a de1c 2dbe 1af5 243c 4cbe 37be
000002a0: 50b9 0f3b ab01 2ebe 924d 253c 2ce6 2cbe
000002b0: 0951 bf3b 157a 2fbe 5532 743b c6d1 36be
000002c0: fc48 cc3b ce94 2abe a56c f13b 5403 31be
000002d0: 9c50 e83b 511b 30be fdb6 0b3c 8bc1 2fbe
000002e0: b2d2 8a3b cf04 2abe 8a06 613c 4873 2fbe
000002f0: bc6e 263c 905b 2dbe 1d46 ef3b 01ce 2abe
00000300: 98ca c83b 99a0 2ebe 508e fa3b ad90 30be
00000310: 300b b639 5274 36be 512f bb3b 96db 2ebe
00000320: e359 14be 3cda 533e 456d 17be 2835 593e
00000330: 69ae 12be 1983 553e b340 13be 632c 533e
00000340: a074 f8bd 468f 833e a6d2 0fbe bb7c 573e
00000350: d6b9 18be 2fb0 523e 4a84 1dbe fc8f 5a3e
00000360: a607 18be 25db 553e 7686 18be 7b23 5d3e
00000370: 0b9b 11be 4b37 5a3e 80d1 14be ad00 573e
00000380: c86d 1abe 4e03 613e 4c97 18be 1e68 593e
00000390: fc00 13be 4d11 563e 2595 14be 5b21 5a3e
000003a0: 182e 14be d691 563e 5795 07be d576 4e3e
000003b0: 9404 16be 27d0 563e e072 14be dd80 5c3e
000003c0: 652b 15be d647 5a3e 7413 19be 2060 5e3e
000003d0: 163b 14be 5223 593e 8177 13be 76aa 583e
000003e0: 20b8 0dbe 8a48 583e f3c9 0dbe ce48 5a3e
000003f0: be7f 14be e848 563e 2c00 0fbe e04d 5c3e

_BaseModel__beta_s f4 [2]
2.4272041 -0.40198448
00000000: 5057 1b40 e9d0 cdbe

_BaseModel__prior_b_sigma_s f4 [100]
-0.45142123 -0.5154378 0.122712426 -0.8082138 -0.26061445 -0.7741144 0.012603611 -0.07445576
-1.2134951 -1.1906551 -0.27575803 -0.6246009 -1.2068536 0.3250496 -0.5156026 -0.28979465
0.26562497 0.1611964 1.2830027 0.32176647 -0.04667614 -0.96733165 -1.2291434 -1.3283144
0.34086794 4.6303973 0.32992727 -1.2754238 0.4401653 -1.0857712 0.21995856 0.2884744
-1.230993 0.40522528 -0.7284348 -0.41950336 -1.1661142 -1.300593 0.121707104 -1.2351205
-0.12725441 -0.682919 0.44395185 -0.4614737 -0.14105795 -0.5766847 -0.5133822 0.26111284
-0.24135724 -0.097486615 -0.587274 -0.94604033 -0.33066362 1.9494314 -1.1340122 0.7945543
-0.57708704 0.475532 -1.0396372 -1.2019391 6.0246596 -0.067826234 -1.1233001 -1.2891736
0.19510102 -1.245004 -1.2728192 -1.0334209 -0.17795323 5.4682665 -0.5606165 0.36661547
-0.57724565 0.30950195 -0.57481325 -1.2169334 1.7732915 -1.2781833 -0.4264841 0.41746092
0.05672067 0.02680847 -0.3254225 -0.4364757 -0.23812935 -0.18123707 -1.1150274 -0.57074654
-0.7044323 -0.7449097 -0.50996935 4.769642 -1.200835 -0.3905509 -0.093727365 5.365285
-0.73338354 -0.03816893 -1.1053134 -1.1026237
00000000: af20 e7be bbf3 03bf a750 fb3d 19e7 4ebf
00000010: 426f 85be 5c2c 46bf 607f 4e3c 437c 98bd
00000020: cf53 9bbf 6367 98bf 2830 8dbe d8e5 1fbf
00000030: 2e7a 9abf e76c a63e 88fe 03bf f75f 94be
00000040: ffff 873e ab10 253e 6f39 a43f 93be a43e
00000050: 7b2f 3fbd 0ca3 77bf 9254 9dbf 3506 aabf
00000060: 3e86 ae3e 372c 9440 3aec a83e 1641 a3bf
00000070: 595d e13e 8dfa 8abf d13c 613e ebb2 933e
00000080: 2e91 9dbf b079 cf3e b47a 3abf 25c9 d6be
00000090: 3b43 95bf d579 a6bf 9341 f93d 6e18 9ebf
000000a0: fb4e 02be c8d3 2ebf a84d e33e 4846 ecbe
000000b0: 7f71 10be 9ca1 13bf 046d 03bf 95b0 853e
000000c0: 5a26 77be 10a7 c7bd 9757 16bf b32f 72bf
000000d0: be4c a9be f886 f93f 5027 91bf e967 4b3f
000000e0: fabb 13bf ee78 f33e d512 85bf 24d9 99bf
000000f0: 03ca c040 7be8 8abd 4cc8 8fbf a403 a5bf
00000100: 90c8 473e 4b5c 9fbf bdeb a2bf 2347 84bf
00000110: 5f39 36be 0afc ae40 9084 0fbf 06b5 bb3e
00000120: 5fc6 13bf 0a77 9e3e f626 13bf 79c4 9bbf
00000130: 37fb e23f 839b a3bf 205c dabe 70bd d53e
00000140: ef53 683d 709d db3c c79d a6be be79 dfbe
00000150: 2ed8 73be 3696 39be 38b9 8ebf 721c 12bf
00000160: ad55 34bf 67b2 3ebf 5a8d 02bf e8a0 9840
00000170: f6b4 99bf 4af6 c7be 22f4 bfbd 6ab0 ab40
00000180: 06bf 3bbf 0657 1cbd e97a 8dbf c622 8dbf

_BaseModel__prior_c_sigma_s f4 [100]
0.26814806 0.6608881 0.65732694 1.3568593 5.700797 -0.3959198 -0.38252667 -0.14401859
1.002191 -0.35947362 0.72637975 0.73994267 -0.35387617 0.084826455 0.18591031 0.09065452
2.5382912 0.8251685 -0.38463712 0.32343692 0.9551153 -0.30266416 -0.41068256 -0.45261216
-0.343813 0.5189193 0.9175387 -0.40356934 0.61878026 -0.24109846 4.657353 0.8299039
1.3204222 1.08489 0.42796466 0.641528 1.2677487 -0.2514612 -0.40392756 -0.4207431
0.3818535 -0.4081332 1.8840268 -0.14819017 -0.44847587 -0.421869 0.094992876 1.0442027
0.38271114 -0.35532606 0.9805803 0.08299102 -0.30367672 3.4474509 -0.39382273 0.6598358
-0.43051505 1.6206473 -0.20628959 2.9462142 -0.17267364 -0.18192813 0.51814955 0.121009976
1.2167802 1.4497988 1.1528809 -0.47257757 -0.38873237 -0.24920961 3.013795 0.46967342
0.4492306 1.350937 -0.30268404 -0.50937915 -0.41854402 -0.44215524 0.1877668 0.26872617
0.9779305 0.5417966 -0.4264767 0.415753 -0.067931354 2.5845087 0.6750364 -0.36063707
3.0281575 0.82785416 0.38965136 -0.47534576 0.25203714 -0.49400362 0.21516812 0.12502879
0.7339747 0.0039673243 -0.4249226 -0.32597238
00000000: b44a 893e f62f 293f 9446 283f 91ad ad3f
00000010: ee6c b640 00b6 cabe 89da c3be 9c79 13be
00000020: cb47 803f ed0c b8be 06f4 393f e26c 3d3f
00000030: 422f b5be 7eb9 ad3d 465f 3e3e 14a9 b93d
00000040: 5d73 2240 3e3e 533f 28ef c4be 8699 a53e
00000050: 7082 743f ccf6 9abe fc44 d2be c8bc e7be
00000060: 4208 b0be e5d7 043f d1e3 6a3f a4a0 cebe
00000070: 6268 1e3f 84e2 76be 0909 9540 9574 543f
00000080: 9803 a93f addd 8a3f 2f1e db3e 2e3b 243f
00000090: 9745 a23f 86bf 80be 98cf cebe a46b d7be
000000a0: 4d82 c33e d6f6 d0be ca27 f13f 2abf 17be
000000b0: a19e e5be 37ff d7be a08b c23d 6fa8 853f
000000c0: b7f2 c33e 4ced b5be 4f07 7b3f 32f7 a93d
000000d0: 847b 9bbe 09a3 5c40 22a3 c9be 00eb 283f
000000e0: 786c dcbe 5f71 cf3f 943d 53be c68e 3c40
000000f0: 5cd1 30be 5e4b 3abe 73a5 043f 14d4 f73d
00000100: 74bf 9b3f 0293 b93f 9a91 933f b0f5 f1be
00000110: ee07 c7be ce30 7fbe 04e2 4040 0979 f03e
00000120: 8e01 e63e 81eb ac3f 67f9 9abe ac66 02bf
00000130: 674b d6be 2c62 e2be f145 403e 7a96 893e
00000140: a759 7a3f 2fb3 0a3f 275b dabe 94dd d43e
00000150: 981f 8bbd 9768 2540 2fcf 2c3f 6ca5 b8be
00000160: 55cd 4140 40ee 533f 6280 c73e 8560 f3be
00000170: 030b 813e 0bee fcbe 0855 5c3e 8c07 003e
00000180: c4e5 3b3f 5400 823b 748f d9be dae5 a6be
