experiments/models_mr=0.1_cr=0.1_pr=0.1/residual_synthetic_n=100_seed=16_B=100_lambda=1e1_dim=2_epoch=300_spe=10_bs=100_lr=0.1_seed=10.model (torch, 84927 bytes, 5 tensors)

_BaseModel__x0_s f4 [100, 2]
000000 9d dd c5 bf da b5 44 3f 7c 5a d6 bf f7 f1 3f 3f
       -1.5458256 0.76839983 -1.6746364 0.74978584
000010 a1 01 dc bf 48 8f 44 3f 63 4a d5 bf e5 29 49 3f
       -1.7187997 0.7678113 -1.6663326 0.7857955
000020 7c ac dd bf 8b c9 3b 3f 71 31 df bf 41 2a 53 3f
       -1.7318263 0.73354405 -1.7436963 0.8248635
000030 52 f5 e0 bf 09 3e 2b 3f 98 3b de bf 4f 83 33 3f
       -1.7574866 0.66891533 -1.7361937 0.70122236
000040 a0 5a df bf 2f 96 30 3f cf 53 e6 bf 53 2a 29 3f
       -1.7449532 0.6897916 -1.7994326 0.66080207
000050 23 83 d3 bf 9b 6a c8 bf 8d d4 b1 bf 63 ba db bf
       -1.6524395 -1.5657533 -1.389299 -1.7166256
000060 48 d4 ae bf a4 5f de bf 17 76 b6 bf db 1e dc bf
       -1.3658533 -1.7372937 -1.4254788 -1.7196916
000070 e6 20 a4 bf 8e 14 da bf 85 69 dd bf 7b 2c db bf
       -1.282254 -1.7037523 -1.7297827 -1.7122949
000080 85 81 bc bf ba bd df bf 0d 17 cc bf 91 51 e3 bf
       -1.4727026 -1.7479775 -1.5944535 -1.7759267
000090 98 1b b7 bf 59 0a da bf 23 8e c5 bf ff dc dc bf
       -1.4305296 -1.7034408 -1.5434002 -1.7254943
0000a0 e2 15 c9 bf 9e 71 12 40 d1 74 c2 bf 49 3d 07 40
       -1.5709803 2.2881846 -1.51919 2.1131155
0000b0 65 65 bd bf b9 c7 17 40 85 56 ca bf 46 56 06 40
       -1.4796568 2.371565 -1.5807654 2.0990157
0000c0 3e 5f bf bf 87 c5 21 40 c0 53 c2 bf ab bb 25 40
       -1.4950941 2.527681 -1.5181808 2.5895793
0000d0 b7 03 be bf db de 1d 40 7a 08 b1 bf b0 89 19 40
       -1.4844884 2.466727 -1.3830712 2.3990288
0000e0 a1 ac cf bf 24 c5 1a 40 5f 65 c9 bf 75 92 1b 40
       -1.6224557 2.4182825 -1.5734061 2.430814
0000f0 41 e8 61 3e c5 11 21 bf 1d 2e e4 3e 37 38 43 bf
       0.22061254 -0.6291774 0.44566432 -0.7625765
000100 6a 09 e5 3e f2 91 28 bf 96 11 a5 3e 14 f3 1d bf
       0.44733745 -0.65847695 0.3223998 -0.6169903
000110 fa c0 cb 3e 25 88 2c bf 67 52 80 3e a6 59 27 bf
       0.39795667 -0.6739524 0.25062868 -0.6537117
000120 a6 5b ca 3e fe 9b 2f bf 23 de 9f 3e 1f 3b 48 bf
       0.39523047 -0.685974 0.31224164 -0.7821521
000130 ea 11 e2 3e 62 06 4d bf 24 23 92 3e 6a e7 1e bf
       0.44154292 -0.80087864 0.28542435 -0.6207186
000140 3e 26 cc 3f b0 ba 9b 40 e4 28 d4 3f 4e 1c 92 40
       1.594917 4.866539 1.6574979 4.565955
000150 cd 6c ee 3f 96 c9 9f 40 23 23 c6 3f cb 48 97 40
       1.8626953 4.9933577 1.5479473 4.727636
000160 00 8e e9 3f f8 b2 9c 40 44 a4 e9 3f ef 7f 9a 40
       1.824646 4.896847 1.8253255 4.828117
000170 cf 12 b8 3f 98 d5 9c 40 61 df bd 3f 9d 11 97 40
       1.438074 4.9010735 1.4833795 4.7209
000180 66 06 f2 3f a3 09 9e 40 65 81 e4 3f 29 d4 9c 40
       1.8908203 4.9386764 1.7851988 4.9008985
000190 13 08 2a 3d d8 94 05 c0 6d c4 0b 3e 5f 1c 03 c0
       0.041511606 -2.0872097 0.13649149 -2.0486066
0001a0 c2 65 2f 3d ed e8 07 c0 f9 9f b5 3c d1 4d 03 c0
       0.042821653 -2.1235917 0.022171007 -2.0516245
0001b0 ab 5a 99 3d a3 cf 00 c0 9d d9 c4 3d eb 98 02 c0
       0.07487997 -2.0126731 0.09611819 -2.0405834
0001c0 d9 23 21 3e 4b 04 10 c0 44 4a 6b 3e 90 c1 ff bf
       0.15736331 -2.250262 0.22977549 -1.9980946
0001d0 db 30 97 3d db f0 0a c0 a9 9f 45 3d 5f 63 08 c0
       0.07382365 -2.1709507 0.048247967 -2.1310651
0001e0 04 7c de bd 49 44 8c c0 ea 9d 2b 3e fa 80 81 c0
       -0.10863498 -4.3833356 0.16759458 -4.046994
0001f0 e1 75 0a 3e 2c f4 8b c0 0b be f5 3e 14 50 7d c0
       0.1352153 -4.373556 0.47996554 -3.9580126
000200 3c 64 d6 3d 3d 3e 8c c0 d5 4a d8 3e 93 56 8c c0
       0.10468337 -4.3825974 0.42244592 -4.385568
000210 af 03 47 3e 31 16 83 c0 6d e2 9a 3e 96 0e 8a c0
       0.19434999 -4.096459 0.30250874 -4.3142805
000220 ff 1e 44 3e 2f 73 80 c0 a4 dd 73 3e 89 2c 84 c0
       0.19152449 -4.0140605 0.23815018 -4.1304364
000230 99 9b 46 be 85 00 c6 3f bc 07 71 be f6 11 b4 3f
       -0.19395293 1.5468909 -0.23538107 1.4067981
000240 32 40 1f be e0 7b ea 3f ea 85 aa be b6 ac c6 3f
       -0.15551832 1.8319054 -0.33305293 1.5521457
000250 8d 57 3b be c5 f3 ee 3f 36 32 54 be 91 e2 e5 3f
       -0.18295117 1.8668143 -0.20722279 1.7959768
000260 80 f0 99 be 8b 6b b7 3f 0a 44 8f be b1 b8 cc 3f
       -0.300663 1.4329695 -0.27981597 1.5993863
000270 8c a3 82 be 30 5c d0 3f e9 ea 54 be 6b 6b c8 3f
       -0.255154 1.6278133 -0.20792736 1.5657781
000280 ea 0b 7c bf 77 ef eb be 79 18 67 bf dc 5b 00 bf
       -0.9845568 -0.46081135 -0.9027172 -0.50140166
000290 45 24 7a bf 3e 92 d1 be 39 40 6e bf a7 86 df be
       -0.9771159 -0.40931886 -0.93066746 -0.4365742
0002a0 54 e9 6d bf ac 4e 8a be ff b5 78 bf 49 be e5 be
       -0.92934155 -0.27013147 -0.97152704 -0.4487174
0002b0 8d 95 72 bf a0 37 01 bf 75 2d 73 bf 15 48 f6 be
       -0.94759446 -0.504755 -0.94991237 -0.4810187
0002c0 73 df 78 bf 25 3f ce be 52 12 6f bf a7 9f dd be
       -0.97215956 -0.4028255 -0.9338733 -0.43285868
0002d0 d3 8a 44 40 84 ad 77 3f 79 c9 41 40 f3 c4 a3 3f
       3.0709732 0.9674914 3.027922 1.2794479
0002e0 38 7c 41 40 4e 4e b3 3f 80 9d 41 40 dc f9 c2 3f
       3.0232067 1.4008272 3.025238 1.5232501
0002f0 57 7c 40 40 08 7a ce 3f e2 d9 41 40 d5 da b3 3f
       3.007589 1.6130991 3.0289235 1.4051157
000300 9d 33 42 40 1a a6 aa 3f a5 fc 3d 40 e6 2e fb 3f
       3.0344002 1.333194 2.9685452 1.9623687
000310 82 15 45 40 30 93 5a 3f 2e e6 42 40 aa 00 9a 3f
       3.0794377 0.8538084 3.045299 1.2031453

_BaseModel__v_s f4 [100, 100, 2]
000000 e0 a8 b8 bc 54 f7 9e be 68 04 ea bc 4b 5d 9e be
       -0.022541463 -0.3104807 -0.028566554 -0.30930552
000010 36 94 64 bd fa d7 a6 be 40 35 91 3b fc 89 a4 be
       -0.055805407 -0.32586652 0.0044313967 -0.32136524
000020 d8 b9 8c bb ad 87 90 be 9b 31 4c bd e8 af 9b be
       -0.0042946152 -0.28228512 -0.049851995 -0.30407643
000030 07 1e 08 bd aa b7 9c be 33 98 ec bc f7 b7 a0 be
       -0.03323176 -0.30608875 -0.028881168 -0.31390354
000040 84 10 96 bc 4c 8f a5 be 14 42 03 bd 61 eb 9b be
       -0.018318422 -0.3233589 -0.03204544 -0.30453017
000050 38 8c e4 bc 19 cc a3 be c4 0f 3b bd 30 4a 8b be
       -0.027898893 -0.31991652 -0.045669332 -0.27205038
000060 f3 0b 78 bc cf ca a0 be 16 df 92 bc d8 86 a3 be
       -0.015139568 -0.3140473 -0.017928641 -0.31938815
000070 b8 68 f4 bc 85 32 93 be 24 2b cc bc ac 5a a0 be
       -0.02983509 -0.2874948 -0.024922915 -0.31319177
000080 86 64 e3 bc 96 ad 95 be 72 4a 1a bd 59 1a a2 be
       -0.027757894 -0.29233998 -0.037668653 -0.31660727
000090 39 82 fd bc 67 54 a2 be d7 f7 64 bd 9d f2 9c be
       -0.030945884 -0.3170502 -0.05590042 -0.3065385
0000a0 74 ac c1 3c 87 95 a8 be 80 74 54 bc c8 76 ab be
       0.023641802 -0.3292658 -0.012967229 -0.3348906
0000b0 bb 58 d1 bc 3a 55 9d be 0e 02 ea bc b2 a8 a8 be
       -0.025555005 -0.30729085 -0.028565433 -0.32941204
0000c0 d3 aa dd bc 47 c9 9d be be 03 4d bc 64 12 96 be
       -0.027058994 -0.30817625 -0.012513099 -0.29310906
0000d0 24 32 1a bc ae 4c 92 be 86 4a 64 bd 7c f4 a2 be
       -0.0094113685 -0.28574127 -0.055735134 -0.31827152
0000e0 d7 d5 b0 bc a3 e4 9b be b0 f4 0a 3b 0a b8 9d be
       -0.021586342 -0.30447873 0.0021202974 -0.30804473
0000f0 40 71 db 3a 1d 93 ab be 0f 40 98 bc af 00 a2 be
       0.0016742125 -0.33510676 -0.018585233 -0.31641147
000100 1a fc cd bc a6 73 a1 be fc c7 81 bc 76 43 ae be
       -0.025144625 -0.31533545 -0.01584243 -0.34035844
000110 96 78 ad bc ee 8a a0 be 15 a0 0f bd 6e f5 9b be
       -0.021175664 -0.31355995 -0.035064775 -0.30460685
000120 b0 16 49 bc 04 e9 9d be 2a d8 c5 bc a3 05 a2 be
       -0.0122734755 -0.3084184 -0.024150927 -0.31644925
000130 86 96 c0 bc 48 2c a6 be e0 65 d9 bc 00 22 a2 be
       -0.023509275 -0.3245566 -0.026537836 -0.31666565
000140 de 9d de bc 78 c2 99 be 40 de 89 bc b5 15 9e be
       -0.027174886 -0.3003118 -0.01682961 -0.30875936
000150 02 0b cc bc 6f 97 a1 be 05 0a 81 bc 90 5f 9b be
       -0.024907593 -0.31560847 -0.015751848 -0.30346346
000160 dd 70 f5 bc 6b 61 a2 be 44 a3 ff bc 37 1d a3 be
       -0.029961044 -0.3171495 -0.03120578 -0.31858227
000170 05 a6 d7 bc f1 62 a2 be e0 41 3c ba 3d 45 a0 be
       -0.026324281 -0.3171611 -0.0007181447 -0.31302825
000180 bc fb e4 bc b7 d6 a1 be e4 b4 7c bc 57 0f 93 be
       -0.027952068 -0.31609127 -0.015423987 -0.2872264
000190 19 60 13 bd 63 85 a9 be d0 70 95 bd ac 60 b0 be
       -0.035980318 -0.33109578 -0.07296908 -0.34448755
0001a0 10 0d 17 bb a6 a3 93 be a4 26 c1 bc 73 25 9d be
       -0.0023048557 -0.2883579 -0.023577996 -0.30692634
0001b0 f4 b7 02 bd 19 85 9f be ca 3c dc bc ab 89 a0 be
       -0.031913713 -0.31156233 -0.026884455 -0.31355032
0001c0 00 77 73 39 f0 c5 a3 be 2a 50 f7 bc be db 99 be
       0.00023218617 -0.31986952 -0.030189592 -0.30050462
0001d0 16 80 93 bc fb c3 9b be a0 dc e4 bc 3b da a0 be
       -0.018005412 -0.3042296 -0.027937233 -0.31416497
0001e0 e0 41 9b bc 8a 6a 98 be ba ce 18 bd d6 ee a3 be
       -0.01895231 -0.29768783 -0.037306525 -0.32018155
0001f0 50 fb 58 bc 6b 63 9c be 40 cb bf bc b7 fa 9a be
       -0.013243511 -0.305446 -0.023412347 -0.30269405
000200 96 c3 00 bd 3b 35 a1 be d8 b9 1b bd 27 85 97 be
       -0.031436525 -0.31485924 -0.03801903 -0.29593775
000210 5f 63 f4 bc 3a aa a3 be c4 36 78 bc 1c 9b a0 be
       -0.02983254 -0.3196581 -0.015149776 -0.3136834
000220 66 9f 12 bd bf f3 9c be 64 64 42 bc d3 c8 a8 be
       -0.035796545 -0.30654714 -0.011864755 -0.32965717
000230 2b c2 14 bd b4 63 99 be 78 78 a5 bc 81 72 9e be
       -0.036317986 -0.2995888 -0.020199046 -0.30946735
000240 b4 81 ed bc ef 05 a4 be ae 36 f2 bc 4e f6 a2 be
       -0.028992511 -0.32035777 -0.029567089 -0.3182854
000250 5e 14 a7 bc d0 fb 9e be fc 3d bb bc c6 98 b3 be
       -0.020395454 -0.31051493 -0.022856705 -0.35077494
000260 4b 09 bf bc 49 7f a0 be 34 86 94 bc 75 7d a0 be
       -0.02331986 -0.3134711 -0.0181304 -0.31345716
000270 c0 9e 62 bb f2 12 94 be 56 de c7 bc 24 3d a7 be
       -0.0034579486 -0.28920704 -0.02439801 -0.32663834
000280 96 7e c4 bc 38 e8 9d be 3e 46 48 bc 9d bd a0 be
       -0.023986142 -0.3084123 -0.012223778 -0.31394663
000290 22 81 b3 bc ec 5a 9a be b9 62 9a bc d6 df 99 be
       -0.021912161 -0.30147493 -0.018845903 -0.30053586
0002a0 85 ee 12 bd fe 1c 9a be 9f d0 c3 bc 7d d3 9c be
       -0.035872 -0.30100244 -0.02390319 -0.30630103
0002b0 f1 5b 6e bd 37 42 85 be a2 b2 52 bd a9 49 a6 be
       -0.05819315 -0.2602708 -0.05143989 -0.32478073
0002c0 1e 35 04 bd 38 e8 a7 be 90 df ac bb 0c 59 a0 be
       -0.03227722 -0.32794356 -0.005275674 -0.31317937
0002d0 e9 60 e9 bc 3f 0a a1 be 57 04 c2 bc db 82 9f be
       -0.028488593 -0.3145313 -0.02368371 -0.31154522
0002e0 04 aa f1 bc 80 17 9f be 64 a8 be bc 40 37 9e be
       -0.029500015 -0.31072617 -0.023273654 -0.30901527
0002f0 b0 5a 01 3c 2b a3 9d be e6 c5 b9 bc c3 ea a1 be
       0.007895157 -0.3078855 -0.022677373 -0.3162442
000300 48 5a 50 3c 70 ce ac be 8b 3e c4 bc 03 21 9c be
       0.012716837 -0.3375125 -0.023955604 -0.30493936
000310 0c 6a 54 bc cf b1 97 be 34 fe a7 bc c3 8e 9b be
       -0.012964737 -0.29627845 -0.020506956 -0.30382356
000320 52 01 12 3d 8d 88 c4 bd 83 3f 09 3d d9 f2 c3 bd
       0.03564579 -0.095963575 0.033507835 -0.09567804
000330 71 4a 0c 3d bb 12 cb bd 90 60 02 3d cc 36 b7 bd
       0.03425068 -0.09915682 0.03183037 -0.089459985
000340 39 f5 e8 3c 7b 9c cf bd 69 34 04 3d 31 cd c2 bd
       0.028437244 -0.10137268 0.032276545 -0.095117934
000350 50 39 0a 3d ad 5e cf bd 3e 6d f8 3c 0c 5d d0 bc
       0.033746064 -0.1012548 0.030325528 -0.025434993
000360 81 18 dc 3c 51 8b ce bd 8a 37 04 3d aa cf b9 bd
       0.026867153 -0.10085166 0.03227953 -0.09072812
000370 8e 23 10 3d df cd c3 bd d9 65 00 3d c8 6d c8 bd
       0.035190158 -0.09560751 0.03134713 -0.09786564
000380 2d 89 0b 3d 78 80 b9 bd 35 9f f0 3c b0 27 c1 bd
       0.034066368 -0.090577066 0.02937279 -0.09431398
000390 dd b5 0d 3d c0 ff c5 bd 57 7d 01 3d 35 62 c8 bd
       0.034597266 -0.09667921 0.031613674 -0.097843565
0003a0 c2 ae 14 3d ef aa b9 bd b3 f5 0f 3d f9 59 c7 bd
       0.036299475 -0.09065806 0.035146426 -0.09733958
0003b0 00 40 04 3d 54 4b c7 bd 9d 01 09 3d 86 6d c9 bd
       0.032287598 -0.097311646 0.033448804 -0.09835343
0003c0 11 2c c3 3c 1a 3f b3 bd 36 24 f4 3c c9 4c da bd
       0.023824723 -0.0875227 0.029802423 -0.10659177
0003d0 10 12 03 3d 98 a5 bf bd f8 9f 05 3d a2 10 c4 bd
       0.031999648 -0.093577564 0.03262326 -0.09573485
0003e0 01 a9 04 3d 49 d5 c0 bd de 9e 06 3d 85 7b c3 bd
       0.032387737 -0.09415681 0.03286635 -0.09545044
0003f0 58 4d 19 3d 95 28 bf bd 75 26 04 3d 41 d7 b9 bd
       0.037427276 -0.09333912 0.032263238 -0.090742595

_BaseModel__beta_s f4 [2]
000000 f6 9f 0c 40 e7 e8 aa be
       2.1972632 -0.33380815

_BaseModel__prior_b_sigma_s f4 [100]
000000 9c 42 3e bf 58 4b 55 3e 54 5f ab be 4f 19 a5 40
       -0.7432039 0.20829523 -0.33471167 5.1593394
000010 9b 05 cf bf e9 ac 8c 40 b4 85 d4 3f 7a df 64 bf
       -1.6173586 4.396107 1.6603303 -0.894035
000020 ee 21 dc bf ba b8 d7 bf 95 a7 92 bf b2 27 40 3f
       -1.7197855 -1.6853249 -1.1457392 0.7506057
000030 1f 78 9c 40 d4 f3 bd bf 0b 97 ac 3f 92 f8 27 3d
       4.889663 -1.4840035 1.3483595 0.04100854
000040 aa 3c 8d bf 74 f1 f7 bd 70 24 13 bf 14 0d 50 bc
       -1.1034138 -0.121066004 -0.57477474 -0.012698431
000050 27 63 ef bf ea c7 e4 be 3e 1e 43 3e b4 b8 5e be
       -1.8702134 -0.44683772 0.19054505 -0.21750146
000060 a2 49 98 3e 53 4c 36 bf bf 73 93 bf 84 a8 f8 bf
       0.29743677 -0.7121021 -1.1519698 -1.9426427
000070 69 60 38 bd 2b 76 97 bf 25 81 01 bf f7 cd e7 bf
       -0.04501382 -1.1832937 -0.50587684 -1.810973
000080 0b 33 c3 3d 94 f1 dc 3f 08 74 1d bf 1c 73 88 bf
       0.0953122 1.7261224 -0.61505175 -1.0660129
000090 ac bd 4e bf cd 5f db bf 1a 30 06 3e f2 b9 90 bf
       -0.80758166 -1.7138611 0.13104287 -1.1306746
0000a0 9a 1e 50 bf e8 25 18 3f 45 00 e3 bf 7f 03 6c bf
       -0.81296694 0.5943284 -1.7734457 -0.92192835
0000b0 1c 6f a1 bf 62 9d b4 bf 78 35 58 3e 10 39 3c bf
       -1.2612033 -1.411053 0.21114147 -0.7352457
0000c0 34 6b b3 bf fa f2 b4 bf 6b 65 34 bf 5f 44 53 be
       -1.4017091 -1.413665 -0.7046725 -0.2063155
0000d0 7c de fc bf 8e 5d 90 bf 72 18 da bf eb 30 6f bd
       -1.9755397 -1.1278551 -1.703871 -0.05839626
0000e0 0b 38 89 bf 3b e4 0a bf 7d 31 19 3d c5 a9 99 bd
       -1.0720228 -0.542545 0.03740071 -0.07503084
0000f0 9a 3a 75 3e 30 66 ec be 63 c4 e3 bf dd 54 56 bf
       0.23948136 -0.46171713 -1.7794307 -0.8372324
000100 b2 cc c3 be 7d 9d 4b bf 78 8a 8b bf 7d 60 18 3e
       -0.38242108 -0.79537183 -1.0901632 0.14880557
000110 ef 6d ad be ed 96 e5 3f 96 73 c6 be cf aa 84 bf
       -0.33872935 1.7936684 -0.3876006 -1.0364627
000120 82 d3 3a be 6f 95 82 bf 8d e0 40 bf 4c 14 a3 be
       -0.18244746 -1.0201854 -0.7534264 -0.31851423
000130 0b 65 48 bf 69 7d 63 3f 41 e5 9f 3e 52 fc 89 bf
       -0.7827918 0.88863236 0.31229594 -1.0780127
000140 02 62 f4 be 9f 16 6f bf df 2c 8e 3f 89 1b 3c bf
       -0.47731024 -0.9339389 1.1107444 -0.73479515
000150 38 2e 90 bf 95 fa 3b bf cc cc 88 3e 51 1a 6e bf
       -1.1264105 -0.7342923 0.26718748 -0.93008906
000160 c0 63 e0 bc 82 d5 c5 40 f0 40 6b bf 2f 30 ae 3e
       -0.027391315 6.182313 -0.9189596 0.34021136
000170 ee 0c 56 3d 02 5c 91 bf 3b 98 d2 bf 66 0f a6 bf
       0.052258424 -1.1356204 -1.6452707 -1.2973449
000180 58 51 c2 bf bf 5c 38 3f 36 a6 3b bf 18 c1 05 be
       -1.5181074 0.7201652 -0.7330049 -0.1306194

_BaseModel__prior_c_sigma_s f4 [100]
000000 e4 15 21 3f 8e c0 c4 3e 6c 14 14 bf 1a 1a 7a bd
       0.6292403 0.38428158 -0.5784366 -0.06106005
000010 4f a9 af 40 16 dd 16 bf 1e 9d 8e be 9e f2 1d 3f
       5.4894176 -0.589311 -0.27854246 0.6169833
000020 f0 a0 df 3d 44 8c bd 3e 18 41 90 3f fe 81 24 bf
       0.10919368 0.37021077 1.1269865 -0.6426085
000030 3e 32 ed 3e 23 ae f9 3f 5f f6 07 bf b2 94 12 be
       0.46327394 1.9506267 -0.5311031 -0.14314535
000040 c8 ba 12 bf 5a c6 61 be 56 ed 4c 3f 6d b9 85 be
       -0.57316256 -0.22048321 0.80049646 -0.2611803
000050 8f 3b ec bd 6e 9d b3 40 04 cb a5 be 4c 51 03 bf
       -0.115347974 5.6129675 -0.3238145 -0.51295924
000060 fa f7 8e 3f 6d e4 2b bf 5a 03 cf 3e 5d 60 65 be
       1.1169426 -0.67145425 0.40432245 -0.22400041
000070 61 0f da 3f 77 85 0b 40 87 27 74 3e 0a 9a 1b 3e
       1.7035943 2.180021 0.23843203 0.1519548
000080 f7 4d 56 3f ba 2d c9 be 39 ab ac 3e 9e 63 92 bd
       0.83712715 -0.392927 0.33724383 -0.07147907
000090 10 65 26 bc 74 11 ff 3e f7 ec 8b be ad 99 5b 3f
       -0.010155931 0.49818003 -0.27329227 0.85781366
0000a0 01 4b 3c 3f 6a 57 b4 3e d5 d6 42 3f 17 04 fe 3e
       0.73551947 0.35222942 0.7610906 0.49612495
0000b0 0b bc 19 3e b5 ba 3b 3f 64 a8 08 3f f8 02 08 40
       0.15013139 0.7333177 0.53381944 2.1251812
0000c0 23 9c 2e 3f 82 dd f7 3d d1 23 28 bf 93 c8 1c bf
       0.68206996 0.12102796 -0.6567965 -0.6124355
0000d0 8e fe b5 3f be 0a 2c 3f 8b 52 7e 3f 54 ab e0 3e
       1.4218309 0.6720389 0.993447 0.43880713
0000e0 2f f0 df 3d 5e 58 23 3f 7d 73 b9 3e 37 3f 7c 3f
       0.10934483 0.6380671 0.36220923 0.9853396
0000f0 29 d7 61 3f ac bf 89 3e ac 53 72 3f 24 12 66 3f
       0.88218933 0.26904047 0.94658923 0.8987143
000100 d9 97 ac 3e 18 8b 63 3e 42 8f 9a 3e b6 e5 e7 3e
       0.337096 0.22221029 0.30187422 0.45292443
000110 b9 f9 2c 3e fc 25 9b 3e b1 55 15 bf 90 31 8d 3e
       0.16892137 0.30302417 -0.5833388 0.27576876
000120 90 32 28 3b d8 90 5d 3f e2 48 12 3f 19 87 1c bf
       0.0025664903 0.8654914 0.5714246 -0.6114364
000130 4e 7c 5b 3f 48 27 ed bb 19 b9 93 3f e2 2f 26 bf
       0.8573655 -0.0072373487 1.1540862 -0.64916813
000140 92 a1 b9 3e d8 fa 05 3f 54 c8 71 3f e5 38 54 be
       0.3625608 0.5233588 0.944463 -0.20724829
000150 23 7d 9d 3e 81 ef 12 3f dd 12 22 bf 81 1e 19 be
       0.30759534 0.57396704 -0.63310033 -0.14953043
000160 4e 1d 18 bf bf fe 87 40 1b 7c 96 3e 10 1c 84 3f
       -0.59419715 4.249847 0.2939156 1.0321064
000170 a0 bb 96 3f c7 fa 69 3f cf 61 50 3e e1 29 82 be
       1.1776009 0.9139828 0.20349811 -0.25422576
000180 7e 2b 21 bf d9 90 b2 3f 5f ad cb 3e 52 6b 04 be
       -0.6295699 1.3950454 0.3978071 -0.12931564
