experiments/models_mr=0.1_cr=0.1_pr=0.1/residual_synthetic_n=100_seed=16_B=100_lambda=1e4_dim=2_epoch=300_spe=10_bs=100_lr=0.1_seed=20.model (torch, 84927 bytes, 5 tensors)

_BaseModel__x0_s f4 [100, 2]
00000000: 49fc a1bf afc3 56bf 5cc4 acbf c1b4 92bf
00000010: 126f a0bf 64fb 92bf dbc1 a6bf ce29 8dbf
00000020: 7712 b9bf ab2a 74bf 6906 a0bf 0012 91bf
00000030: f86b 8fbf 016d 8fbf d07f 6abf 1284 96bf
00000040: e7d6 fdbe 6882 87bf aaf9 8cbf 106f a2bf
00000050: ae5e 5a3f cad4 0cc0 328f 933f ec9d 0ec0
00000060: fb84 143f 65c0 1bc0 7e59 893f 0598 fcbf
00000070: 0be2 cb3f 98b8 1bc0 7a94 8a3f efa6 08c0
00000080: 9383 7a3f 2ee2 1dc0 1352 733f b39d 12c0
00000090: 1d3a 913f 44fc 02c0 e25e 8d3f 431c 0dc0
000000a0: 95b1 1dc0 9c02 50bd 82f2 20c0 2d9f 793d
000000b0: 1b03 29c0 bc7d 7d3e f1ba 05c0 ccdd b6bd
000000c0: db7e 39c0 429b 9bbe c96e 3ac0 3735 373e
000000d0: 19bb 22c0 466d 5e3e d2dc 23c0 259b a23e
000000e0: e947 29c0 b2d4 c33d 437a 2fc0 9c78 e4bd
000000f0: f1d8 0140 b4f8 5bbf a77a 3540 e455 8abf
00000100: 0d3a 1c40 53d8 82bf 66e3 2940 608d 8dbf
00000110: 9b20 1440 fd82 47bf fe71 1440 65b5 31bf
00000120: f1ca 0140 98f1 3fbf 2a92 0d40 78ed 8abf
00000130: 5906 4840 6c6a bebf 187c 2b40 6ea0 83bf
00000140: e2f2 a6c0 ac28 39c0 5118 84c0 a405 3fc0
00000150: ec1c 98c0 8ddc eebf a2cc 91c0 b7d7 34c0
00000160: acfd a1c0 d81a 0ec0 1110 9bc0 e1f2 16c0
00000170: 6997 a7c0 ce72 2cc0 750d 9fc0 13cb 43c0
00000180: ccc8 96c0 c6e4 32c0 fd66 9ec0 089a 11c0
00000190: b636 c93f 5f03 7d3f 3d65 ee3f f585 943f
000001a0: 5343 af3f 7f72 bc3f 02bf d63f 5ce9 833f
000001b0: 7571 f03f 35f6 763f 3c01 ea3f adfd 6f3f
000001c0: 8bdf ab3f 2ff8 ce3f de32 f63f cad6 a93f
000001d0: 8cdd f83f a993 ac3f e546 c23f 4fe3 b73f
000001e0: 0747 9b3f 093c 5f40 7ee9 433f bed1 4a40
000001f0: e7e0 cb3e 1adc 5340 3e2a ba3f 6bfe 3b40
00000200: 4e6e bb3e e24a 6940 d703 a63e 9cde 4640
00000210: 033a 2c3f 54d9 4d40 52ed 333f aa79 4540
00000220: efd1 2e3f 6ce1 3840 0eb5 753f 6078 2740
00000230: 9b6f 86be 7b42 913e 3c04 04be 899e ff3e
00000240: cd18 92bf 0d51 853f 4429 8ebf 8ecc 713f
00000250: 5ab3 b4bf 7b41 8f3f e2f5 74bf 3275 933f
00000260: 674a 33bf 5da3 093f fb35 6cbf d811 3b3f
00000270: f033 8ebf 0069 d33e 8187 48bf cba3 853f
00000280: 19ec 6b3e b4ec 63bf 9e62 373f 9591 64bf
00000290: 15ed fa3e dff3 4fbf d508 233f 9d73 6bbf
000002a0: 2ba1 a23e 7522 36bf b36b 033f cd83 77bf
000002b0: 5a16 3f3f d824 2dbf 035b 633f c042 78bf
000002c0: 2272 ca3e 7019 7cbf 9627 463f 3eb0 5ebf
000002d0: cb78 6640 bd26 b540 f632 7340 431a ab40
000002e0: 51c1 6240 8b60 9e40 780e 4240 e001 a340
000002f0: ee31 3840 e58c b240 a487 5940 540b a440
00000300: 7efd 6240 cb5e a840 326e 3d40 43bb 9540
00000310: b04a 8140 08d3 b140 e116 6440 a4f9 b740
-1.2655116 -0.8389234 -1.3497424 -1.1461412 -1.2533896 -1.1482968 -1.302791 -1.1028383
-1.445876 -0.95377606 -1.2501956 -1.1333618 -1.1204824 -1.120514 -0.91601276 -1.1759055
-0.4957802 -1.0586672 -1.1013691 -1.2690144 0.8530072 -2.2004876 1.1528075 -2.2283888
0.5801541 -2.4336178 1.0730436 -1.9733893 1.5928358 -2.4331417 1.0826561 -2.1351888
0.97857016 -2.46693 0.9504711 -2.2908752 1.134586 -2.046647 1.1044581 -2.20485
-2.4639637 -0.05078374 -2.5148015 0.060942817 -2.6408145 0.24754995 -2.089535 -0.08929023
-2.8983676 -0.3039189 -2.9130118 0.17891394 -2.5426695 0.21721372 -2.5603528 0.3175899
-2.645014 0.09562053 -2.7418373 -0.11155817 2.028866 -0.85926366 2.835611 -1.0807462
2.4410431 -1.0222267 2.6545043 -1.1058769 2.31449 -0.7793425 2.3194575 -0.6941741
2.0280116 -0.7497802 2.2120461 -1.085372 3.1253874 -1.4876227 2.679449 -1.0283334
-5.217149 -2.8931074 -4.1279683 -2.9847193 -4.7535305 -1.8661057 -4.5562296 -2.8256662
-5.062216 -2.2203884 -4.845711 -2.3585742 -5.2372327 -2.6945071 -4.9703927 -3.0592697
-4.7120113 -2.7952132 -4.950072 -2.2750263 1.5719821 0.9883327 1.8624645 1.160338
1.3692421 1.4722441 1.6777041 1.0305591 1.8784624 0.9646943 1.8281627 0.93746454
1.3427595 1.616949 1.9234273 1.3268673 1.9442611 1.3482562 1.5177885 1.4366244
1.2131051 3.4880393 0.76528156 3.1690516 0.39820024 3.310309 1.4544141 2.9374034
0.36607593 3.6451955 0.32424805 3.107337 0.6727602 3.2163897 0.70284 3.0855508
0.68289083 2.8887587 0.9597939 2.616722 -0.26257023 0.28371033 -0.1289224 0.4992564
-1.1413819 1.041536 -1.1106343 0.9445275 -1.4117234 1.1191858 -0.9568769 1.152014
-0.70035404 0.537649 -0.9226987 0.730741 -1.11096 0.41291046 -0.7833176 1.0440611
0.23039283 -0.89033055 0.7163485 -0.8928464 0.49009004 -0.8123149 0.6368535 -0.91973287
0.31763586 -0.7114633 0.5133621 -0.9668549 0.7464348 -0.67634344 0.8881075 -0.9697685
0.395402 -0.98476315 0.77404153 -0.86987674 3.6011226 5.660979 3.7999854 5.346956
3.543049 4.949285 3.032133 5.093979 2.8780475 5.579699 3.3989038 5.126383
3.546722 5.2615714 2.9598508 4.679109 4.040367 5.5570107 3.5638964 5.7492237

_BaseModel__v_s f4 [100, 100, 2]
00000000: c8a8 8f3e 00c4 4e3f a12e 9c3e bc98 563f
00000010: 911f 903e 4e0b 653f 4e1a 763e 5652 553f
00000020: 9618 913e b151 4b3f 8bef 9a3e 9dd8 5f3f
00000030: 4c18 703e 355b 4e3f 27a7 73c0 14ff 243e
00000040: 3c65 0140 d769 78c0 8b13 903e b55c 573f
00000050: 2cc2 6f3e eb22 183f 4e3a 713e 3898 623f
00000060: 09c8 b93e 1664 5d3f 9a45 ac3e 269e 793f
00000070: a8db ac3e 2ac1 3f3f 0234 ad3e e894 6b3f
00000080: 1112 65bf bd8e 33bf 7a1a 6a3e 7ca2 613f
00000090: 30a7 fcbc a485 533f c2b2 6e3e 77c4 3c3f
000000a0: 6a91 a3bd f08e c53f a6e8 b53e 6ca5 4a3f
000000b0: 3756 a33e 65b9 523f 935b cf3e dc3a 753f
000000c0: 00c0 9a3e 1655 5e3f 7056 8d3e 9d37 533f
000000d0: f7bd fb3e 63e4 793f e6e2 9a3e 0209 563f
000000e0: 8082 893e f2d9 593f 9c13 883e 0280 633f
000000f0: 9102 bd3e 7bdf 5c3f 7607 993e 714f 573f
00000100: 9c35 8c3e 8715 4f3f 1eab aa3e 0ad2 5f3f
00000110: a3f8 8f3e dbb4 523f 17d1 6e3e 3ef9 543f
00000120: ea38 893e 92e0 5b3f 464b 8e3e 0ab2 5a3f
00000130: a080 b93e 4115 5e3f 0a65 0b3d 642b 5e3f
00000140: 1ab7 823e 91ca 553f fe0b 2fc0 141d a7bf
00000150: 18be c13e 22c4 683f ba42 893e f612 553f
00000160: 7ffc 813e 5393 583f 4335 803e 95fa 673f
00000170: 1912 0a3f df04 5e3f 8656 8e3e 5910 573f
00000180: 5cfe c0bf dec4 423e db03 893e ee9c 4e3f
00000190: 1c1c 8c3e df4c 603f 4602 783e bdf6 703f
000001a0: 5de5 3c40 452f 2740 9d8d 8c3e df88 5a3f
000001b0: faac 673e fe1c 353f 895c c33e c6e6 603f
000001c0: e752 933f 285d 3b3f d6e2 923e fa0c 593f
000001d0: 457f ab3e ef79 313f 954a e33e bfbc c03f
000001e0: 9106 643e 67d2 5f3f d336 873e 7da6 413f
000001f0: ac12 c83e 1076 4e3f a62c b73e dcc7 513f
00000200: 3a50 8c3e 2134 533f 548e 23be 94f3 3540
00000210: e737 883e c1f6 3d3f c76d 1dbf b851 b43f
00000220: e4ec 933e b414 583f 1af0 493d a6d0 7a40
00000230: 8fd1 8c3e 5a28 5c3f 29a9 f23e 0a15 883f
00000240: 4fde 863e 9f0b 543f 680f 8f3e 3679 6b3f
00000250: 8704 7f3e b193 4f3f ca15 e23e 1aa9 723f
00000260: 7035 0d3e 961b 823f 94e7 d33e 90a6 463f
00000270: 881d ef3e 7e91 583f c298 cc3e 763b 1f3f
00000280: 42d4 8040 bbff 383f 7356 6a3e 85f3 5e3f
00000290: 3883 863e f310 563f dc16 f33d 5c19 633f
000002a0: 8016 8b3e aa6f 4f3f 0e85 fc3e 2e10 323f
000002b0: 2047 893e d106 633f a0df 0b3f 4698 173e
000002c0: dabe 183f a0a8 633f 697a bf3e e533 7e3f
000002d0: 0b87 7d3e 10c2 7f3f 9bcf 873e e5e3 563f
000002e0: f494 803e f4ef 523f 6878 913e f6c0 513f
000002f0: 28bc 7d3e 3374 563f 19bf 8a3e c6f4 523f
00000300: 426f 833e daa3 513f aa50 813e e557 543f
00000310: 7008 893e 1e58 513f a505 813e 1ead 563f
00000320: 80ef ffbe 3baf 653f d815 07bf 7f3f 6c3f
00000330: 192b f6be f5bd 6d3f cd30 32bf 4717 693f
00000340: f1f6 01bf 3803 683f 8e47 d0be b7d6 7f3f
00000350: 0f36 ffbe e80b 763f d019 bdc0 1ce1 723f
00000360: c60a 37c0 fdd1 88c0 e2a6 f5be 5fbc 6d3f
00000370: b4ed 06bf 2988 383f 3b6e e5be b39c 6b3f
00000380: 8abf c2be f418 803f f763 dbbe 4f7e 8b3f
00000390: dac9 03bf d179 493f b251 cdbe e9d0 813f
000003a0: 6ba7 ddbf ff6e c3be 5003 eebe a158 6c3f
000003b0: d642 0cbf f4cd 723f 689c 07bf 487f 7a3f
000003c0: f070 8bbf aa21 1e40 e355 babe 478d 613f
000003d0: ca1b fbbe 4931 673f 3a9c 07be b93e 773f
000003e0: 3faa e3be 9f2a 7e3f 72de febe 0c0f 683f
000003f0: a9dd a7be 7b28 6f3f 47a3 f1be 7749 693f
0.28058457 0.8076782 0.30504325 0.83826804 0.28149083 0.89470375 0.24033472 0.8332876
0.2833907 0.79421526 0.30260882 0.874399 0.23446769 0.8060792 -3.8070772 0.1611293
2.0218039 -3.88146 0.2813991 0.84125835 0.23413914 0.5942828 0.23557398 0.8851352
0.36285427 0.86480844 0.33646852 0.9750694 0.33761334 0.7490412 0.3382874 0.9202409
-0.8948069 -0.70139676 0.22861663 0.88138556 -0.03084144 0.82625794 0.23310378 0.7373728
-0.0798672 1.5434246 0.3552906 0.79158664 0.31901714 0.8231414 0.40499553 0.9579294
0.3022461 0.8684858 0.2760501 0.82506734 0.4916837 0.97614115 0.30251235 0.83607495
0.26857376 0.85098183 0.2657746 0.888672 0.3691602 0.86278504 0.29888505 0.8410559
0.2738465 0.80892223 0.33333677 0.8742987 0.28119382 0.82307214 0.23321949 0.83192813
0.26801234 0.8588954 0.27791804 0.85427916 0.36230946 0.8675118 0.034031905 0.8678496
0.2553032 0.83512217 -2.735107 -1.3055749 0.37840343 0.90924275 0.2680872 0.8323206
0.25387952 0.845998 0.25040635 0.9061673 0.53933865 0.8672618 0.27800387 0.8400932
-1.5077624 0.19020411 0.26760754 0.80708206 0.27365196 0.87617296 0.24219617 0.9412649
2.9514992 2.61226 0.27451792 0.853651 0.22624579 0.70747364 0.38156536 0.8785213
1.1509675 0.7318902 0.28688687 0.84785426 0.33495536 0.6932668 0.4439284 1.5057601
0.2226813 0.87430423 0.26409015 0.75644666 0.39076746 0.806489 0.35776252 0.81945586
0.27404958 0.8250142 -0.15972263 2.8429918 0.2660515 0.7420464 -0.6149563 1.4087439
0.2889167 0.8440659 0.049301244 3.918985 0.2750363 0.8599907 0.47394684 1.0631421
0.26341483 0.8283023 0.27941442 0.9198183 0.24904071 0.81084734 0.4415725 0.9478928
0.13789916 1.0164669 0.41387618 0.77597904 0.46702218 0.84597003 0.39960295 0.62200105
4.0259104 0.72265214 0.2288454 0.8709033 0.26271987 0.8361961 0.118695945 0.8871057
0.27165604 0.8102976 0.49320263 0.6955594 0.26812077 0.88682276 0.546381 0.14804181
0.59666216 0.88929176 0.3739808 0.99297935 0.24758546 0.9990549 0.26525578 0.8394149
0.25113642 0.8239739 0.28412175 0.8193506 0.24778807 0.83771056 0.2709892 0.82404745
0.2567082 0.8189064 0.25256854 0.82946616 0.2676425 0.8177508 0.2519962 0.83857906
-0.49987411 0.89720505 -0.52767706 0.9228439 -0.48079756 0.92867976 -0.69605714 0.91051143
-0.5076743 0.9062991 -0.40679592 0.99937004 -0.4984593 0.9611192 -5.909401 0.9487474
-2.8600326 -4.2756333 -0.47978884 0.92865556 -0.52706456 0.72082764 -0.44810662 0.9203598
-0.38036758 1.0007615 -0.42849705 1.0897921 -0.51479876 0.787015 -0.4010139 1.0141879
-1.7316717 -0.3817062 -0.46486902 0.92322737 -0.54789484 0.9484551 -0.5297303 0.97850466
-1.0893841 2.4708047 -0.3639365 0.881062 -0.4904464 0.9030958 -0.1324319 0.9658008
-0.44465825 0.99283785 -0.49779087 0.9064796 -0.327863 0.93421143 -0.47194883 0.91127723

_BaseModel__beta_s f4 [2]
00000000: 1834 3c40 b587 63bf
2.9406796 -0.8887895

_BaseModel__prior_b_sigma_s f4 [100]
00000000: d331 68c0 32c7 6bc0 1b24 5ec0 0b5c 53c0
00000010: 876b 34c0 d54e 57c0 b6af 36c0 f0d5 29c0
00000020: ac8e 77bf 89af d7be 11bb 75bf 274d 57c0
00000030: 70ae 6ac0 b8d1 64c0 fcf1 7ac0 d764 91c0
00000040: ca10 6dc0 4839 33c0 c022 11c0 b6b4 e0bf
00000050: 1b7d b3bf ca25 67bf 19d6 99be e949 9ebe
00000060: dcf2 a3bf 8851 c2bf 3e04 3d40 1582 4940
00000070: 2e59 4440 e9d3 5340 2f34 45bf 70cd 2fc0
00000080: 02ea 1fc0 b692 c8bf cffa acbf 0e04 87bf
00000090: d977 f7bc 8ed3 6740 0d64 7140 2cb9 8040
000000a0: 288d 7540 eebc 7c40 a165 6940 2975 6c40
000000b0: 0ab9 1abf 2e64 81be a5bb 7b40 0bde d5be
000000c0: c978 d5bd b150 1ebd a9a7 49bf 4411 eebf
000000d0: a8ce 5cc0 1888 58c0 1f65 33c0 7b28 87bf
000000e0: bd14 c7bf 442a 15c0 7eb7 01c0 34dc 5abf
000000f0: 35ec d3bd 1bf2 4940 70cb 4340 8855 4640
00000100: 46a5 5140 2847 8040 56b0 8540 1615 7b40
00000110: dd1b 4b40 f410 4440 8f7f 7a40 4a15 ae40
00000120: 0a02 6d40 ccec 4740 eaa3 3440 b705 c03e
00000130: 46ae 13bf a81e 52bc 1c41 58bf 2f37 b1bf
00000140: e2f2 fabf c24e b0bf 4e3f d3bf 7284 92bf
00000150: 21f9 2340 44be 4e40 ab9a 1a40 6d44 b6bf
00000160: c3f4 0940 03ce 1540 2bed 2d40 e556 4240
00000170: e312 3f40 78d7 6340 c6c5 6140 04b3 9c40
00000180: 2f49 ad40 dd27 0a41 8db4 c140 8700 5e40
-3.628041 -3.684033 -3.4709537 -3.3024929 -2.819063 -3.3641865 -2.8544745 -2.6536827
-0.96702075 -0.4212611 -0.95988566 -3.364084 -3.6668968 -3.5753002 -3.9210196 -4.5435596
-3.7041497 -2.8003712 -2.267746 -1.7555149 -1.4022554 -0.90292037 -0.30046156 -0.30915764
-1.280849 -1.5181131 2.953384 3.1485646 3.067943 3.309809 -0.7703275 -2.746914
-2.4986577 -1.5669773 -1.3514041 -1.0548112 -0.030208515 3.6222873 3.7717316 4.022604
3.8367405 3.9490314 3.646828 3.694651 -0.604386 -0.25271744 3.933328 -0.41770968
-0.104234286 -0.038651172 -0.78771454 -1.8599019 -3.4501133 -3.3833065 -2.803047 -1.0559229
-1.5553204 -2.3307047 -2.0268245 -0.85492253 -0.10347787 3.155402 3.0592918 3.0989704
3.2757125 4.008686 4.1777754 3.923162 3.1735756 3.0635347 3.9140356 5.440099
3.7032495 3.123828 2.8225045 0.3750436 -0.57687795 -0.012824692 -0.8447435 -1.3844966
-1.9605372 -1.3774035 -1.6503694 -1.1446669 2.5620806 3.230363 2.4156902 -1.4239632
2.155564 2.340699 2.7176006 3.0365536 2.9855278 3.5600262 3.5276961 4.8968525
5.4151835 8.634732 6.05329 3.4687822

_BaseModel__prior_c_sigma_s f4 [100]
00000000: 9b7b 00c0 9fb7 f13e 670a bc3e c553 a6be
00000010: bbbf 34c0 259d 1340 f201 5cbf 3c04 7940
00000020: 2e64 1f41 ea94 983e 1ddb 2b40 1870 773f
00000030: e5b6 1a40 7e21 dd3f 9408 ec3e 7e5f a83f
00000040: 4ab2 9940 cc0a ce3f 0ee6 c33f 7129 103f
00000050: 300d 4d40 59a6 c73f 1768 ccbf b7c5 4640
00000060: 26f0 e43f b4a8 dbbf 7a82 f93f 3915 cbbf
00000070: 0be0 efbf a81b af3f 7555 d93f 61e4 cf3e
00000080: e560 5bbf df7f fa3f 3c94 e2bf 4c34 93bf
00000090: 9a3e 93bf 251a 1ac0 82a0 a13f 76ac b03f
000000a0: d2f3 78bf aea7 6540 2a48 e53f fec7 a0be
000000b0: 480f 94c0 799e a83f d24e 943f cf77 38c0
000000c0: 0620 6040 d890 f4bf cbc1 a33f 68fd a43f
000000d0: 36ef b640 1f18 ac3f 60de 973f c227 1d40
000000e0: 3a1a 6e40 6c11 303f 3a31 f43f f552 3340
000000f0: b0ab 963f 1f67 debe 30ff f33f 9d97 3140
00000100: 1851 f0bf d834 4040 a43c 1ebf 3757 4040
00000110: 62f0 82bc 2105 9840 f1cb 0a40 2e9a 3640
00000120: 5310 cbbf e703 593f 01dd 0fc0 0c4b 4640
00000130: 55b9 5440 187a 1a40 55fd 3040 1f37 2140
00000140: 5ea7 7f40 c086 0640 5f2f 71be 725b e63f
00000150: eea0 c33c 736c 2d40 0a0f dc3f 88dc 4140
00000160: 8ac3 4e40 8172 d93f 3a45 9a3f 6a3b fbbf
00000170: 5721 09c0 ebdd d7bf 730f c2bf 26bd c1c0
00000180: 0697 3dbf b12e 9bc0 dc3b 83c0 8e9f 5bc0
-2.0075443 0.47210404 0.36726686 -0.32485786 -2.8242023 2.3064663 -0.8594047 3.8908834
9.961958 0.29801112 2.6852486 0.96655416 2.417413 1.7275846 0.46100295 1.3154142
4.803014 1.6097045 1.5304582 0.56313235 3.20393 1.559764 -1.5969266 3.1058176
1.7885787 -1.7160859 1.9492943 -1.5865852 -1.8740247 1.3680315 1.6979204 0.40603927
-0.85694724 1.9570273 -1.7701488 -1.1500335 -1.150348 -2.4078457 1.2627108 1.3802631
-0.9724704 3.5883594 1.7912648 -0.31402582 -4.6268654 1.3173362 1.1586554 -2.8823125
3.5019546 -1.9106703 1.2793516 1.2889833 5.7167006 1.3444861 1.1864738 2.4555516
3.7203507 0.68776584 1.9077523 2.8019383 1.1771145 -0.4343805 1.9062252 2.7748787
-1.8774748 3.0032253 -0.6181128 3.0053232 -0.015983764 4.750626 2.1686976 2.8531604
-1.5864357 0.8477158 -2.247864 3.0983305 3.3238118 2.413702 2.7654622 2.5189893
3.9945903 2.1019745 -0.23553227 1.7996657 0.023880448 2.7097442 1.719209 3.0290852
3.2306848 1.6988069 1.2052376 -1.9627507 -2.14266 -1.6864599 -1.5160965 -6.0543394
-0.7405857 -4.8494496 -4.101057 -3.4316134
