experiments/models_mr=0.1_cr=0.1_pr=0.1/residual_synthetic_n=100_seed=16_B=100_lambda=1e5_dim=2_epoch=300_spe=10_bs=100_lr=0.1_seed=30.model (torch, 84927 bytes, 5 tensors)

_BaseModel__x0_s f4 [100, 2]
00000000: 0510 d4bf 9852 463f 740e 0cc0 2bf3 dc3e
00000010: be28 81bf 1e0b c43e 07a2 b9bf 8784 b53e
00000020: 2916 ecbf 91bd 4f3f 78ec a7bf fa8d c7bd
00000030: 9ee8 83bf 2003 f13e c376 fdbf 3de8 a63e
00000040: 1d6d cfbf 4d81 0f3e 3fde efbf a0f3 2c3e
00000050: 8168 4d3f 99d9 c5be 37f5 893f bc36 1ebe
00000060: e648 5f3f 9bdc 22bf 17ff 9a3f 86d2 593e
00000070: 526a bb3f aa63 45be f38d 7b3f 4871 153e
00000080: 7789 9c3f 367a 563d a7e4 803f 06ea 1fbd
00000090: 3b9c c03f 3f10 283f ca10 803f a8ba 103e
000000a0: e108 4ec0 5130 bb3d 6576 5cc0 7f16 853f
000000b0: c088 53c0 606d 7f3f de3a 33c0 7241 833f
000000c0: 2563 52c0 721c f63f e4e5 5bc0 496d b13f
000000d0: 0b03 65c0 c52c 3a3f 23f9 64c0 6bad 973e
000000e0: 494c 47c0 0828 933f c906 53c0 d99b c63f
000000f0: b7e4 d63f a592 81bf 68d9 0040 ad03 aabf
00000100: 9da4 c13f ab23 bcbf 2d27 d93f 8a4f 9dbf
00000110: 8605 f23f a8de 82bf 3941 1a40 0efb a1bf
00000120: 9712 ce3f a16a 94bf fb8f 0d40 7136 b3bf
00000130: 3c98 f43f fb2e e0bf e52f 2040 df93 30bf
00000140: fa62 57c0 0536 44c0 8625 10c0 9bac f0bf
00000150: d61c 18c0 33be 0ec0 daf4 5cc0 73fc 3dc0
00000160: cfb5 32c0 e0ae 2ec0 ad33 36c0 7bb8 21c0
00000170: 4c92 48c0 05ed 1fc0 70d9 60c0 e256 37c0
00000180: 924d 44c0 6862 2ac0 136e 3cc0 2ecd 30c0
00000190: 2847 5240 8d95 e33f 0bc2 3140 9292 1d40
000001a0: eb30 5340 0a3f fe3f 0363 6540 030a fc3f
000001b0: b90b 3440 35ca fc3f de62 2440 944b 0840
000001c0: afbf 5d40 2773 d33f 4ebb 1f40 9002 1b40
000001d0: eb2c 4d40 f968 2a40 f96a 5140 9be0 0a40
000001e0: b462 ae40 f473 943e d313 9b40 92a1 973f
000001f0: bb81 af40 6b63 303f 00c7 9040 6302 0b40
00000200: 4d18 ab40 7edb 233f e606 b340 7216 c43f
00000210: 5c40 a140 83f0 9c3f a1e3 a040 dc12 b43f
00000220: 041b 9c40 348b 983f 027d ac40 f998 a63f
00000230: 7e7a 023c dcb5 a33f 2501 a23d 3ce6 b13f
00000240: 4dae 05bf 5bf2 0440 e209 65bf c2e5 1b40
00000250: b0b8 67bf ca42 1940 037b b3bd 3a49 0940
00000260: 6c5b 13bb 0c5d 0740 4e47 83be 803d 1840
00000270: 3824 9dbf d218 0340 9392 713e 31f1 1540
00000280: ae6e 8cbf 8acc 3dbc 238b 10bf 7894 35bf
00000290: b528 8bbf 0fc7 103e 24b3 77bf c8fd 90be
000002a0: 1d25 50bf ca03 bd3e b4b8 5ebf dd8f d03c
000002b0: a81b e2be cce7 8c3e 3ca0 09bf 2641 84bf
000002c0: 8dd8 51bf e267 b2be 0d79 78bf 4a9b 2dbe
000002d0: de32 a13e b326 80c0 f73c 2f3e 890e 90c0
000002e0: 4a1c e7be e731 94c0 8628 09bf dba7 88c0
000002f0: 1465 c8be e00e 83c0 aab3 eb3c ca22 90c0
00000300: 7408 aa3c c87d 96c0 7a67 babe 9d2d 70c0
00000310: 0f99 ab3e bba2 97c0 c841 4bbd a344 a4c0
-1.6567389 0.7746978 -2.1883821 0.43154272 -1.0090559 0.38289732 -1.4502572 0.35452673
-1.8444263 0.8114863 -1.311904 -0.09743877 -1.0305364 0.47072697 -1.9801868 0.3259906
-1.6205174 0.14014168 -1.8739699 0.1688981 0.80237585 -0.38642576 1.0777959 -0.15450567
0.8722061 -0.6361787 1.2109097 0.21271715 1.4641821 -0.192763 0.9826347 0.14593995
1.2229451 0.052362643 1.0069779 -0.03904154 1.5047678 0.6564979 1.0005124 0.14133704
-3.219292 0.09140075 -3.4447262 1.039749 -3.3052216 0.9977627 -2.800468 1.0254347
-3.2873013 1.9227431 -3.4359064 1.3861476 -3.5783107 0.7272456 -3.577706 0.29624495
-3.114031 1.1496592 -3.2972891 1.5516311 1.6788548 -1.0122877 2.0132694 -1.3282372
1.5128361 -1.4698385 1.696508 -1.2289898 1.8907936 -1.0224199 2.4102309 -1.2654741
1.6099423 -1.159504 2.2119129 -1.4000989 1.9108958 -1.7514337 2.5029233 -0.68975633
-3.365416 -3.065797 -2.2522902 -1.8802675 -2.37676 -2.2303588 -3.4524446 -2.9685333
-2.7923467 -2.7294235 -2.846904 -2.5268848 -3.1339293 -2.4988415 -3.5132713 -2.864678
-3.0672345 -2.6622562 -2.9442184 -2.7625232 3.285593 1.7780014 2.7774684 2.462071
3.2998607 1.9862988 3.5841682 1.9690555 2.8132155 1.9749209 2.5685344 2.129613
3.4648244 1.6519517 2.4958072 2.4220314 3.2058666 2.662657 3.272154 2.1699588
5.4495487 0.28994715 4.84617 1.1846182 5.4845862 0.689017 4.524292 2.1720207
5.3467164 0.64006793 5.594592 1.531935 5.0391064 1.2260898 5.0277867 1.4068255
4.878298 1.1917481 5.3902597 1.3015434 0.007963775 1.2789874 0.079103746 1.3898387
-0.52219087 2.0772922 -0.89468205 2.4358983 -0.90516186 2.3947015 -0.08763697 2.1450944
-0.0022484912 2.1150541 -0.2564034 2.3787537 -1.2276678 2.04839 0.2359107 2.3428462
-1.0971277 -0.01158441 -0.56462306 -0.7092967 -1.0871798 0.14138435 -0.9675772 -0.2831862
-0.8130663 0.36916953 -0.87000585 0.025459224 -0.44161725 0.27520597 -0.53760123 -1.0332382
-0.81971055 -0.3484488 -0.9705971 -0.1695377 0.3148412 -4.004724 0.171131 -4.5017743
-0.4513877 -4.6310916 -0.5357746 -4.27049 -0.39139616 -4.095566 0.028772194 -4.5042467
0.020755984 -4.702854 -0.3640707 -3.752784 0.33515212 -4.7386146 -0.04962328 -5.1333785

_BaseModel__v_s f4 [100, 100, 2]
00000000: 0b23 18c0 78b8 fabf 7008 64bf 9d24 33c0
00000010: 713a 06c1 047e 0a3f 5a51 90c0 6f02 a6bf
00000020: a28c 14c0 7270 f0c0 2c8e 54c1 77d9 7f3f
00000030: 00a4 d3c0 6a8f 313f 5075 8cbf 5a87 e340
00000040: 85fc 0ac1 1c2b d640 858d 7040 be44 90c0
00000050: 60d0 243f 441a a6be 58f7 193d 0d37 bebf
00000060: 5c71 c43e 012c c4bf 1d90 c43d b06b bcbf
00000070: b6bc 3dbe 6408 d4bf bd5b 243f 6a2f bfbf
00000080: c22f e33d 020d babf 2217 833e 3a6d aabf
00000090: 84fc bd40 8500 8240 e3cc 403d 855a c4bf
000000a0: 7f26 00c1 7b1c 9a40 600c 3140 ae2b 8f40
000000b0: ea2a 243f 5972 6340 1d4e 92c0 693b 83c0
000000c0: 8a7f 1e40 345b bb3f 4442 893f 1da1 2540
000000d0: cc09 1f3f 1d80 4440 8c68 07c0 94b7 6340
000000e0: cd74 eac0 ff51 2dc0 b7fb 9dc0 842e 8440
000000f0: bd1e 9c40 6536 2140 a268 dfbe e636 92c0
00000100: 4925 373f 6cfb 703f e88f 473f e71d dc3f
00000110: 180d 3c3f 2c7e b7c0 bb9e c240 04db 5bc0
00000120: a429 97be d0fc 2440 b117 ac40 5f56 c1c0
00000130: 9d8d 0d40 d333 9fc0 6792 2441 9da8 98c0
00000140: 6b71 22c0 b89f 42c0 4f7a 38c1 f498 47c1
00000150: 82de b0be 60c4 d0bf 3ef6 253f 2905 a0bf
00000160: 935d 0cbe cd3c 99bf 5a66 febf 944a 95bf
00000170: 9ad5 cdc0 604d 1cc1 9a04 c6c0 2d3b 7ac0
00000180: 55b0 91c0 f81f fcbf ee20 3f3e 21e1 54bf
00000190: af21 043f bee5 e3bf a3a0 903f e32e 0cc0
000001a0: 96c5 0a3f ea9f c5bf 7b02 0941 91a9 8b40
000001b0: 0eb1 4c3f bf0d 88bf 2414 3140 3a74 c9bf
000001c0: 9b4f 3d40 5116 7540 b54d 2040 58fc 9d3c
000001d0: 29b1 3f40 6852 b5bf 1737 7940 80f7 08bc
000001e0: 36c3 0340 9f81 84bf a5fb 2a40 8108 a03f
000001f0: 51dc a840 ccc0 d1bf c8ce e140 4227 0140
00000200: aab9 9e3d 2862 4fbf cf7f e440 12ac 05c0
00000210: 784e 323f 78bd 36bf 1275 f540 5436 dabf
00000220: e449 0f3f 3535 7fbf 4670 043f bdcd 27be
00000230: 04c4 4940 e418 673f 832b 3a40 2d74 82c0
00000240: 5b6b b9bf ab2c ff40 820b 05c0 81d3 5dc0
00000250: 7708 e7c0 783a 99bd 0a51 3f40 6f3e 5840
00000260: 3bd2 83c0 56cb 6ec0 4027 f6bf 1766 6d40
00000270: 3801 d040 33ff 8040 0f8f 6e40 956e 67bf
00000280: 55e2 c03f 80eb 95c0 1368 df3f 6511 cabf
00000290: 9ec6 7340 d1cc ae40 eaf0 8a3f f726 21c0
000002a0: 786d c93f 6e91 e33f c30e 0cbf 2b45 22bf
000002b0: 72c8 213e 3c33 5140 2505 f440 1817 6dbf
000002c0: e966 0c40 348a c63f 4776 0a40 b42e b5c0
000002d0: 2dc9 2840 51f1 1ac0 4d5f eb3f a7e3 80c0
000002e0: a8f6 223f 7f45 66c0 bc82 d63f d9ea eac0
000002f0: c9ef cc3e 44bd 07c0 c507 013d a8b2 4cbf
00000300: ac09 0d3e 08d6 a4bf f4bf 1d3f 67c8 9bc0
00000310: f82a d6bd 0273 c8c0 5466 e63e 95dd 7bc0
00000320: 3f49 b7bd 861c a1bf b8a4 f8bd f0c3 9fbf
00000330: 10d3 e8c0 0bd8 c6bd f632 2ac0 d0ad 1ac0
00000340: 1484 dabd ce00 a1bf 7ecb 22c1 2283 e23f
00000350: b52d a0c0 380b 67c0 7ad8 a6bd 0a3d 86bf
00000360: 089f ecbd 8a6a 9abf c05d e3bd 069e a1bf
00000370: 39ad 23be a25e a0bf 755d 04be 9533 9ebf
00000380: 12dd 04be 7185 9dbf 82f7 02be 7d6c a0bf
00000390: 02b6 02be 840f a3bf 6f24 f0bd 7ace a3bf
000003a0: 9631 0abe f463 a3bf e83c fcbd 5aa0 a1bf
000003b0: f1f6 8340 82cb 0240 2052 24be a091 9ebf
000003c0: f746 c4c0 4378 2c40 a04c 763f c1b8 ec3f
000003d0: 2453 47c0 0344 0840 74d6 d1bd 0c79 a4bf
000003e0: 1300 96be 05ab 77bf 8f6d bbbf ab55 b03f
000003f0: 2a09 ecbe 5522 0140 6301 88bf 9d17 3e40
-2.3771389 -1.9587545 -0.89075375 -2.7991097 -8.389268 0.54098535 -4.5099306 -1.2969493
-2.3210835 -7.513726 -13.28471 0.999412 -6.6137695 0.6935946 -1.0973301 7.1102724
-8.68665 6.6927624 3.7586377 -4.5083914 0.64380455 -0.32441914 0.0375894 -1.486055
0.38367736 -1.5325929 0.095978 -1.4720364 -0.18529019 -1.6565061 0.6420248 -1.4936345
0.110930935 -1.453522 0.25603586 -1.3314583 5.9370747 4.0625634 0.047070395 -1.5340124
-8.009398 4.8159766 2.7663803 4.474082 0.6412798 3.5538542 -4.5720353 -4.101002
2.4765344 1.4637208 1.0723348 2.5879586 0.62124324 3.0703194 -2.115756 3.5580797
-7.326758 -2.7081296 -4.936977 4.130678 4.878752 2.518945 -0.43634516 -4.5692015
0.7154127 0.9413364 0.7795396 1.7196625 0.7345748 -5.734152 6.0818763 -3.4352427
-0.29523957 2.5779305 5.377892 -6.0417933 2.2117684 -4.975076 10.285743 -4.7705827
-2.5381725 -3.0409985 -11.5298605 -12.474842 -0.3454476 -1.6309929 0.6482886 -1.2501575
-0.1370757 -1.197168 -1.9874985 -1.1663384 -6.4323244 -9.76889 -6.1880617 -3.9098618
-4.552775 -1.9697256 0.18664905 -0.8315602 0.516139 -1.7804487 1.1299022 -2.1903617
0.5420774 -1.5439427 8.563106 4.364449 0.79957664 -1.0629195 2.7668543 -1.5738595
2.9579837 3.829487 2.5047429 0.019285366 2.995188 -1.4165773 3.8939874 -0.00835979
2.0587897 -1.0352057 2.6716092 1.2502595 5.276894 -1.6386962 7.056492 2.018021
0.07750256 -0.8100915 7.1406016 -2.0886273 0.69650984 -0.71382856 7.670541 -1.704783
0.55972123 -0.9969056 0.51733816 -0.16387077 3.1525888 0.90272355 2.9089057 -4.0766816
-1.4485887 7.9742026 -2.0788274 -3.4660342 -7.2197833 -0.07481855 2.9893212 3.3788106
-4.119413 -3.7311606 -1.9230728 3.709356 6.500149 4.0311522 3.7274816 -0.9040311
1.5069071 -4.6849976 1.7453636 -1.5786558 3.8089976 5.462502 1.0854771 -2.5180032
1.5736532 1.7778757 -0.54710025 -0.6338679 0.1579912 3.268752 7.625628 -0.92613363
2.1937811 1.5510926 2.163469 -5.661951 2.6372788 -2.4209788 1.8388458 -4.0277896
0.6365762 -3.5979917 1.6758647 -7.341168 0.40026692 -2.1209269 0.03150155 -0.7996011
0.13773221 -1.2877817 0.6162102 -4.868213 -0.104574144 -6.264039 0.44999945 -3.9353993
-0.089495175 -1.258683 -0.121407926 -1.248167 -7.2757645 -0.09709176 -2.6593604 -2.4168587
-0.10669723 -1.257837 -10.174681 1.7696269 -5.0055795 -3.6100597 -0.081467584 -1.0487378
-0.1155377 -1.2063763 -0.11101866 -1.262635 -0.15984048 -1.252888 -0.12926276 -1.2359492
-0.12974957 -1.2306348 -0.12789729 -1.2533108 -0.12764743 -1.273911 -0.11725699 -1.2797387
-0.13495478 -1.2764878 -0.123163044 -1.262706 4.123894 2.0436711 -0.16046953 -1.2388191
-6.1336627 2.6948402 0.9621067 1.8493882 -3.1144495 2.129151 -0.10245982 -1.284944
-0.29296932 -0.9674533 -1.464281 1.3776144 -0.46100742 2.0177205 -1.0625423 2.9701912

_BaseModel__beta_s f4 [2]
00000000: 2f7c 4340 5e9b 41bf
3.0544546 -0.75627697

_BaseModel__prior_b_sigma_s f4 [100]
00000000: b12a ca40 913e 2fc0 ef67 3ac0 7910 90c0
00000010: 5e50 67c0 6f45 30c0 7af1 17c0 1368 08c0
00000020: 4818 b540 1c45 c640 fb54 8abf f216 a0c0
00000030: de3a 6ac0 204a afc0 227f adc0 cf86 b6c0
00000040: 9075 aec0 456b b2c0 ded6 a5c0 056e 99c0
00000050: 01f7 4440 6e1b c840 3a84 d140 76ff d540
00000060: 3273 d240 2972 d340 6564 ed40 8458 f640
00000070: 4925 f840 bb1c fb40 8479 b440 a1fc a0c0
00000080: c5f4 a5c0 9b9b 76c0 1aec 95c0 385a c1bf
00000090: 4a8d d340 6223 e440 4fed f040 0dd8 ff40
000000a0: 1dfc fb40 1827 ec40 1a42 e040 02d0 cb40
000000b0: 2a40 97c0 6356 96c0 6b17 9bc0 e545 a2c0
000000c0: e079 99c0 5374 97c0 6c9c 8ec0 2e76 a0c0
000000d0: 3320 b1c0 a507 acc0 2bce a5c0 0565 96c0
000000e0: c96f a1c0 46b2 b7c0 aaae bac0 1c26 b9c0
000000f0: 87f6 aac0 335f a2c0 9c55 96c0 c18d 48c0
00000100: 573e 65c0 1184 c240 9ae6 c240 7fc7 c740
00000110: 8bbd c940 c322 cd40 7d5f ce40 48ea ce40
00000120: 0499 c740 ce93 a1c0 8d82 b5c0 a1a8 b8c0
00000130: 3246 afc0 233c b5c0 b0db b8c0 5201 b4c0
00000140: 56f0 b9c0 ebfa bbc0 2ecc b8c0 398a b5c0
00000150: f9f9 acc0 c335 92c0 fa66 adc0 4413 abc0
00000160: 5d2e b0c0 0a0b aac0 59d3 9bc0 4a47 1ec0
00000170: 80aa e3bf ddc0 c640 7042 d440 d80e dd40
00000180: 528f e240 cc2b e640 a2d3 e540 f9a2 df40
6.3177114 -2.7381938 -2.9125936 -4.502011 -3.6142802 -2.754238 -2.3741136 -2.1313522
5.659214 6.195936 -1.0807184 -5.002801 -3.659843 -5.4777985 -5.421769 -5.703956
-5.451851 -5.5755944 -5.182479 -4.79468 3.077576 6.2533484 6.547391 6.687434
6.576562 6.6076856 7.418505 7.698305 7.7545514 7.847257 5.6398335 -5.0308385
-5.186129 -3.8532474 -4.685071 -1.5105658 6.610997 7.129319 7.5289683 7.9951234
7.8745255 7.379772 7.008069 6.3691416 -4.7265825 -4.6980453 -4.8466086 -5.071032
-4.7961273 -4.7329497 -4.4565945 -5.014426 -5.5351806 -5.375933 -5.181417 -4.6998315
-5.0448956 -5.740512 -5.8338213 -5.785902 -5.3425937 -5.074121 -4.6979504 -3.133652
-3.58193 6.0786214 6.0906496 6.2431026 6.3043876 6.4104934 6.4491563 6.466099
6.2374287 -5.0492926 -5.6721864 -5.7705846 -5.477319 -5.663591 -5.7768173 -5.625161
-5.810588 -5.8743796 -5.7749243 -5.673123 -5.4055142 -4.5690627 -5.4188204 -5.3461018
-5.5056596 -5.3138475 -4.8695493 -2.4731011 -1.7786407 6.211043 6.63311 6.908062
7.079995 7.1928463 7.182084 6.988644

_BaseModel__prior_c_sigma_s f4 [100]
00000000: cc15 8cc0 7535 06c0 d02a cb40 2d4d cd40
00000010: abe6 8ac0 98d5 cc40 d6a4 bd40 a3c7 7cc0
00000020: 6f34 88c0 a0ee cebf c02d b7c0 bde6 b6c0
00000030: b48b bbc0 dce3 b1c0 9e8c b4c0 35d3 b5c0
00000040: 2c3e b2c0 54fd b5c0 9b08 b140 706c b5c0
00000050: 79fd 9c40 91eb d040 1612 b540 a1be 673f
00000060: 4a1a 1540 9d38 c340 4643 bf40 d45b ba40
00000070: 6ce3 a340 3ea3 c740 2736 d740 b167 c340
00000080: 0488 a140 ba63 7340 2a87 a940 e15f c240
00000090: 564c ee40 97af fabf 830b c740 b20c a040
000000a0: 1d00 bbc0 9c39 e940 97d4 8ec0 4396 bbc0
000000b0: 7bda bac0 52ad bbc0 285b cebf d891 bac0
000000c0: 9c66 bcc0 5bb2 bcc0 eff9 afc0 2819 abc0
000000d0: 08ea b3c0 c12a ac40 4659 b8c0 c788 b8c0
000000e0: b9a8 96c0 bde9 b7c0 8453 b5c0 e4dc b540
000000f0: 12bc bbc0 867d adc0 8e98 b7c0 a696 b940
00000100: a215 bcc0 4678 aec0 e1cd b3c0 e0a3 2ac0
00000110: 564a afc0 9d95 b4c0 0eac cabf 4b42 f33f
00000120: b3c3 4ebf 5eb3 51be a089 6ebf 3237 0141
00000130: 7291 d940 17f5 e040 e4d0 da40 1ef9 b240
00000140: e24f ee40 7560 e240 ae40 cb40 5372 c240
00000150: a94d e340 34aa da40 fc2b 0941 48ba f140
00000160: 14b2 cf40 c3ae d040 8f31 8440 951a b9c0
00000170: 955a bdc0 7500 aac0 aec5 b5c0 d1f3 bec0
00000180: 5b67 c1c0 b7a8 b6c0 6b78 b3c0 ea6d bec0
-4.3776608 -2.0970128 6.348976 6.415671 -4.3406577 6.4010735 5.9263716 -3.9496849
-4.2564006 -1.6166573 -5.7243347 -5.7156663 -5.8608036 -5.559065 -5.642165 -5.682032
-5.5700893 -5.687174 5.5323005 -5.669487 4.9059415 6.5287557 5.6584578 0.9052525
2.3297296 6.100661 5.976962 5.8237095 5.1215115 6.238677 6.7253604 6.1064076
5.0478535 3.8029618 5.2977495 6.074204 7.4468184 -1.9584836 6.2201552 5.0015497
-5.843764 7.2882824 -4.463451 -5.8620925 -5.83917 -5.8649073 -1.6121569 -5.830303
-5.8875256 -5.896772 -5.4992595 -5.346821 -5.6223183 5.380219 -5.7608976 -5.7666965
-4.708096 -5.7472825 -5.666445 5.683214 -5.866708 -5.4215727 -5.7373724 5.7996397
-5.8776407 -5.452182 -5.6188817 -2.6662521 -5.477824 -5.6432633 -1.5833757 1.9004606
-0.80767363 -0.2047858 -0.9317875 8.075975 6.7990046 7.029918 6.8379993 5.59291
7.4472513 7.0742745 6.3516455 6.0764556 7.10323 6.8332767 8.573238 7.5539894
6.490488 6.521333 4.1310496 -5.784495 -5.9173074 -5.312556 -5.680381 -5.9672627
-6.0438666 -5.708095 -5.6084495 -5.9509172
