experiments/models_mr=0.1_cr=0.1_pr=0.1/residual_synthetic_n=100_seed=16_B=100_lambda=1e4_dim=2_epoch=300_spe=10_bs=100_lr=0.1_seed=30.model (torch, 84927 bytes, 5 tensors)

_BaseModel__x0_s f4 [100, 2]
0	0xbfad10e8	-1.3520784
1	0x3f8b28f7	1.0871876
2	0xbff0be7a	-1.8808129
3	0x3f52fdad	0.8241833
4	0xbf8e74db	-1.1129411
5	0x3f37e81f	0.71838564
6	0xbfbb29f8	-1.4622183
7	0x3f12acda	0.57295
8	0xbfcbd8c2	-1.5925524
9	0x3f35a44b	0.70953816
10	0xbfad0704	-1.3517766
11	0x3e8bbbdf	0.27291772
12	0xbf9a113c	-1.203651
13	0x3f499ba1	0.78753096
14	0xbfd9e347	-1.7022485
15	0x3f40866c	0.7520511
16	0xbfbaeffa	-1.4604485
17	0x3f35b486	0.7097858
18	0xbfd16b34	-1.6360841
19	0x3f36a219	0.7134109
20	0x3eae3702	0.34026343
21	0xbfb0e6c7	-1.3820428
22	0x3f1dbf66	0.61620176
23	0xbfabc692	-1.3419974
24	0x3f7dd9bf	0.9916038
25	0x3c355fe4	0.011070225
26	0x3f240183	0.64064807
27	0xbf966964	-1.1750913
28	0x3f575584	0.8411486
29	0xbfb7d90b	-1.4363111
30	0x3ecb5539	0.39713457
31	0xbfa16296	-1.2608211
32	0x3f0e41dc	0.55569243
33	0xbfa7e34d	-1.3116242
34	0x3ee7690a	0.45197326
35	0xbfaf4f8f	-1.3696154
36	0x3f3913bf	0.72295755
37	0xbea59fb6	-0.32348412
38	0x3ef301e2	0.47462374
39	0xbf9e6ecb	-1.2377561
40	0xc044f76c	-3.0776014
41	0x3f281688	0.6565938
42	0xc04ceb93	-3.2018783
43	0x3fb50f40	1.4145279
44	0xc0470aa7	-3.1100252
45	0x3fbc3801	1.4704591
46	0xc0293f7b	-2.6444995
47	0x3fb700b1	1.4297086
48	0xc056ef69	-3.3583624
49	0x40032788	2.0492878
50	0xc05052a5	-3.2550442
51	0x3fe344c1	1.7755357
52	0xc04c2042	-3.1894689
53	0x3fc1e3ba	1.5147622
54	0xc05a8ecf	-3.4149663
55	0x3f7886da	0.9708077
56	0xc03f6b40	-2.990921
57	0x3fc3e634	1.5304627
58	0xc03acb56	-2.9186606
59	0x3ff5779e	1.9177129
60	0x3fea068f	1.8283252
61	0xbde55c6f	-0.11199271
62	0x4019c8da	2.402884
63	0xbf30c4d7	-0.69050354
64	0x3ff55e2f	1.9169368
65	0xbf16d20f	-0.58914274
66	0x3ff1a533	1.887854
67	0xbf1134cd	-0.5672119
68	0x400b2431	2.174084
69	0xbf2e5745	-0.6810191
70	0x402043f6	2.504148
71	0xbf499c90	-0.7875452
72	0x3ff9eb6a	1.9524968
73	0xbe641b84	-0.22276121
74	0x401233eb	2.2844188
75	0xbf3b3487	-0.73127025
76	0x4025397c	2.5816336
77	0xbf5fe180	-0.8745346
78	0x4006b74d	2.1049378
79	0xbe978b1e	-0.29598325
80	0xc04f1d43	-3.236161
81	0xc0455c81	-3.083771
82	0xc0212048	-2.5175953
83	0xbfe645c9	-1.7990047
84	0xc01c26c6	-2.4398665
85	0xc0331923	-2.7984092
86	0xc054f19d	-3.327247
87	0xc034252d	-2.814769
88	0xc02756ba	-2.6146684
89	0xc03284d4	-2.7893572
90	0xc0304f43	-2.7548378
91	0xc021d2f2	-2.5285
92	0xc04505be	-3.0784755
93	0xc02c11b3	-2.6885803
94	0xc05aa2cc	-3.4161863
95	0xc03591cc	-2.8370237
96	0xc024bf76	-2.5741858
97	0xc0363739	-2.8471205
98	0xc029198b	-2.642184
99	0xc034b0d0	-2.8232918
100	0x402672ce	2.6007571
101	0x3fd05b2d	1.6277825
102	0x4021a82c	2.5258894
103	0x3fd38eb9	1.652793
104	0x40266fab	2.6005657
105	0x3fec50a7	1.8462113
106	0x403bb043	2.9326332
107	0x3fe9c77f	1.8264006
108	0x40168893	2.3520858
109	0x3fdfd183	1.7485813
110	0x40121648	2.28261
111	0x3fea706f	1.8315562
112	0x403b5c66	2.9275146
113	0x3fce6ad9	1.6126357
114	0x4017325b	2.3624485
115	0x3fce2c6e	1.6107309
116	0x401159af	2.2710989
117	0x4002a04f	2.0410345
118	0x403e628c	2.9747648
119	0x4006792d	2.101146
120	0x409e3877	4.9443927
121	0x3f171d15	0.5902875
122	0x409690d5	4.7051797
123	0x3f9fa2c8	1.2471552
124	0x409d65e8	4.9186897
125	0x3f672c47	0.90301937
126	0x407fbb4c	3.9958067
127	0x40051b04	2.079774
128	0x409b4bc2	4.852998
129	0x3f66d21d	0.9016436
130	0x40a4a603	5.145265
131	0x3fcdc41f	1.6075476
132	0x40979aa9	4.7376294
133	0x3f9edbfa	1.2410882
134	0x40a1ad9b	5.052442
135	0x3fbdb581	1.4821016
136	0x4093402e	4.6015844
137	0x3fa3c399	1.2794067
138	0x409eb6ea	4.9598284
139	0x3fb1c98b	1.3889631
140	0xbe358111	-0.17725016
141	0x3fdc1de1	1.7196618
142	0x3e2e5cc8	0.1702758
143	0x3fe3afd3	1.7788032
144	0xbf60702a	-0.8767115
145	0x4016079b	2.3442142
146	0xbf79f5c2	-0.9764062
147	0x4023a102	2.5567021
148	0xbf940c88	-1.1566324
149	0x401f10a2	2.4853902
150	0xbe7b278b	-0.24526803
151	0x401fadf0	2.4949913
152	0xbceaae1e	-0.028647479
153	0x4017eb54	2.3737383
154	0xbecfdeac	-0.40599573
155	0x402e57f9	2.7241194
156	0xbf95f72f	-1.171606
157	0x401a56ae	2.4115405
158	0xbf1b8645	-0.60751754
159	0x4024a732	2.5727048
160	0xbf878cfb	-1.0589899
161	0xbdde758f	-0.10862266
162	0xbed1d968	-0.4098618
163	0xbe8e7188	-0.27820992
164	0xbf85598c	-1.0417953
165	0x3da1f87c	0.07908723
166	0xbf2f51d8	-0.6848426
167	0x3d4f4e9b	0.050612073
168	0xbf801a2d	-1.0007988
169	0x3dd2beaa	0.102902725
170	0xbf615276	-0.8801645
171	0x3b9c30bc	0.004766552
172	0xbefd3acc	-0.4945892
173	0x3d47fc75	0.048824746
174	0xbe958a4e	-0.2920708
175	0xbf0b63ec	-0.54449344
176	0xbf627601	-0.8846131
177	0xbe7a0b01	-0.2441826
178	0xbf2f57f1	-0.6849356
179	0x3ea8c6c3	0.32964143
180	0x3e6dd68e	0.23226377
181	0xc0927268	-4.5764656
182	0x3e872a2e	0.26399368
183	0xc0a5e11e	-5.18373
184	0x3e32d4cb	0.17463987
185	0xc0ad377b	-5.4130225
186	0xbefd6fab	-0.49499258
187	0xc0a20f27	-5.0643497
188	0xbf18d358	-0.59697485
189	0xc0a148d1	-5.0401387
190	0xbe57578c	-0.2102949
191	0xc0a45db3	-5.136438
192	0xbe8c8dc4	-0.2745191
193	0xc09c297b	-4.8800635
194	0xbeb0c4ca	-0.34525138
195	0xc0b8d584	-5.776064
196	0x3ee78e29	0.45225647
197	0xc095b0d2	-4.6778345
198	0x3e646433	0.22303848
199	0xc0994b04	-4.790407

_BaseModel__v_s f4 [100, 100, 2]
0	0xbcde070a	-0.027102966
1	0xbfe08717	-1.7541226
2	0x3e92ecda	0.28696328
3	0xbfc4ad8f	-1.5365466
4	0xc1074d33	-8.456347
5	0xbff8c753	-1.9435829
6	0xc0b799e4	-5.7375355
7	0xc028a9be	-2.6353602
8	0x3dfe53bd	0.124183156
9	0xbfa94787	-1.3224953
10	0xc1536cc4	-13.214054
11	0xbf580d33	-0.8439514
12	0xc0c9c5fe	-6.305419
13	0xbfe72718	-1.8058805
14	0x3db21d33	0.086969756
15	0xbf16ef04	-0.5895846
16	0xbf31818c	-0.693383
17	0xc0091f8a	-2.14255
18	0xbe72a9ec	-0.23697633
19	0xc00fdeab	-2.2479656
20	0x3de4e0b9	0.11175675
21	0xbfd8abea	-1.6927464
22	0x3dc93f02	0.09826471
23	0xbfe66a57	-1.8001202
24	0xbffd03a0	-1.9766731
25	0xc00de3f3	-2.217038
26	0x3db88c77	0.090111665
27	0xbfdc3458	-1.7203474
28	0x3e2ac2ab	0.16675822
29	0xbfda5e51	-1.7060033
30	0x3d90f3e2	0.07077767
31	0xbfdd804b	-1.7304777
32	0x3deb738a	0.11496647
33	0xbfe7da18	-1.8113432
34	0x3dd6330a	0.10458954
35	0xbfdbbaf2	-1.7166426
36	0x409da9e5	4.926989
37	0x3f991602	1.1959841
38	0x3dc82af2	0.09773816
39	0xbfdc23fe	-1.7198484
40	0xc0ecd0b8	-7.4004784
41	0x40849962	4.1437235
42	0x401b7318	2.4288998
43	0x403a450a	2.9104638
44	0x3ed466fd	0.41484824
45	0x402095f2	2.509152
46	0xbfecc906	-1.8498847
47	0xc090d6f3	-4.526239
48	0x4044423b	3.0665424
49	0xbf89e492	-1.0772879
50	0x3f6a2afc	0.9147184
51	0x3f74a5d0	0.9556551
52	0x3d9f3ec5	0.07775644
53	0x3fb6d26b	1.4282964
54	0xc007009c	-2.1094122
55	0x4041dcf8	3.0291119
56	0xc0de485f	-6.9463344
57	0xc06e77a6	-3.7260528
58	0xc0982b07	-4.7552524
59	0x3faa5984	1.3308568
60	0x4099a466	4.801318
61	0x3ff431bf	1.9077681
62	0xbce6fac0	-0.028195739
63	0xc0c5bafe	-6.179076
64	0xbd77f712	-0.06053836
65	0xc041fe0a	-3.0311303
66	0x3f38a59e	0.7212771
67	0xbec9f3c3	-0.39443788
68	0x3f796275	0.9741586
69	0xc0beef86	-5.9667387
70	0x40bc3351	5.881264
71	0xc0af2dae	-5.474326
72	0xbf0bcca0	-0.5460911
73	0x3fb0f9e3	1.3826259
74	0x40052432	2.0803342
75	0xc074a01f	-3.822273
76	0x400b5d6a	2.1775765
77	0xc0e31559	-7.096356
78	0x410a3ead	8.640302
79	0xc1020aac	-8.127605
80	0x3d915f51	0.07098258
81	0xbfd50ff5	-1.6645495
82	0xc12ccbbe	-10.799742
83	0xc15bbbb6	-13.733328
84	0x3d97cf24	0.07412556
85	0xbfe5c8b8	-1.795188
86	0x3ddada7a	0.10686202
87	0xbfdcb198	-1.7241697
88	0x3d2c935f	0.04213273
89	0xbfdedf71	-1.7411939
90	0x3e088296	0.13331065
91	0xbfd9f49c	-1.7027774
92	0x3ef62718	0.480767
93	0xc0980366	-4.750415
94	0xbbe06000	-0.0068473816
95	0xbfd77623	-1.6832927
96	0x3dac10cc	0.08401641
97	0xbfde8d30	-1.7386837
98	0x3d9da9cf	0.07698404
99	0xbfdb1de6	-1.7118499
100	0x3deafd79	0.11474127
101	0xbfda4b32	-1.7054198
102	0x3daf420f	0.085575216
103	0xbfe306bf	-1.7736434
104	0x3dd3aa3a	0.103352025
105	0xbfd84deb	-1.6898779
106	0x40e3d4f7	7.1197467
107	0x3fff11f8	1.9927359
108	0x3d9f82f8	0.07788652
109	0xbfd78055	-1.6836039
110	0x3e0e90e7	0.13922463
111	0xbfde797b	-1.7380823
112	0x3dc59f3b	0.096495114
113	0xbfc9690a	-1.573518
114	0x3e0f5c0c	0.13999957
115	0xbfd5382b	-1.6657766
116	0x3e051ab4	0.12998468
117	0xbfddc92b	-1.7327017
118	0x409d42f9	4.9144254
119	0xc01747dd	-2.3637612
120	0x3dca273e	0.09870766
121	0xbfd679ee	-1.675596
122	0x3d2125ab	0.039342564
123	0xbfdf3bee	-1.7440164
124	0x3e388135	0.18018039
125	0xbfdd6fbe	-1.7299726
126	0x40ba9d7d	5.8317246
127	0xbfa11be1	-1.2586633
128	0x3d94bd95	0.072627224
129	0xbfda97b3	-1.7077545
130	0xbdbc4c1a	-0.09194203
131	0xbfdd0d23	-1.7269634
132	0x3da72069	0.081604786
133	0xbfdf7525	-1.7457625
134	0x3e56b277	0.20966516
135	0xbfd69bad	-1.6766258
136	0x3de50126	0.1118186
137	0xbfde393f	-1.736122
138	0x3de6a348	0.11261612
139	0xbfd564fb	-1.6671442
140	0xbec949e6	-0.39314193
141	0xbffb286d	-1.9621712
142	0x40003a2d	2.0035508
143	0xc09f56e2	-4.979356
144	0xbecab051	-0.39587644
145	0x4009f170	2.1553612
146	0xbeb8fd86	-0.36130923
147	0xc06419b8	-3.5640697
148	0xbf45ca40	-0.77261734
149	0xbfe75055	-1.807139
150	0x3ff939e3	1.9470791
151	0x3ff7d1fa	1.9360955
152	0xc08d4998	-4.4152336
153	0xc0c4911f	-6.142715
154	0xc00c1a7a	-2.189116
155	0x3fbff618	1.4996977
156	0x40a88317	5.266002
157	0x3fe393db	1.7779497
158	0xbd8377bc	-0.06419322
159	0xc000b289	-2.010897
160	0x3f76b150	0.9636431
161	0xc01582b7	-2.3361032
162	0x3fb1ed60	1.3900566
163	0xc0621a18	-3.5328426
164	0x40706dd3	3.7567031
165	0x4053a0c1	3.3066866
166	0x3f8e0592	1.109545
167	0xc0a77fc3	-5.234346
168	0x3fae91ec	1.3638282
169	0x3e6b2da9	0.22966637
170	0xbf740fd1	-0.95336634
171	0xc00577cd	-2.085437
172	0x3db56273	0.08856668
173	0x3fcddaf4	1.6082444
174	0x40d21afc	6.565794
175	0xbfa230b1	-1.267111
176	0x403bf7ab	2.9369915
177	0xbecb2b99	-0.396817
178	0x400d4cf6	2.2078223
179	0xc0dd00ed	-6.906363
180	0x3dea4eab	0.11440786
181	0xbfd956fb	-1.6979669
182	0x3e134881	0.14383127
183	0xbfd69845	-1.6765219
184	0x3dbd1382	0.092322364
185	0xbfcfd47e	-1.6236722
186	0x3e0bc3e2	0.13648942
187	0xbfcc9f35	-1.5986086
188	0x3d902a20	0.07039285
189	0xbfd46a56	-1.6594951
190	0x3db9db74	0.090750605
191	0xbfda07c8	-1.7033625
192	0x3deb85cc	0.11500129
193	0xbfd83779	-1.6891929
194	0x3e17109d	0.14752431
195	0xbfe5221f	-1.7901038
196	0x3d90bb36	0.07066958
197	0xbfd74787	-1.6818703
198	0x3dd17e48	0.10229164
199	0xbfccaa20	-1.5989418
200	0xbea97d87	-0.33103582
201	0xbfa222d8	-1.2666883
202	0xbea2487a	-0.3169592
203	0xbf9f29b5	-1.2434603
204	0xc0afe5a1	-5.496781
205	0xbf0b92f0	-0.54521084
206	0xc031b59c	-2.7767096
207	0xc0141fcc	-2.3144407
208	0xbeae83b0	-0.34084845
209	0xbf9f1c91	-1.2430593
210	0xc0ee8df1	-7.454827
211	0x3f88a6e5	1.0675932
212	0xc053b661	-3.3080065
213	0xc0227c5f	-2.538841
214	0xbea058b0	-0.31317663
215	0xbfb03544	-1.3766255
216	0xbeaadfed	-0.33373967
217	0xbfa459b8	-1.283988
218	0xbea27804	-0.3173219
219	0xbf9f0e3e	-1.2426221
220	0xbeb5e14a	-0.35523444
221	0xbf9f0720	-1.2424049
222	0xbec3feef	-0.38280436
223	0xbfa09c81	-1.2547761
224	0xbfcaf9bc	-1.5857463
225	0xbfd6299c	-1.6731448
226	0xbeb991b9	-0.3624399
227	0xbf9f9ca0	-1.2469673
228	0xbebfb084	-0.37439358
229	0xbfa33151	-1.2749425
230	0xbeaf7d1a	-0.34275132
231	0xbfa3fc14	-1.2811303
232	0xbebd617d	-0.3698844
233	0xbfa57247	-1.29255
234	0xbec255e0	-0.37956142
235	0xbfa110e7	-1.2583283
236	0x3f87a757	1.0597943
237	0x3efe5073	0.49670753
238	0xbeb17d66	-0.34665984
239	0xbf9fcdb0	-1.2484646
240	0xc0a809fb	-5.2512183
241	0x4020d483	2.5129707
242	0x3e64f6d1	0.22359778
243	0x3fb94fe4	1.4477506
244	0xc0270be0	-2.6100998
245	0x3fb8d425	1.4439741
246	0xbea47f0c	-0.3212818
247	0xbf9b3f5e	-1.2128713
248	0x40292d08	2.6433735
249	0x3ea8c1c3	0.32960328
250	0xbfbec585	-1.4904028
251	0x3f664733	0.8995239
252	0xbefed7d2	-0.49774033
253	0x3f8c9341	1.0982438
254	0xbf69551b	-0.91145486
255	0x40002521	2.0022662

_BaseModel__beta_s f4 [2]
0	0x40396a9e	2.8971324
1	0xbf244510	-0.6416788

_BaseModel__prior_b_sigma_s f4 [100]
0	0x402c50e4	2.6924372
1	0xbfb705b2	-1.4298613
2	0xbfd50799	-1.6642944
3	0xc00cba0c	-2.1988554
4	0xbffb35c4	-1.9625783
5	0xbfd041f6	-1.627013
6	0xbfaa8df8	-1.3324575
7	0xbf991b2f	-1.1961421
8	0x408fd0a0	4.494217
9	0x40949d1e	4.6441793
10	0xbf0b284f	-0.5435838
11	0xc00929e2	-2.1431813
12	0xbfe52ffb	-1.7905267
13	0xc020d917	-2.51325
14	0xc02ce170	-2.7012596
15	0xc03b5045	-2.9267743
16	0xc025fab7	-2.5934274
17	0xc0276174	-2.615323
18	0xc016ce02	-2.3563237
19	0xc0080871	-2.1255152
20	0x4026bd23	2.605294
21	0x403f3736	2.9877448
22	0x405ee155	3.4825032
23	0x406d7bd8	3.7106838
24	0x40747f55	3.8202717
25	0x407ff739	3.9994643
26	0x40a7777a	5.2333345
27	0x40cdacc2	6.4273386
28	0x40d04805	6.5087914
29	0x40de13c5	6.9399133
30	0x408c2172	4.3790827
31	0xc0019766	-2.0248656
32	0xc004e0d8	-2.0762234
33	0xc00081f5	-2.007932
34	0xc00c7b59	-2.1950285
35	0xbf4dbd3f	-0.8036689
36	0x407d61aa	3.959086
37	0x40a44ab4	5.134119
38	0x40d02293	6.5042205
39	0x410f2e27	8.948768
40	0x41078c9a	8.471827
41	0x40a5b999	5.178906
42	0x409b5cba	4.855069
43	0x403a1869	2.9077399
44	0xbff20e3f	-1.8910598
45	0xbff0ab03	-1.8802189
46	0xc0011a67	-2.0172365
47	0xc00f4578	-2.238615
48	0xc00ead36	-2.229322
49	0xc0139b28	-2.306345
50	0xc019d824	-2.4038172
51	0xc02e01cb	-2.7188594
52	0xc0551ac1	-3.329758
53	0xc04c932f	-3.1964834
54	0xc04660ec	-3.0996656
55	0xc02c265a	-2.6898408
56	0xc048ee04	-3.1395273
57	0xc048fd64	-3.1404657
58	0xc049139e	-3.1418223
59	0xc046d533	-3.1067626
60	0xc02edbcb	-2.732165
61	0xc01c45fb	-2.4417713
62	0xc00a3348	-2.15938
63	0xbfd6231f	-1.6729468
64	0xbff823a4	-1.9385877
65	0x4034586b	2.8178966
66	0x401f14ef	2.4856527
67	0x40221c54	2.532979
68	0x4018f668	2.3900394
69	0x4020b5be	2.5110927
70	0x4029133b	2.6417987
71	0x4020606d	2.5058854
72	0x3fe679b4	1.8005891
73	0xc01cc1c9	-2.4493277
74	0xc0344873	-2.816922
75	0xc049bc43	-3.1521156
76	0xc0527c49	-3.2888358
77	0xc0500c42	-3.2507482
78	0xc060a7ce	-3.510242
79	0xc06f44f9	-3.7385848
80	0xc065c9b9	-3.5904372
81	0xc0662fd0	-3.5966682
82	0xc05a5f2c	-3.4120588
83	0xc051a624	-3.2757654
84	0xc04ab04e	-3.1670108
85	0xc0304496	-2.7541862
86	0xc04706ff	-3.109802
87	0xc03fd500	-2.9973755
88	0xc0494388	-3.1447468
89	0xc03ad180	-2.9190369
90	0xc014f6f0	-2.3275719
91	0xbff83106	-1.9389961
92	0xbfc2e4fc	-1.522613
93	0x4062b28a	3.5421472
94	0x4077ff48	3.8749561
95	0x40898925	4.2979913
96	0x40a6e8bf	5.2159114
97	0x40ad2770	5.411064
98	0x40c2f5d9	6.0925107
99	0x408f72b2	4.482751

_BaseModel__prior_c_sigma_s f4 [100]
0	0xc00e5cf1	-2.2244227
1	0xbf82df7b	-1.0224451
2	0x40ad48e5	5.4151483
3	0x40ba149c	5.815016
4	0xc040e91d	-3.014228
5	0x40b2fe88	5.5935707
6	0x407ec9e8	3.9810734
7	0xc00c5559	-2.1927092
8	0xc00ad8c0	-2.1694794
9	0xbf1f6412	-0.6226207
10	0xc09f5ca7	-4.98006
11	0xc09cc8f3	-4.89953
12	0x40652d25	3.5808804
13	0xc099cd2e	-4.8062963
14	0xc092595b	-4.5734076
15	0xc09e97ad	-4.956015
16	0xc09e3193	-4.9435515
17	0xc0a15539	-5.041653
18	0x4050bce7	3.2615297
19	0xc09c3c2e	-4.882346
20	0x40b50069	5.6563
21	0x40b5879d	5.6728044
22	0x40adb748	5.428623
23	0x3fbd3e6f	1.4784678
24	0x40cd6f65	6.419848
25	0x40aa4c4a	5.3218126
26	0x4095a202	4.6760263
27	0x4090bb29	4.5228467
28	0x40a86dcb	5.2634025
29	0x40a8fb5d	5.280684
30	0x40b6a041	5.7070622
31	0x40aaf2da	5.342145
32	0x40a3aa85	5.1145654
33	0x40809141	4.017731
34	0x4097f20e	4.7482977
35	0x40932c76	4.5991774
36	0x40c989fb	6.2980933
37	0xbf82bc83	-1.0213779
38	0x40b95720	5.7918854
39	0x408d94e6	4.424426
40	0xc0a54406	-5.1645536
41	0x40e34f0b	7.103399
42	0xc09d417d	-4.914244
43	0xc0a6fd93	-5.218454
44	0xc0a72ad4	-5.223978
45	0xc0a729d3	-5.2238555
46	0xbfd70225	-1.679753
47	0xc0a2b4a3	-5.0845504
48	0xc0a36fe9	-5.107411
49	0xc0a74def	-5.2282634
50	0xc09a2b47	-4.817783
51	0xc095d5fd	-4.6823716
52	0xc09b7ef9	-4.8592496
53	0x408737c6	4.2255583
54	0xc09e4eb1	-4.947106
55	0xc09ca7eb	-4.895498
56	0xc07bdc3c	-3.935317
57	0xc09a9f76	-4.8319654
58	0xc09994be	-4.799407
59	0x409f9341	4.9867253
60	0xc0a71d7b	-5.2223487
61	0xc09550f9	-4.6661344
62	0xc0966345	-4.699618
63	0x407b1236	3.9229865
64	0xc0a15f09	-5.042851
65	0xc09882ec	-4.7659817
66	0xc09bb2bd	-4.8655686
67	0xc0767de0	-3.8514328
68	0xc08726bb	-4.223478
69	0xc099aa42	-4.8020334
70	0x3e7b0d6a	0.24516836
71	0x404ad5d9	3.1693022
72	0x3e927890	0.28607607
73	0x3f402255	0.75052387
74	0x3ec70380	0.38869858
75	0x410f6606	8.962408
76	0x40bdf9d4	5.9367466
77	0x40d3169c	6.59651
78	0x40bc2a29	5.8801465
79	0x3ea816e4	0.32829964
80	0x40c352ea	6.1038713
81	0x40b33294	5.599924
82	0x40a6493d	5.19644
83	0x40970e42	4.7204905
84	0x40b661e0	5.6994476
85	0x40b0e1d5	5.5275674
86	0x4110fd68	9.061867
87	0x40c59e79	6.175595
88	0x409a2616	4.817149
89	0x40a4d838	5.151394
90	0xc07d0c96	-3.9538932
91	0xc09f5ef2	-4.98034
92	0xc0a9e55d	-5.3092484
93	0xc08809ea	-4.25121
94	0xc07de121	-3.9668658
95	0xc0ac3b34	-5.382227
96	0xc0a97080	-5.294983
97	0xc090e06c	-4.5273952
98	0xc0a306e0	-5.094589
99	0xc0a68b04	-5.2044697
