experiments/models_mr=0.1_cr=0.1_pr=0.1/residual_synthetic_n=100_seed=16_B=100_lambda=1e3_dim=2_epoch=300_spe=10_bs=100_lr=0.1_seed=20.model (torch, 84927 bytes, 5 tensors)

_BaseModel__x0_s f4 [100, 2]
-1.2431527 -0.9789233 -1.5180032 -0.9503999 -1.3863415 -0.9412167 -1.4136738 -0.9966357
-1.3690742 -1.1415008 -1.2764606 -1.1338245 -1.291466 -1.1244439 -1.3780229 -1.1080364
-1.1762983 -1.089423 -0.9683216 -1.1880504 0.5821242 -2.5831792 1.0695847 -2.627014
1.2847598 -2.6830938 0.9399322 -2.5408878 1.3333602 -2.7324328 0.746252 -2.6361248
1.067483 -2.5919166 0.8300354 -2.7652466 0.99277675 -2.4576783 0.81733173 -2.7158923
-2.7039492 -0.08977406 -2.4204915 0.13257666 -2.45907 0.20325667 -2.1347215 -0.0029545287
-2.530718 0.6049029 -2.6399186 0.39708748 -2.495767 0.37378398 -2.5502985 0.20635705
-2.5426872 0.20039439 -2.5010476 0.2737206 1.7362351 -0.97635084 2.185169 -1.1099309
2.1272051 -1.1240325 2.2070765 -1.3280376 2.0883522 -1.0930471 2.178578 -1.370534
1.8906428 -0.9495474 2.094625 -1.2886295 2.0661285 -1.0158544 2.073436 -1.25997
-5.334295 -2.1355536 -5.4420977 -2.8153963 -4.74313 -2.2402253 -5.4944406 -2.3887095
-4.852756 -2.47322 -4.9380207 -2.578549 -5.4273696 -1.9942999 -5.5764318 -2.2943766
-4.768306 -2.5361316 -4.8724294 -2.4177327 1.5642668 0.747954 1.8327631 0.636023
1.4719152 0.8202347 1.3353883 0.6567897 1.8379956 0.6225594 1.7138648 0.6367132
1.8308384 0.871478 1.8575164 0.53914857 1.3913791 0.8645469 1.280228 0.81830966
1.06642 3.086059 1.5071034 2.7637057 1.4046286 3.1610954 2.0818822 2.657284
1.369659 3.1458373 1.9698803 3.2609835 1.5996561 2.81214 1.8190184 3.0624301
1.5974135 2.7250981 1.6557301 2.8166428 -0.3549767 0.3447708 0.21192256 0.44677418
-1.0196565 0.84783083 -0.9474705 0.79384035 -0.883702 0.96132505 -0.65171254 1.0870317
-0.82044864 0.4186314 -0.47675055 1.0287998 -1.0354669 0.5082703 -0.8939088 0.6231626
-0.067032784 -1.2172937 0.45640278 -1.0954299 -0.10376586 -1.2557745 0.36197445 -1.1019106
-0.07370083 -0.997113 0.14908996 -1.2575256 0.26544693 -1.3198723 0.47055864 -1.3999484
0.28500748 -1.1936364 0.23413847 -1.0587664 5.4625072 3.4228868 4.9875484 3.6574535
4.807855 3.8554223 5.2632504 4.2005515 5.407105 4.241403 5.0985875 3.983389
5.344723 3.8960516 4.8323946 4.5182023 5.1603637 3.2471163 5.2025943 3.5430617
00000000: a11f 9fbf b89a 7abf ee4d c2bf 684d 73bf
00000010: a373 b1bf 94f3 70bf 43f3 b4bf 8423 7fbf
00000020: d33d afbf b31c 92bf 1063 a3bf 2921 91bf
00000030: c24e a5bf c7ed 8fbf 0e63 b0bf 23d4 8dbf
00000040: f190 96bf 3672 8bbf ede3 77bf 0912 98bf
00000050: 1706 153f cf52 25c0 27e8 883f ff20 28c0
00000060: 0273 a43f cfb7 2bc0 669f 703f e89d 22c0
00000070: 8cab aa3f 2ee0 2ec0 5f0a 3f3f 45b6 28c0
00000080: 48a3 883f f6e1 25c0 337d 543f cdf9 30c0
00000090: 9e26 7e3f 9a4a 1dc0 a73c 513f 2ed1 2dc0
000000a0: 810d 2dc0 76db b7bd 55e9 1ac0 2dc2 073e
000000b0: 6761 1dc0 8422 503e 479f 08c0 c4a0 41bb
000000c0: 49f7 21c0 ebda 1a3f 6df4 28c0 0d4f cb3e
000000d0: a6ba 1fc0 9d60 bf3e 1738 23c0 434f 533e
000000e0: 63bb 22c0 3034 4d3e 2a11 20c0 1b25 8c3e
000000f0: f43c de3f 21f2 79bf cfd9 0b40 3712 8ebf
00000100: 2124 0840 4ce0 8fbf be40 0d40 23fd a9bf
00000110: 90a7 0540 f8e8 8bbf d26d 0b40 a86d afbf
00000120: 9500 f23f 8a15 73bf 560e 0640 d0f1 a4bf
00000130: 733b 0440 8407 82bf 2db3 0440 b246 a1bf
00000140: 8bb2 aac0 e9ac 08c0 aa25 aec0 742f 34c0
00000150: b9c7 97c0 da5f 0fc0 75d2 afc0 9ee0 18c0
00000160: c749 9bc0 3d49 1ec0 4404 9ec0 f206 25c0
00000170: 03ad adc0 3845 ffbf 2172 b2c0 11d7 12c0
00000180: f695 98c0 fb4f 22c0 f1ea 9bc0 22bc 1ac0
00000190: e539 c83f ea79 3f3f fb97 ea3f 67d2 223f
000001a0: b867 bc3f e7fa 513f 01ee aa3f 5f23 283f
000001b0: 7143 eb3f 0e60 1f3f ec5f db3f a3ff 223f
000001c0: ea58 ea3f 2f19 5f3f 19c3 ed3f a405 0a3f
000001d0: b618 b23f f252 5d3f 83de a33f be7c 513f
000001e0: 7380 883f fe81 4540 c4e8 c03f 8ee0 3040
000001f0: dfca b33f 634f 4a40 8f3d 0540 f110 2a40
00000200: fc50 af3f 6655 4940 0a25 fc3f f4b3 5040
00000210: 88c1 cc3f 1afa 3340 98d5 e83f dbfe 4340
00000220: 0c78 cc3f 0268 2e40 f7ee d33f e043 3440
00000230: 82bf b5be cc85 b03e 3a02 593e 96bf e43e
00000240: 1b84 82bf 710b 593f 6d8d 72bf 1f39 4b3f
00000250: 4b3a 62bf 6619 763f a2d6 26bf db23 8b3f
00000260: ec08 52bf db56 d63e a618 f4be b6af 833f
00000270: 2e8a 84bf 011e 023f 35d7 64bf 9687 1f3f
00000280: 7c48 89bd 48d0 9bbf a0ad e93e 0c37 8cbf
00000290: 3283 d4bd 38bd a0bf b754 b93e 680b 8dbf
000002a0: 76f0 96bd cc42 7fbf 0aab 183e 99f6 a0bf
000002b0: a9e8 873e 93f1 a8bf 10ed f03e 8231 b3bf
000002c0: 80ec 913e 14c9 98bf ffc1 6f3e a885 87bf
000002d0: dccc ae40 9410 5b40 ff99 9f40 b813 6a40
000002e0: f3d9 9940 3dbf 7640 8c6c a840 eb6a 8640
000002f0: 0107 ad40 93b9 8740 a127 a340 d8ef 7e40
00000300: f907 ab40 e958 7940 faa2 9a40 1d95 9040
00000310: b321 a540 c1d0 4f40 a77b a640 86c1 6240

_BaseModel__v_s f4 [100, 100, 2]
-0.15004608 0.4777664 -0.14701982 0.49261492 -0.14888094 0.4828396 -0.20475176 0.48844907
-0.15419422 0.47719967 -0.20465034 0.4965961 -0.14859585 0.48297274 -0.15598254 0.48305336
-0.14747664 0.47730958 -0.24792616 0.49443054 -0.1471289 0.48178327 -0.13231596 0.47953117
-0.14624594 0.48251784 -0.14706609 0.47810867 -0.1473901 0.48538488 -0.15603092 0.48371193
-0.14595969 0.4782779 -0.14487076 0.47974002 -0.14687209 0.48084962 -0.147635 0.47966242
-0.14296488 0.4834361 -0.15399814 0.48447362 -0.14629957 0.48115367 -0.14841725 0.48187467
-0.14598621 0.48472175 -0.14777006 0.48090693 -0.14523362 0.48436236 -0.1611481 0.48756227
-0.14795688 0.48207024 -0.14938523 0.48246825 -0.14644408 0.48055053 -0.14854315 0.4818445
-0.14705475 0.4816892 -0.15074916 0.48028222 -0.144432 0.47913358 -0.14930655 0.4824316
-0.14908314 0.48090738 -0.14565319 0.47899407 -0.14051296 0.48742393 -0.1488463 0.48841915
-0.14812297 0.4751794 -0.14571935 0.48143026 -0.14437075 0.48181918 -0.14345722 0.4824292
-0.14963755 0.48631784 -0.14876702 0.47841105 -0.140575 0.48933008 -0.14600055 0.48943105
-0.14388075 0.48106557 -0.14658293 0.48174748 -0.14331317 0.48294982 -0.14245951 0.48541626
-0.14893816 0.4795074 -0.15312429 0.48071676 -0.14627397 0.47848195 -0.14821504 0.4841688
-0.14359435 0.48056927 -0.14896399 0.48639518 -0.14838167 0.4850381 -0.15000339 0.48394376
-0.14374608 0.48290065 -0.14389823 0.47864076 -0.1443247 0.48405927 -0.13967197 0.48341075
-0.14113298 0.4887249 -0.14628537 0.4856336 -0.14614846 0.48034492 -0.14596497 0.48095918
-0.14777215 0.48275182 -0.14460094 0.479436 -0.14856574 0.4834813 -0.21479195 0.52015567
-0.1537348 0.4902333 -0.1477613 0.4807564 -0.15135725 0.49829987 -0.18537262 0.49917954
-0.15175177 0.4779383 -0.24007536 0.53602684 -0.14894205 0.4805808 -0.14681761 0.4841442
0.6740757 0.37984022 -0.13724864 0.48575085 -0.22886929 0.484757 -0.15249646 0.48402283
-0.23195769 0.4874364 -0.08615675 0.39238888 -0.24432325 0.47644126 -0.21693628 0.4836992
-0.17032167 0.489367 -0.21151635 0.5059141 -0.1480063 0.48363394 -0.14300175 0.47951612
-0.1446874 0.48034048 -0.14531443 0.48301172 -0.14419284 0.48225245 -0.15003258 0.48323992
-0.14899924 0.4884933 -0.14535537 0.48030144 -0.14721753 0.48244137 -0.14404115 0.4879197
-0.19573407 0.693028 -0.20928688 0.70008993 -0.21932098 0.6906274 -0.46448255 0.7603476
-0.1821563 0.7021124 -0.43548465 0.75306815 -0.21012369 0.69881475 -0.20016232 0.69313824
-0.21887511 0.69650817 -0.5238651 0.7948342 -0.21184479 0.7046126 -0.21223992 0.694198
-0.20827839 0.6906674 -0.21414132 0.6973736 -0.19785601 0.6996485 -0.20660967 0.6944963
-0.21491854 0.6964126 -0.20723736 0.693582 -0.21254484 0.698491 -0.20228378 0.6935354
-0.24285492 0.6986577 -0.21396188 0.7002811 -0.18781257 0.6975169 -0.23709431 0.7100542
-0.19868222 0.7358254 -0.18264046 0.68650496 -0.21002476 0.7003642 -0.2810444 0.71939963
00000000: aea5 19be cc9d f43e 5d8c 16be 0638 fc3e
00000010: 3f74 18be c136 f73e 72aa 51be ff15 fa3e
00000020: 17e5 1dbe 8453 f43e dc8f 51be d841 fe3e
00000030: 8329 18be 3448 f73e e3b9 1fbe c552 f73e
00000040: 1e04 17be ec61 f43e 5be0 7dbe 0026 fd3e
00000050: f5a8 16be 4cac f63e d67d 07be 1c85 f53e
00000060: 7fc1 15be 940c f73e 7e98 16be a9ca f43e
00000070: 6eed 16be 5e84 f83e 92c6 1fbe 17a9 f73e
00000080: 7576 15be d7e0 f43e 0059 14be 7ca0 f53e
00000090: a365 16be ec31 f63e a12d 17be 5096 f53e
000000a0: 6365 12be f084 f73e b0b1 1dbe ed0c f83e
000000b0: 8ecf 15be c659 f63e b1fa 17be 47b8 f63e
000000c0: 697d 15be 732d f83e 0951 17be 6f39 f63e
000000d0: 1fb8 14be 58fe f73e 0204 25be c3a1 f93e
000000e0: 0282 17be e9d1 f63e 71f8 18be 1406 f73e
000000f0: 70f5 15be b80a f63e b21b 18be 53b4 f63e
00000100: 8595 16be f89f f63e fd5d 1abe 8de7 f53e
00000110: fbe5 13be ff50 f53e d1e3 18be 4601 f73e
00000120: 40a9 18be 7e39 f63e 1c26 15be b63e f53e
00000130: a1e2 0fbe a18f f93e 2a6b 18be 1312 fa3e
00000140: 8cad 17be b74a f33e 7437 15be 077e f63e
00000150: edd5 13be 01b1 f63e 73e6 12be f600 f73e
00000160: 963a 19be a7fe f83e 6256 18be 4bf2 f43e
00000170: e5f2 0fbe 7989 fa3e 2b81 15be b596 fa3e
00000180: 7a55 13be 3a4e f63e d619 16be 9ba7 f63e
00000190: b0c0 12be 3345 f73e e8e0 11be 7b88 f83e
000001a0: 3f83 18be fe81 f53e 9dcc 1cbe 8220 f63e
000001b0: d8c8 15be 96fb f43e afc5 17be f9e4 f73e
000001c0: 660a 13be 2d0d f63e 048a 18be ca08 f93e
000001d0: 5df1 17be ea56 f83e 7d9a 19be 7ac7 f73e
000001e0: 2c32 13be c13e f73e 0f5a 13be 6710 f53e
000001f0: dbc9 13be 9ed6 f73e 2b06 0fbe 9d81 f73e
00000200: 2a85 10be 263a fa3e d5cb 15be f8a4 f83e
00000210: f1a7 15be c5ef f53e d777 15be 4840 f63e
00000220: 9551 17be 3f2b f73e 4512 14be a378 f53e
00000230: 9e21 18be dc8a f73e 6cf2 5bbe ec28 053f
00000240: a86c 1dbe dcff fa3e bd4e 17be b425 f63e
00000250: 65fd 1abe 2921 ff3e 52d2 3dbe 7694 ff3e
00000260: d164 1bbe 54b4 f43e 51d6 75be 0e39 093f
00000270: 4484 18be b00e f63e 5b57 16be c0e1 f73e
00000280: 3a90 2c3f 6b7a c23e e88a 0cbe 56b4 f83e
00000290: b65c 6abe 1232 f83e 0828 1cbe d7d1 f73e
000002a0: 5186 6dbe 4491 f93e f372 b0bd 32e7 c83e
000002b0: e02f 7abe 1cf0 f33e 8b24 5ebe 6ca7 f73e
000002c0: ce68 2ebe 508e fa3e be97 58be 9683 013f
000002d0: f78e 17be de9e f73e 0d6f 12be 2383 f53e
000002e0: ef28 14be 30ef f53e 4ecd 14be 504d f73e
000002f0: 4aa7 13be cbe9 f63e 24a2 19be 396b f73e
00000300: 4293 18be cb1b fa3e 0ad8 14be 12ea f53e
00000310: 31c0 16be 8e02 f73e 867f 13be 9cd0 f93e
00000320: 836e 48be 486a 313f 4d4f 56be 1839 333f
00000330: ae95 60be f5cc 303f a8d0 edbe 24a6 423f
00000340: 2e87 3abe a3bd 333f d8f7 debe 13c9 403f
00000350: aa2a 57be 86e5 323f 5af7 4cbe 8271 313f
00000360: cc20 60be 5c4e 323f 061c 06bf 417a 4b3f
00000370: d7ed 58be 7e61 343f 6c55 59be f6b6 313f
00000380: ee46 55be 94cf 303f dd47 5bbe 1487 323f
00000390: c49a 4abe 2a1c 333f 7c91 53be 82ca 313f
000003a0: 9b13 5cbe 1948 323f 0836 54be 978e 313f
000003b0: 5ba5 59be 4ed0 323f 7b23 4fbe 898b 313f
000003c0: f6ae 78be 3bdb 323f d318 5bbe 9f45 333f
000003d0: f051 40be 7890 323f dac8 72be 1dc6 353f
000003e0: 5a73 4bbe 0e5f 3c3f 1a06 3bbe cabe 2f3f
000003f0: bb10 57be 114b 333f 0de5 8fbe 932a 383f

_BaseModel__beta_s f4 [2]
2.7164497 -0.49013406
00000000: 50da 2d40 daf2 fabe

_BaseModel__prior_b_sigma_s f4 [100]
-3.220522 -1.9746051 -1.6472383 -3.3185592 -3.580094 -3.192006 -2.7319193 1.8262578
2.3687277 2.2591255 -1.2935561 -2.7718213 -2.8450086 -2.21281 -3.5214944 -1.8230237
-1.8012011 -1.0780896 -1.0638694 1.428993 1.5953685 2.8855646 3.5993252 3.5823402
1.5983698 2.1669471 4.04963 6.1342382 5.5014567 5.66178 3.7695816 -1.4570291
-1.411256 -0.9656192 -3.2853613 -1.4860997 2.427253 4.859056 6.870531 7.730836
7.033483 3.3571517 2.8853316 1.3158302 1.5179594 1.9532665 1.4335108 1.5659528
-3.226789 -1.5706184 -2.4862347 -2.1195452 -3.838707 -1.1571064 -1.5709163 -2.9215505
-0.9282389 -1.1217438 -2.3663816 -0.9271493 -1.262886 1.0157226 -2.5394657 1.6806364
-1.2161196 1.6060365 1.4675626 0.6467775 1.0236131 2.1107016 3.6374922 3.7472665
2.8402503 -1.2678003 -3.4260347 -2.6571994 -3.6367633 -1.3767569 -3.8193665 -3.5266986
-3.6643229 -4.1119566 -2.167215 -1.6965843 -3.557903 -3.2376804 -1.6853836 -2.9220679
-4.000433 -2.98149 -2.4793673 -4.0757766 -2.8383572 -1.5376928 -1.6022666 -1.7440059
-3.6516025 -1.4112188 -3.7211359 -2.5796885
00000000: 081d 4ec0 dcbf fcbf b4d8 d2bf 4663 54c0
00000010: 4320 65c0 d449 4cc0 c4d7 2ec0 d1c2 e93f
00000020: 3c99 1740 8395 1040 3f93 a5bf 8565 31c0
00000030: 9f14 36c0 ae9e 0dc0 2a60 61c0 d758 e9bf
00000040: c28d e6bf d7fe 89bf df2c 88bf 3ee9 b63f
00000050: 0935 cc3f 17ad 3840 585b 6640 1045 6540
00000060: 6297 cc3f 43af 0a40 9296 8140 ae4b c440
00000070: ef0b b040 4d2d b540 d340 7140 ee7f babf
00000080: 09a4 b4bf d232 77bf 5c43 52c0 8438 bebf
00000090: 1d58 1b40 637d 9b40 64db db40 0263 f740
000000a0: 4b12 e140 93db 5640 46a9 3840 206d a83f
000000b0: 7e4c c23f a304 fa3f 487d b73f 2471 c83f
000000c0: b683 4ec0 060a c9bf 781e 1fc0 a1a6 07c0
000000d0: 60ad 75c0 101c 94bf c913 c9bf affa 3ac0
000000e0: 11a1 6dbf 4d95 8fbf cc72 17c0 a859 6dbf
000000f0: 40a6 a1bf 3303 823f 9b86 22c0 181f d73f
00000100: cfa9 9bbf 9b92 cd3f 17d9 bb3f 3693 253f
00000110: c105 833f bc15 0740 accc 6840 37d3 6f40
00000120: a9c6 3540 4847 a2bf 2744 5bc0 8e0f 2ac0
00000130: bbc0 68c0 9239 b0bf 8070 74c0 6eb5 61c0
00000140: 4484 6ac0 2695 83c0 a7b3 0ac0 ad29 d9bf
00000150: afb4 63c0 2836 4fc0 a6ba d7bf 2903 3bc0
00000160: 8c03 80c0 bbd0 3ec0 f4ad 1ec0 c36c 82c0
00000170: a5a7 35c0 1ed3 c4bf 1217 cdbf 963b dfbf
00000180: dbb3 69c0 d1a2 b4bf 1727 6ec0 9e19 25c0

_BaseModel__prior_c_sigma_s f4 [100]
-1.4571635 1.2251931 1.8488376 4.5292125 -2.1886492 4.309319 0.5468863 2.4138193
2.2417943 5.8747053 0.12768093 -1.0880294 -1.3800662 -0.7428789 -2.3442886 -1.4770817
-0.7903346 -2.1327837 -0.005254738 -1.11828 2.6725383 0.9768998 -1.9604567 2.9545295
1.4340816 -1.249341 1.3551283 3.5214624 0.35809675 1.1340301 1.1159235 0.9738644
-2.213668 0.8757428 -0.98520917 1.0269823 1.049288 -0.8352505 -1.2610103 -2.129081
-1.2899786 -1.2970859 -2.2415636 -1.4761821 -2.066083 -1.5164629 -1.2393498 -1.3067056
-1.7832947 -1.3608375 -2.1622863 -1.3303424 -2.3957794 -0.07811489 -2.0061915 -1.4627043
-2.2344682 -1.2373801 -2.3911831 -1.5872161 -1.3359587 -2.9847643 -1.5292526 -1.0950263
-1.4917718 -1.4396276 -2.1229522 -1.5293595 -1.6732254 -1.5536442 1.331534 7.3871675
-2.465436 2.144044 3.0927508 4.6112933 2.0513597 7.242235 0.4800214 -0.9282388
8.160736 2.0482178 6.4791527 2.6600497 4.8199806 4.8133645 8.657472 6.8688827
2.9028697 5.4383664 -2.3621297 -1.7271706 -2.066536 -1.4205996 -1.6673098 -1.3022351
-1.7710879 -1.3127164 -1.6623477 -1.3672259
00000000: 5584 babf 21d3 9c3f b6a6 ec3f 4fef 9040
00000010: d412 0cc0 f1e5 8940 be00 0c3f 047c 1a40
00000020: 8f79 0f40 96fd bb40 cabe 023e 8c44 8bbf
00000030: 02a6 b0bf 502d 3ebf d308 16c0 0311 bdbf
00000040: 5e53 4abf 877f 08c0 f02f acbb cd23 8fbf
00000050: de0a 2b40 1b16 7a3f 3ff0 fabf 0317 3d40
00000060: fc8f b73f 68ea 9fbf d874 ad3f a45f 6140
00000070: 7558 b73e e627 913f 95d6 8e3f 2d4f 793f
00000080: bdac 0dc0 ae30 603f ab36 7cbf 2874 833f
00000090: 124f 863f fad2 55bf c968 a1bf dd42 08c0
000000a0: 051e a5bf e906 a6bf c775 0fc0 89f3 bcbf
000000b0: b43a 04c0 751b c2bf 04a3 9ebf 2142 a7bf
000000c0: 0043 e4bf ec2f aebf e662 0ac0 a948 aabf
000000d0: 7354 19c0 b3fa 9fbd 7165 00c0 e539 bbbf
000000e0: 8701 0fc0 7962 9ebf 2509 19c0 e629 cbbf
000000f0: b200 abbf 6106 3fc0 8dbe c3bf d229 8cbf
00000100: 61f2 bebf b845 b8bf 73de 07c0 0dc2 c3bf
00000110: 402c d6bf d0dd c6bf b56f aa3f ad63 ec40
00000120: b4c9 1dc0 0438 0940 a1ef 4540 b78f 9340
00000130: 7a49 0340 64c0 e740 5dc5 f53e 0fa1 6dbf
00000140: 6092 0241 0016 0340 3855 cf40 413e 2a40
00000150: 483d 9a40 1507 9a40 0185 0a41 e3cd db40
00000160: 9ec8 3940 1907 ae40 222d 17c0 ed13 ddbf
00000170: 2042 04c0 35d6 b5bf 686a d5bf a4af a6bf
00000180: 02b3 e2bf 1707 a8bf cfc7 d4bf 4201 afbf
