experiments/models_mr=0.1_cr=0.1_pr=0.1/residual_synthetic_n=100_seed=16_B=100_lambda=1e5_dim=2_epoch=300_spe=10_bs=100_lr=0.1_seed=10.model (torch, 84927 bytes, 5 tensors)

_BaseModel__x0_s f4 [100, 2]
000000 2d 82 ef 3f 3f e0 9e bf 29 f6 a6 3f a0 90 99 be
       1.8711601 -1.2412184 1.3043872 -0.29993153
000010 70 10 e0 3f 9a f5 a0 bf d2 38 eb 3f 25 5a c5 bf
       1.7505016 -1.2574952 1.8376715 -1.5418135
000020 e8 be f8 3f 01 8f a3 bf 4c 79 9a 3f 15 c5 03 bf
       1.943326 -1.2778016 1.2068267 -0.514726
000030 52 c1 fa 3f 93 30 8f bf 52 99 81 3f b3 90 0d bf
       1.9590247 -1.1186699 1.0124915 -0.5529892
000040 65 e4 8b 3f 0e e9 08 bf 36 13 cc 3f cc 1b e1 be
       1.0929075 -0.53480613 1.5943363 -0.4396652
000050 37 60 45 bf c7 65 c6 3f fc 4e 05 bf 1a 2e be 3f
       -0.7709994 1.549981 -0.52073646 1.4857819
000060 e3 8a 4e bf e1 89 a0 3f 90 87 30 bf 99 74 b7 3f
       -0.80680674 1.2542077 -0.6895685 1.4332458
000070 1f 03 32 3e e9 92 f3 3f de 3b 05 3f 73 ff e1 3f
       0.17384003 1.9029208 0.52044475 1.7656082
000080 d8 8a 04 3f ea 6d f2 3f ea 84 b7 3e a2 35 e9 3f
       0.5177436 1.8939793 0.35843593 1.8219492
000090 11 72 e1 3d dc eb c8 3f 8a 91 56 bf 03 10 ba 3f
       0.110080846 1.5696979 -0.83815825 1.4536136
0000a0 a7 1e 96 3f 3f 7d 4b c0 55 be 8c 3f 46 b5 3c c0
       1.1728104 -3.1795194 1.0995585 -2.948564
0000b0 64 05 38 3f 6b 39 41 c0 12 8a a6 3f 42 7e 25 c0
       0.71883225 -3.0191295 1.3010886 -2.5858312
0000c0 07 90 f3 3e e0 c4 46 c0 a7 83 56 3f 74 6a 4c c0
       0.47570822 -3.1057663 0.83794636 -3.1939974
0000d0 4d cc a3 3f 9d 21 48 c0 4d bb ae 3f ad 51 3b c0
       1.2796723 -3.1270516 1.365091 -2.92686
0000e0 ab e4 9b 3f c0 84 30 c0 e5 35 85 3f 3f 9e 3f c0
       1.2179159 -2.7581024 1.0407072 -2.9940336
0000f0 02 88 ef bd 30 e7 24 40 c0 92 34 bf 7f d6 42 40
       -0.11695863 2.5766106 -0.7053642 3.0443418
000100 05 4a 93 be 3f d3 29 40 e9 18 f1 be 4d 13 2d 40
       -0.2876741 2.6535184 -0.47089317 2.704303
000110 24 cc 63 bf 1e b9 2c 40 47 df 40 bf 28 d7 25 40
       -0.8898337 2.6987987 -0.75340694 2.591257
000120 b4 88 4d bf 8e 22 15 40 fc 23 4f be 02 9a 4b 40
       -0.8028672 2.330234 -0.2022857 3.181275
000130 00 da 9f be cd 5b 5f 40 d5 31 71 bf e8 dc 30 40
       -0.31221008 3.489978 -0.9421666 2.763483
000140 31 10 7e c0 25 3c 1d 40 58 12 32 c0 cb ef 03 40
       -3.9697382 2.456796 -2.7823696 2.0615108
000150 88 7b 44 c0 c9 61 20 40 16 8b 4e c0 57 d0 f1 3f
       -3.0700397 2.5059683 -3.2272391 1.8891705
000160 fd ee 84 c0 4a 65 37 40 87 20 51 c0 3b be f7 3f
       -4.1541734 2.8655572 -3.2676103 1.9354929
000170 7f 1b 79 c0 37 61 12 40 5e 70 64 c0 73 95 1b 40
       -3.8923032 2.2871835 -3.5693583 2.4309967
000180 b4 27 5e c0 63 e8 f6 3f 10 c4 66 c0 a8 b3 19 40
       -3.4711733 1.9289669 -3.6057167 2.4015903
000190 06 72 8a bf 5a a9 2a 3e 98 b5 db bf 6f 43 a8 be
       -1.0816047 0.16666165 -1.7164793 -0.32863948
0001a0 76 12 40 bf 60 f3 04 bd d3 48 01 bf d5 e6 fa bd
       -0.7502817 -0.032458663 -0.50501746 -0.12251059
0001b0 94 cf c4 bf 0e a6 5d 3e 45 70 dc bf 73 96 61 bd
       -1.5375848 0.21645376 -1.7221762 -0.05507512
0001c0 dd e3 ff be 24 96 b0 3d db ec ed bf f8 8e 6c bd
       -0.49978533 0.08622387 -1.8587908 -0.057753533
0001d0 65 03 90 bf 14 cd 9a be 76 da 87 bf 1b 23 f1 3e
       -1.1251036 -0.30234587 -1.0613544 0.47097096
0001e0 d7 3f 13 40 f0 1f c6 3f e4 4a ac 3f 72 93 5c 3f
       2.3007715 1.5478497 1.3460355 0.86162484
0001f0 86 fa 1c 40 3b 24 8c 3f a3 2d 8c 3e 68 28 0b 3f
       2.4527907 1.0948557 0.27378568 0.5435853
000200 74 f1 12 40 42 76 7a 3f 63 06 c9 3f 20 ab 83 3f
       2.2959871 0.978367 1.5705074 1.0286598
000210 cb 15 c1 3f c5 3e 53 3f 33 9c c1 3f 39 d3 75 3f
       1.5084776 0.82517654 1.5125793 0.96025425
000220 96 6b ab 3f 40 3a 43 3f 38 d1 9c 3f a1 fc 6f 3f
       1.3392208 0.7626076 1.2251348 0.93744856
000230 38 05 e4 bb a1 db e8 bd 1e 08 f9 be 7c e0 1f be
       -0.00695863 -0.11370016 -0.48639005 -0.15612978
000240 46 13 03 bd a0 70 a9 bf 22 a0 78 be cc af d4 bf
       -0.032000802 -1.3237495 -0.24279836 -1.6616149
000250 56 6a 7b 3e 27 3a cb bf 6c 08 51 bd f2 91 c1 bf
       0.24552283 -1.5877122 -0.051033422 -1.5122664
000260 bc 86 4b be 45 34 b5 bf 32 06 ac 3e de eb c3 bf
       -0.19875616 -1.4156576 0.33598477 -1.5306356
000270 4b 3f e6 3e 6a 32 cd bf d3 79 2b 3e 6f 80 c3 bf
       0.44970164 -1.603101 0.16745691 -1.527357
000280 17 e6 81 3e 2f 0a 30 3e 60 f2 5a 3f f1 51 da 3e
       0.25370857 0.17191385 0.85526085 0.4264064
000290 c3 73 a5 3f de 01 e7 be 7d 90 9e 3e 92 16 a4 3e
       1.2925953 -0.45118612 0.3096961 0.3204847
0002a0 f0 53 bf 3f e7 e1 ea bd 58 19 87 3f f6 0d 89 be
       1.4947491 -0.11468869 1.0554609 -0.26768464
0002b0 fe d8 90 3d 40 0e be 3d e5 37 22 bd a0 ca 2a 3f
       0.07072638 0.09280062 -0.039604086 0.6671543
0002c0 81 4f 7c 3f 59 ef a0 be 26 fb 50 3f a5 57 85 3d
       0.98558813 -0.31432608 0.8163322 0.065108575
0002d0 dc d5 2d c0 06 da 53 c0 7c db 1c c0 f1 d3 59 c0
       -2.716178 -3.310182 -2.4508963 -3.4035609
0002e0 e0 9d 15 c0 69 9c 4d c0 37 ff 10 c0 16 3b 46 c0
       -2.337761 -3.2126715 -2.265577 -3.0973563
0002f0 92 1a 1d c0 4b 7e 58 c0 79 ef 24 c0 65 41 78 c0
       -2.4547467 -3.3827083 -2.5771163 -3.8789914
000300 5a d2 3a c0 85 cf 6b c0 48 51 d2 bf 78 80 7c c0
       -2.9190888 -3.684541 -1.6431055 -3.945341
000310 14 e4 16 c0 b4 f4 33 c0 09 cc 52 c0 9a f3 6b c0
       -2.3576708 -2.8118105 -3.2937033 -3.6867433

_BaseModel__v_s f4 [100, 100, 2]
000000 8a e4 ad bd 2a 15 7a 3e a3 30 e4 3f 74 60 eb c0
       -0.08490856 0.24422136 1.7827343 -7.355524
000010 d2 1c 96 be 92 a2 db 3e ba ac ae be c8 8d 69 3e
       -0.29318863 0.4289747 -0.34116155 0.22807992
000020 e9 d8 56 bd b0 a1 96 3e 04 6b 2e 41 ac 2f d6 c0
       -0.052452955 0.29420233 10.901127 -6.6933193
000030 2d 39 1c 3d 74 ae 86 3e 4c c3 a4 40 dc 83 cc bd
       0.038140465 0.26304972 5.14884 -0.09986088
000040 5e d9 17 40 40 6a 39 c0 cc 00 db c0 46 42 df c0
       2.372642 -2.89711 -6.8438473 -6.97684
000050 c8 b1 d8 40 7e 89 99 40 1c f3 0f bf be 7f b3 40
       6.771702 4.7980337 -0.5623033 5.6093435
000060 a9 4c 2f c0 e1 5c fc 40 58 c3 18 c0 74 a0 6d 40
       -2.739054 7.8863378 -2.3869228 3.7129183
000070 6e 3a 01 be 1e 45 a0 3e 30 67 be bd b2 cb 62 3e
       -0.12619945 0.31302732 -0.09297025 0.22148016
000080 06 11 9e bd 22 a8 70 3e 96 39 59 bd 45 02 e7 3e
       -0.07718091 0.23501638 -0.053033434 0.4511892
000090 be 95 32 be 92 b6 81 3e 42 7a 33 40 d6 92 19 bf
       -0.17439935 0.25334603 2.804337 -0.5998968
0000a0 12 8e b5 bd 49 83 0a 3f 1d ac a8 40 09 af dd bf
       -0.088649884 0.54106575 5.27101 -1.7319041
0000b0 fa 44 db bd 10 ee 68 3e 5a 97 07 c0 50 92 92 3d
       -0.107065156 0.22747064 -2.1186128 0.07156813
0000c0 ad 4c 84 bd 1c d8 0e 3f 22 26 8a bd 66 1c 85 3e
       -0.06459937 0.55798507 -0.067455545 0.2599823
0000d0 74 99 85 c0 c8 98 b8 3f b9 94 fe 40 df e7 be bf
       -4.174982 1.4421625 7.9556546 -1.4914511
0000e0 60 ab 81 bf a5 63 ea c0 e6 ca 65 c0 d6 36 e4 c0
       -1.0130424 -7.3246636 -3.590509 -7.131694
0000f0 f2 ad 03 be 3b ce 88 3e 95 d4 b6 bd 01 a5 83 3e
       -0.12859324 0.2671984 -0.089272656 0.25711825
000100 5d 58 4a 40 eb 06 1f 41 cf 46 2a be 99 f8 93 3e
       3.1616433 9.939189 -0.16628574 0.28900602
000110 24 3e ee bd 20 a6 8a 3e 9d 9b 00 be 5e f4 e0 3e
       -0.11632946 0.27079868 -0.12559362 0.43936437
000120 12 73 03 be 46 9b 91 3e 78 3a 13 be bf 43 81 3e
       -0.12836865 0.28438777 -0.14377773 0.25247
000130 22 59 a5 bd 6c 9d 9b 3e ba dc c6 bd d1 58 6b 3e
       -0.08073641 0.3039354 -0.09710069 0.229831
000140 4f b0 55 c0 fd 13 2c 40 0e 50 0d c1 10 c7 0b bd
       -3.338886 2.68872 -8.832045 -0.034125388
000150 29 8e 17 c1 2b f2 de 40 3d f3 1f c1 05 54 6e 40
       -9.472207 6.9670615 -9.996884 3.7238781
000160 aa 34 30 3e e4 d3 a3 bc 3c 12 96 3f 01 c8 b2 40
       0.1720759 -0.019998498 1.1724315 5.5869145
000170 1b a4 b2 bf b4 4d 3e 40 27 01 68 bd 4a dc 71 3e
       -1.3956331 2.9734926 -0.056641724 0.2361919
000180 23 01 f9 40 5e 6e 80 c0 73 a8 b3 c0 f1 f8 5b 40
       7.7813888 -4.0134726 -5.6143126 3.4370692
000190 77 2c a0 bd e7 e5 71 3e 44 c6 64 40 03 bd 85 40
       -0.07820981 0.23622857 3.5746012 4.1793227
0001a0 24 5a aa c0 de a4 0d c0 5e 37 98 40 a6 f0 92 40
       -5.3235035 -2.2131877 4.7567587 4.591876
0001b0 ce cc 22 be 98 da 96 3e 34 d9 07 be 99 85 8c 3e
       -0.1589844 0.2946365 -0.1326645 0.27445677
0001c0 79 62 4d bf 6d 71 ed 40 fe 6b de bd 94 8f 9a 3e
       -0.8022838 7.420096 -0.108604416 0.30187666
0001d0 50 7c 2a c0 d0 94 d4 3f 60 9e 9a bd b8 86 71 3e
       -2.6638374 1.6607914 -0.07549739 0.23586547
0001e0 36 65 86 bd 05 0d 89 3e 42 4b 68 3e 44 d1 8b 3e
       -0.06562273 0.26767746 0.22684959 0.27308095
0001f0 43 ac 09 bf db d2 86 3e e7 6f 6c 40 f1 4d c8 40
       -0.53778476 0.26332745 3.69433 6.2595143
000200 1d 7d a8 bd d0 a4 6e 3e e5 81 0e 41 ea af 53 3f
       -0.082269885 0.23305058 8.906713 0.826903
000210 28 03 ed bd bf cf 91 3e 30 d4 d2 40 67 1d 84 40
       -0.11572868 0.2847881 6.588402 4.128589
000220 4f 2a e0 bd 66 aa 83 3e 0d 12 28 40 7b 80 60 40
       -0.1094557 0.2571594 2.6261017 3.5078418
000230 f5 90 bf 40 c2 21 32 c0 5a 2b b4 40 bc 4f 05 c0
       5.986445 -2.7833104 5.630292 -2.0829916
000240 2c 13 c4 3f 2d 80 ee c0 be 16 3a 3f 5e a2 91 3f
       1.5318351 -7.4531465 0.7269095 1.1377676
000250 30 65 c6 bd 4e 6f 90 3e a6 83 9f bd d1 3a 92 3e
       -0.09687269 0.2820992 -0.07788782 0.28560498
000260 aa f4 8f be de bb b4 3f 2b 27 cd bd 98 db 4a 3e
       -0.2811635 1.4119833 -0.10017236 0.19810331
000270 d8 ce 23 be 3d 06 73 3e d0 1b 67 bd 5d ec a3 3e
       -0.15996873 0.23732848 -0.05642301 0.32016268
000280 20 6e 87 bd dd 36 92 3e 1d 24 ec bf 81 18 90 40
       -0.066128016 0.28557482 -1.8448521 4.502991
000290 bc 58 8e c0 97 2b 87 40 e0 a9 cb bd 4a ea 99 3e
       -4.448332 4.224071 -0.099445105 0.3006156
0002a0 7f f4 9c c0 26 c5 c1 c0 7a 64 b9 c0 ad f8 e6 40
       -4.9048457 -6.055316 -5.793515 7.217856
0002b0 ef f2 f5 bd c1 18 93 3e 70 90 d9 bd db f4 a0 3e
       -0.120092265 0.28729823 -0.106232524 0.3143681
0002c0 ba 0c ad c0 5a ec 1a 41 75 85 5f 40 0f 29 97 c0
       -5.4078035 9.682703 3.4925206 -4.723762
0002d0 4a e2 09 c1 77 75 ef c0 09 f7 fe bf ae e5 2f 3d
       -8.617746 -7.483089 -1.9919139 0.04294365
0002e0 98 9d 52 40 ae 09 13 c1 c7 87 7f 40 b3 bb 19 c1
       3.2908688 -9.189863 3.9926622 -9.608325
0002f0 d7 21 89 40 f9 04 db bd 92 79 59 3d e7 1a a8 3e
       4.285381 -0.10694308 0.053094454 0.32833025
000300 84 5c 27 3d 18 24 93 3e b8 f8 09 c1 99 57 59 c0
       0.040859714 0.28738475 -8.623222 -3.3959715
000310 8b 40 bb c0 66 4b d8 c0 a2 7a 93 bd e9 12 90 3e
       -5.851629 -6.759204 -0.07201125 0.28139427
000320 e6 90 22 3f e7 9c 16 3f 45 3a 83 40 ca d0 19 c1
       0.6350235 0.58833164 4.100863 -9.613474
000330 47 33 35 3f d1 97 7a 3f 22 1a 9b 3e 48 58 06 3f
       0.7078137 0.97887903 0.30293375 0.52478456
000340 d2 3f 30 3f 71 5e 14 3f d2 3d 18 41 ba b8 d1 c0
       0.6884738 0.57956606 9.515093 -6.5537996
000350 20 ef 19 3f 14 73 1f 3f de 28 12 41 9f 2d cf c0
       0.601305 0.6228497 9.134977 -6.474319
000360 36 7c e6 40 cb b8 f7 bf 2e b3 88 3f 94 09 90 c0
       7.2026625 -1.9353269 1.0679681 -4.501169
000370 4c 4c d7 40 30 17 a0 bd 2d 07 c5 3f 52 fa cf be
       6.7280636 -0.07816923 1.5392815 -0.40620667
000380 0f cf 2f c0 08 d5 cf 40 ef a0 ab bf e1 49 bc 3f
       -2.7470129 6.494755 -1.3408488 1.4710046
000390 b3 61 24 3f 1f 70 13 3f 15 2d 27 3f c2 9c 17 3f
       0.6421158 0.5759296 0.65303165 0.5922357
0003a0 98 ea 27 3f 95 4c 1e 3f 73 38 27 3f 4b d0 11 3f
       0.65592337 0.61835605 0.6532051 0.56958455
0003b0 00 d5 32 3f 47 85 14 3f 9b 10 0c 40 46 d7 8e 3f
       0.6985626 0.58015865 2.1885135 1.1159446
0003c0 30 36 22 3f 4b f0 49 3f cb b8 89 40 a5 83 65 bf
       0.63363934 0.7888228 4.3038077 -0.89654
0003d0 e3 f7 23 3f 8f d2 21 3f fd a7 c0 3f c0 75 6c bc
       0.6405012 0.6321191 1.5051266 -0.014432371
0003e0 a3 0d 23 3f 2b 3b 82 3f 23 11 22 3f a1 d3 28 3f
       0.63692683 1.0174307 0.633074 0.6594792
0003f0 18 32 e2 be 9e 57 f4 3f c3 3c fa 40 de e5 60 3e
       -0.44178843 1.9089239 7.819917 0.21962687

_BaseModel__beta_s f4 [2]
000000 19 c8 33 40 ec 0d ab bf
       2.809088 -1.3363624

_BaseModel__prior_b_sigma_s f4 [100]
000000 4c ee a5 c0 3b ba bb c0 7f ce a0 c0 e6 9b a1 c0
       -5.185339 -5.866483 -5.025207 -5.0502806
000010 b7 ab 92 c0 27 a4 ab c0 ee 66 9c c0 95 3f 73 c0
       -4.5834613 -5.363788 -4.8875647 -3.8007557
000020 d2 e1 24 c0 0a ab 42 c0 3d 52 42 c0 84 cb b2 c0
       -2.576283 -3.0416894 -3.0362694 -5.587343
000030 15 b4 ae c0 6a f0 b4 c0 3b 69 bb c0 6f 25 c0 c0
       -5.4594827 -5.6543474 -5.8565955 -6.0045695
000040 86 f3 c1 c0 77 8e aa c0 1e 05 a2 c0 59 db af c0
       -6.060977 -5.3298907 -5.0631247 -5.495526
000050 bc 0d b1 c0 79 47 96 c0 5d 72 70 c0 a3 6c 59 c0
       -5.5329266 -4.6962247 -3.7569802 -3.3972557
000060 f6 db 72 c0 e4 3a 3f c0 2d f2 00 c0 07 a7 84 bf
       -3.7946754 -2.9879694 -2.0147812 -1.0363473
000070 a3 0f 46 40 8a 34 a2 40 3b 7a 49 c0 7f 88 9e c0
       3.0947044 5.0689135 -3.1480854 -4.954162
000080 37 0f 5f c0 7d d4 5f c0 fb 37 7d c0 bb 4b 3d c0
       -3.4853036 -3.4973443 -3.9565418 -2.9577472
000090 1b 72 a8 bf dd 9d cb 40 de b5 dc 40 70 d3 e8 40
       -1.3159822 6.3630204 6.8972006 7.2758102
0000a0 c8 b8 e5 40 67 4f cc 40 3c 03 1c 3e 57 db 6e 40
       7.1788063 6.3846927 0.15235609 3.7321374
0000b0 ae 26 80 c0 38 31 5b c0 e7 b3 23 c0 ac b2 da bf
       -4.0047216 -3.424879 -2.5578554 -1.7085776
0000c0 24 a7 07 c0 60 93 2d c0 01 58 34 c0 7b f8 91 c0
       -2.1195765 -2.71212 -2.8178713 -4.561582
0000d0 05 19 a5 c0 8e 5b ad c0 04 cb 9e c0 83 b8 3f c0
       -5.159304 -5.417426 -4.962282 -2.9956367
0000e0 f4 18 27 c0 37 6c 2e c0 77 8a 59 c0 b5 06 39 c0
       -2.610898 -2.725355 -3.3990762 -2.8910344
0000f0 1f fa 7c 40 c6 c4 2d 40 cf 68 27 c0 a2 ae 31 40
       3.9527662 2.715135 -2.615772 2.7762837
000100 91 9b ae 40 fc 75 bb 40 69 16 c6 40 7a d1 d0 40
       5.45649 5.8581524 6.1902356 6.525571
000110 ce 8d c9 40 9a 19 cd 40 c5 6b e6 40 bc d6 e7 40
       6.29856 6.409375 7.2006555 7.2449627
000120 cb e5 da 40 e0 22 d3 40 e6 e0 96 40 a8 85 8c 40
       6.840551 6.598007 4.7149534 4.3913155
000130 2f d9 a2 40 19 8e b8 40 00 3d 2f bf 55 c8 2a c0
       5.0890117 5.767346 -0.68452454 -2.6684773
000140 bd a5 5d 40 d4 e7 a9 40 8a 22 85 40 06 8f 7d 40
       3.4632409 5.3095493 4.160466 3.9618545
000150 d7 bf a8 40 69 f4 b3 40 0a 66 a9 40 cc 22 a5 40
       5.273418 5.623585 5.293706 5.1604977
000160 b3 31 be 40 3f c9 a6 40 e2 7f d4 40 3e ed cf 40
       5.943567 5.212066 6.6406107 6.49771
000170 42 82 d1 40 bf 28 cf 40 07 7f c8 40 de cd d0 40
       6.5471506 6.473724 6.2655063 6.5251303
000180 bf 71 cc 40 6c 8b db 40 19 d5 e1 40 4a bc d7 40
       6.388885 6.8607693 7.057263 6.7417345

_BaseModel__prior_c_sigma_s f4 [100]
000000 09 de 05 c0 88 4a 95 40 73 43 30 3e e6 9c 61 3d
       -2.091677 4.665348 0.1721323 0.05508127
000010 5e e3 5d c0 a8 1c 79 40 9b 07 b5 bf 18 d6 aa 40
       -3.4670024 3.892374 -1.4142946 5.3386345
000020 63 45 76 40 1a e7 b5 40 7d f1 91 40 d5 b5 7d 40
       3.847985 5.6844606 4.5607285 3.9642231
000030 07 88 22 40 cb 72 6c 40 41 21 83 c0 de 36 89 c0
       2.5395525 3.6945064 -4.0978093 -4.2879477
000040 8d b4 42 c0 84 b3 0f c0 3c 85 de bf cf 20 4b 40
       -3.04227 -2.2453318 -1.738441 3.1738775
000050 c2 96 0d c0 22 6d 80 40 cd 1e 80 c0 89 f6 ef 40
       -2.2123265 4.013322 -4.00376 7.4988446
000060 f0 7b ef bd bb 52 04 c0 3c 04 86 40 d9 5f 82 40
       -0.11693561 -2.0675495 4.188017 4.0742
000070 31 36 a6 40 8c 89 88 40 79 76 8e c0 8e c7 a4 c0
       5.194115 4.2667904 -4.451962 -5.1493597
000080 e9 cc 68 40 38 ad bf c0 24 5b d6 c0 02 1c 8b c0
       3.6375067 -5.989895 -6.6986256 -4.347169
000090 6f 35 d1 c0 5e ab 59 c0 64 e7 58 c0 9a e8 b7 c0
       -6.5377727 -3.4010844 -3.389123 -5.7471437
0000a0 dc cb a9 3f 4a b0 a1 40 72 d1 be 40 4f 6f bb 40
       1.3265338 5.0527697 5.963067 5.8573375
0000b0 f0 34 af bd 58 d4 93 40 29 a2 e6 3f 4a 63 d3 bf
       -0.08555019 4.619671 1.8018237 -1.6514676
0000c0 9d bf ed 40 39 6a 2c 40 82 fb 76 c0 8d dc 58 40
       7.4296403 2.6939833 -3.8591008 3.3884614
0000d0 2b 26 62 40 93 4d a8 40 60 3e a6 c0 91 ef cb c0
       3.5335796 5.2594695 -5.195114 -6.372994
0000e0 af 12 bc 40 51 14 b3 c0 8e 87 66 40 c4 ee 25 c0
       5.8772807 -5.59623 3.6020236 -2.592698
0000f0 74 b0 09 bf dc eb 49 bf e3 dc ce bf bb cd ea 40
       -0.5378487 -0.7887552 -1.6161159 7.3376136
000100 73 fd 95 c0 12 4e e3 40 e0 18 7b bf c5 26 4b 40
       -4.6871886 7.10328 -0.9808483 3.1742413
000110 76 89 8f bf ca 95 86 40 63 92 9d 40 f8 13 ab 40
       -1.1213825 4.205785 4.9241195 5.3461876
000120 02 b8 5d 40 ef 64 8c 40 2b aa bd c0 31 0c 81 bf
       3.464356 4.387321 -5.9270225 -1.0081846
000130 cb 65 d9 40 ba 2e 1e c0 54 4e 40 c0 c9 d6 b1 bf
       6.793676 -2.471602 -3.0047808 -1.3893672
000140 b4 0a 83 c0 df 2c 73 40 d7 b8 a8 40 a5 2c 82 c0
       -4.0950565 3.7996137 5.2725635 -4.06795
000150 7b 96 c0 40 2d 6c 7a 40 a7 90 79 c0 58 1b 7a bf
       6.018369 3.9128525 -3.8994539 -0.97697973
000160 aa 59 9c 40 18 18 8a 40 05 30 b3 40 5e 4e ae 40
       4.8859453 4.315441 5.5996118 5.4470663
000170 8f 8c a4 40 ae 9e b1 40 3a a6 5b 40 92 65 65 3f
       5.142158 5.55062 3.4320207 0.8960811
000180 71 12 23 bf 21 af 8e 40 4e 23 84 40 78 8c 92 bf
       -0.63700014 4.458878 4.1293097 -1.1449118
