experiments/models_mr=0.1_cr=0.1_pr=0.1/residual_synthetic_n=100_seed=16_B=100_lambda=1e9_dim=2_epoch=300_spe=10_bs=100_lr=0.1_seed=50.model (torch, 84927 bytes, 5 tensors)

_BaseModel__x0_s f4 [100, 2]
0	0xbfb706c0	-1.4298935
1	0xc00d6191	-2.20908
2	0xc04499cb	-3.0718868
3	0xbfc8f733	-1.5700439
4	0xbfce08c5	-1.6096426
5	0xbfd9f8fe	-1.7029111
6	0xc0007a77	-2.0074747
7	0xbfd78450	-1.6837254
8	0xbfac3e5a	-1.3456528
9	0xc00964b0	-2.1467705
10	0xc021eb3f	-2.5299833
11	0xbf80b466	-1.0055053
12	0xbf6aa9ff	-0.91665643
13	0xbfd73c1a	-1.6815217
14	0xc00960fc	-2.1465445
15	0xbf86074c	-1.0470977
16	0xbf96f096	-1.1792171
17	0xbf9be912	-1.2180502
18	0xc00dd422	-2.2160726
19	0xbfaf8bd0	-1.3714542
20	0xc0139c69	-2.3064215
21	0x3fcad951	1.584757
22	0xc04e0fa3	-3.2197044
23	0x3ff4ccc3	1.9124988
24	0xc08593ff	-4.174316
25	0x3f4b61c5	0.7944606
26	0xc05e0188	-3.4688435
27	0x40312b66	2.7682738
28	0xc05cdaad	-3.450847
29	0x3f95ebd0	1.1712589
30	0xc0509eff	-3.2597044
31	0x3fe8dd32	1.8192503
32	0xc04e1d78	-3.2205486
33	0x3fab618f	1.3389148
34	0xc031c360	-2.7775497
35	0x4009f762	2.155724
36	0xc066e7a0	-3.6078873
37	0x4009e3e8	2.1545353
38	0xc04a5323	-3.1613243
39	0x402fec98	2.7488155
40	0xc002a33f	-2.0412138
41	0xc0609611	-3.5091593
42	0xc0777e1c	-3.867072
43	0xc066ebfc	-3.6081533
44	0xc04b2b02	-3.1745
45	0xc05a2fe4	-3.409173
46	0xc0520839	-3.2817519
47	0xc041636e	-3.0216937
48	0xc093d48b	-4.619695
49	0xc027169d	-2.6107552
50	0xc0884480	-4.258362
51	0xc0588f22	-3.3837361
52	0xc030dd70	-2.7635155
53	0xc06186d6	-3.5238547
54	0xc021ada5	-2.5262234
55	0xc0705bbe	-3.7555995
56	0xc05f8d65	-3.493005
57	0xc04b63c5	-3.1779644
58	0xc08bdbed	-4.3705964
59	0xc05b94d4	-3.4309587
60	0xbf11fc2c	-0.5702541
61	0x3fd14ba2	1.6351206
62	0xbf85af45	-1.0444113
63	0x4019b12b	2.4014385
64	0xbfa1fd71	-1.2655469
65	0x3ff45581	1.9088594
66	0xbf34e661	-0.7066403
67	0x3fb8363f	1.4391555
68	0xbfc16a47	-1.5110558
69	0x3fad5b47	1.3543481
70	0xbeef94ff	-0.46793362
71	0x401e132a	2.4699197
72	0xbf92c3c7	-1.1465997
73	0x3fda716a	1.7065861
74	0xbf56cb46	-0.8390392
75	0x401088a3	2.2583396
76	0xbfb34fd2	-1.4008734
77	0x402f06f3	2.7347991
78	0xbed74b7e	-0.42049783
79	0x3fb65048	1.424325
80	0x4087c45b	4.242719
81	0x401387bb	2.3051593
82	0x40aa045e	5.313033
83	0x3f8eae59	1.1146957
84	0x409fee1f	4.9978175
85	0x3f62f2ba	0.8865162
86	0x40902cfd	4.5054917
87	0x4012a8dd	2.2915566
88	0x407a817b	3.9141529
89	0x3fffbe3b	1.9979929
90	0x4086a07a	4.2070894
91	0x3fa9864e	1.3244112
92	0x40abce3e	5.368926
93	0x400c8eb0	2.196209
94	0x40b16dcd	5.5446534
95	0x3fdf48f4	1.7444139
96	0x4087f1e5	4.248278
97	0x4002e516	2.0452323
98	0x40813b9b	4.038526
99	0x3fe7e8c8	1.8117914
100	0x3f1b93bc	0.607723
101	0x40388c75	2.8835728
102	0x3fe5b061	1.7944452
103	0x3fe899b5	1.8171908
104	0x3fae1b6a	1.3602116
105	0x4024f02d	2.5771592
106	0x3fb4bc94	1.412005
107	0x4048a1fe	3.1348872
108	0x3fd9e814	1.702395
109	0x3ff5a9cb	1.9192442
110	0x3fa5e500	1.296051
111	0x3fbf83a7	1.4962052
112	0x3f07da11	0.5306712
113	0x4051376a	3.2690072
114	0x40021552	2.0325513
115	0x3fea2ef4	1.8295579
116	0x4009fe14	2.1561327
117	0x4032328e	2.7843356
118	0x3ff962bf	1.948326
119	0x40357473	2.8352325
120	0x3e2873a2	0.1645036
121	0x4092594f	4.573402
122	0x3f67c0c0	0.9052849
123	0x4091f8e2	4.561631
124	0x3fa06430	1.2530575
125	0x40abbf8c	5.367132
126	0x401ce87e	2.4516902
127	0x40904328	4.508198
128	0x3f5cdc91	0.8627406
129	0x40949e53	4.6443267
130	0x3fdc86b4	1.7228608
131	0x40ab6d12	5.3570642
132	0x3f6759c6	0.9037136
133	0x4091d62a	4.557393
134	0x3fb3e12a	1.405309
135	0x408a4680	4.321106
136	0x3f7bfdb5	0.98434
137	0x40824d88	4.0719643
138	0x3fe194f3	1.7623581
139	0x40a048be	5.0088797
140	0x3ee9ba0c	0.45649755
141	0xbf660f7b	-0.8986737
142	0x3f598678	0.8497081
143	0xbf06f3fb	-0.52716035
144	0x3ecfe81e	0.4060678
145	0xbfbd705a	-1.4799912
146	0x3e31e8c8	0.17373955
147	0xc00f8bb1	-2.242901
148	0x3e98d1d2	0.2984758
149	0xc01aa637	-2.416395
150	0x3f65fde4	0.8984053
151	0xbfa63b98	-1.2986937
152	0x3c892323	0.016740387
153	0xbfaebd6e	-1.3651559
154	0x3f800fa9	1.0004779
155	0xc0043da9	-2.0662634
156	0xbdd1bb36	-0.10240786
157	0xc021a626	-2.525766
158	0x3fa079ad	1.2537133
159	0xbfab6b5f	-1.3392142
160	0xbfe3a4b8	-1.7784643
161	0xbf66d4a9	-0.90168244
162	0xbf5e13b2	-0.867488
163	0xbf0f67a3	-0.5601751
164	0xc02258c3	-2.5366676
165	0xbf20fbbb	-0.6288411
166	0xbfc25e33	-1.5184997
167	0xbf1fbdd1	-0.6239901
168	0xc042bfe2	-3.0429616
169	0xbeb78526	-0.35843772
170	0xc016c3e5	-2.3557065
171	0xbec8173a	-0.3908022
172	0xc00a6a9b	-2.1627567
173	0x3d5c8806	0.05384066
174	0xbf95b9f2	-1.1697371
175	0x3e2c0a5d	0.16800828
176	0xbffd640f	-1.979616
177	0xbe7f9cac	-0.2496211
178	0xbfa4e86b	-1.2883428
179	0xbec7d511	-0.39029744
180	0x4077758a	3.866549
181	0xc010fb7e	-2.2653499
182	0x4085c020	4.1797028
183	0xbfc6d8d0	-1.5534916
184	0x407184d3	3.773732
185	0xbfa6d706	-1.303437
186	0x40281ff6	2.6269507
187	0xbfe68600	-1.8009644
188	0x407df9b6	3.9683661
189	0xbfae547f	-1.3619536
190	0x405530a9	3.331095
191	0xbffbd1bb	-1.967338
192	0x40417ae9	3.0231268
193	0xc00c3cef	-2.191219
194	0x408af6f0	4.3426437
195	0xbf096e92	-0.5368434
196	0x4084dacc	4.1517086
197	0xc007a27e	-2.1192927
198	0x40838df1	4.111077
199	0xc037ab1b	-2.8698184

_BaseModel__v_s f4 [100, 100, 2]
0	0xc068a9d3	-3.6353652
1	0x3e17294b	0.14761846
2	0xc048463f	-3.1292875
3	0xbf609ee3	-0.8774244
4	0xc06dd9e6	-3.7164245
5	0xbff830cb	-1.938989
6	0xc171ad84	-15.104862
7	0xc020c079	-2.5117476
8	0xc11ec2db	-9.922572
9	0xc0c86ae4	-6.263048
10	0xc0ebbc87	-7.3667636
11	0xc10cc1bd	-8.797299
12	0xc000d4b9	-2.0129836
13	0xc0b4af33	-5.6463866
14	0xc11fc7e6	-9.986303
15	0xc11cc1be	-9.7973
16	0xc1410bc6	-12.065374
17	0xc09723a0	-4.7230988
18	0x3f0ddc6f	0.5541448
19	0xc0ba742b	-5.8266807
20	0xc13ef4c6	-11.934759
21	0xbf1edd04	-0.62055993
22	0xbec30f51	-0.38097623
23	0x40969304	4.7054462
24	0xc0bd40b4	-5.9141483
25	0xc08537ef	-4.163078
26	0xbfe926ec	-1.8215003
27	0xbffa3ea0	-1.9550362
28	0xc1372302	-11.446047
29	0x4015c05f	2.3398664
30	0xc0c8f050	-6.279335
31	0x408af460	4.342331
32	0xc09fe667	-4.9968753
33	0x3fe0788e	1.753679
34	0xc0d79f3d	-6.7381883
35	0xc07e6e03	-3.9754646
36	0xc118184d	-9.505933
37	0xbd967ff4	-0.07348624
38	0xc030d21b	-2.7628238
39	0x3e28ed6c	0.1649682
40	0xc10d99a6	-8.850012
41	0xc12b00f4	-10.687733
42	0xc09aa661	-4.83281
43	0xc0869b21	-4.2064366
44	0xc11c3b08	-9.764412
45	0xc0c77520	-6.2330475
46	0xc01c0c46	-2.438249
47	0xc0c78b53	-6.2357574
48	0xc052556a	-3.2864633
49	0xc109caa1	-8.61197
50	0xc0ae48b3	-5.4463744
51	0xc0c9dcf5	-6.3082223
52	0xc0eeceff	-7.462768
53	0xc11cae41	-9.792542
54	0xc105d4b3	-8.3644285
55	0xc0fdedb6	-7.9352674
56	0xc0a0721b	-5.013929
57	0xc0d2b8d2	-6.585061
58	0x3f3bab79	0.7330852
59	0xc0347f22	-2.8202596
60	0x3faf0226	1.3672531
61	0x40be73af	5.9516215
62	0xc0e2f3ed	-7.092276
63	0x3edf39af	0.43598697
64	0xc08018ee	-4.003043
65	0x40f26167	7.57439
66	0xbfae261c	-1.360538
67	0x40cd0ead	6.4080415
68	0xc02f3a1b	-2.7379215
69	0x412bb003	10.730472
70	0x3fec0bf2	1.8441145
71	0x40ca86c5	6.3289514
72	0xc0d82101	-6.754029
73	0x408f4569	4.477223
74	0x401a92a2	2.4151998
75	0x40aaf77f	5.342712
76	0xc028d035	-2.637708
77	0x4113543c	9.208065
78	0xc060c971	-3.512295
79	0x40f24ae4	7.571642
80	0x409a9d26	4.831683
81	0x410d5827	8.834022
82	0x403d1ae5	2.9547665
83	0x40c5b53a	6.1783724
84	0x401a69e9	2.4127142
85	0x40e57b9e	7.17134
86	0x41361de3	11.382297
87	0x405eadc1	3.479355
88	0x40621bb2	3.5329404
89	0xbfd3436f	-1.6504954
90	0x4135f001	11.371095
91	0xbefe2a7e	-0.49641794
92	0x3f8a0584	1.0782933
93	0x40d1a499	6.5513425
94	0x40985a16	4.760997
95	0x40b7446b	5.727102
96	0x41405209	12.020028
97	0x40e76aa9	7.23177
98	0x412fe01f	10.992217
99	0x3f284441	0.6572915
100	0x40ae35eb	5.444082
101	0x4032a9e4	2.7916193
102	0x3fdb6abc	1.7141948
103	0x40798ef0	3.8993492
104	0x40690672	3.6410184
105	0x40d84c3b	6.7593055
106	0x40c90c27	6.2827334
107	0x40d2f9a9	6.592976
108	0x3f631437	0.8870272
109	0x40004b9c	2.0046148
110	0x40a6f510	5.217415
111	0x407b14ae	3.9231372
112	0x4113ca44	9.236881
113	0x3fce8b40	1.6136246
114	0xbee42ac2	-0.44563872
115	0x40109843	2.2592933
116	0x4090c553	4.5240874
117	0xbf0acc29	-0.54217774
118	0x4086f180	4.21698
119	0x40824afe	4.0716543
120	0xc18150b5	-16.164408
121	0x4123ca9b	10.236964
122	0xbf1fd084	-0.62427545
123	0xc053472c	-3.301219
124	0xc09942a7	-4.7893863
125	0x40d5ee9c	6.685377
126	0xc0798c1e	-3.899177
127	0x404c6ce8	3.194147
128	0xc02d26b1	-2.7054865
129	0x4144c4c4	12.2980385
130	0xc13b432b	-11.703898
131	0x4125517f	10.3323965
132	0xc0c299bd	-6.081267
133	0x411c8ed6	9.784872
134	0x3e701c7e	0.23448369
135	0x414d2278	12.820915
136	0xbfa0c1a4	-1.2559094
137	0x41103a2d	9.014203
138	0xc111e9f3	-9.1196165
139	0x40c18ec6	6.0486784
140	0xc09d5a87	-4.9173007
141	0xc075b695	-3.839269
142	0x3f16ae18	0.58859396
143	0xc0c5dc79	-6.183163
144	0x3f279491	0.6546107
145	0xc09c1497	-4.8775134
146	0x400b0532	2.172192
147	0xc0e7c89e	-7.2432394
148	0x3f66ec48	0.90204287
149	0xc1043f9f	-8.2655325
150	0x3fc704c7	1.5548333
151	0xc08bbf36	-4.367091
152	0x3ff5d352	1.9205115
153	0xbe996ee0	-0.29967403
154	0xc079cc46	-3.9030929
155	0xbfd650ca	-1.6743405
156	0xbff96dcb	-1.9486631
157	0xc09a4e32	-4.8220453
158	0x3e3d5bc0	0.18492031
159	0xc04236dc	-3.0345984
160	0xbfba7853	-1.456797
161	0x3fc16d3f	1.5111464
162	0xc05d7265	-3.460107
163	0x4060565b	3.5052707
164	0x3fba7f2b	1.4570059
165	0xc05fad3c	-3.4949484
166	0xc0302f4c	-2.7528868
167	0x40842c63	4.1304183
168	0x3fc62e8b	1.5482954
169	0xc02bc79a	-2.6840577
170	0x401e1f3d	2.4706566
171	0x3cccb992	0.02499083
172	0xc0899dcd	-4.300513
173	0x3fccc573	1.5997757
174	0x3eac365a	0.33635217
175	0x404d1bc3	3.2048194
176	0xbf818162	-1.011761
177	0x409d3718	4.9129753
178	0xc0ad3865	-5.413134
179	0xc02dce04	-2.7156992
180	0x4131a509	11.102792
181	0xc0ea56cb	-7.323095
182	0x410c33a4	8.762608
183	0x405f836c	3.4923964
184	0x410a4ebf	8.644225
185	0x3eeccbd0	0.46249247
186	0x40f15a8b	7.5423026
187	0xc00fb083	-2.2451484
188	0x3e5095cf	0.20369647
189	0xc08290c5	-4.080172
190	0x3f745763	0.9544584
191	0xc0ca6e88	-6.3259926
192	0x40144d5c	2.3172216
193	0xc1254323	-10.328891
194	0xbe15f1e5	-0.14643057
195	0xc0d9fc58	-6.8120537
196	0x40810b3b	4.032621
197	0xc09a115d	-4.8146195
198	0x410bfaba	8.748713
199	0xc0da86d0	-6.8289566
200	0xc09cb7f1	-4.897454
201	0x4044e4ae	3.0764575
202	0xc0a311a7	-5.095905
203	0xbf97ee1b	-1.1869539
204	0x3ef8624d	0.48512498
205	0xc04a4af7	-3.1608255
206	0xc14d4b1c	-12.830837
207	0xbf3964f6	-0.7241968
208	0xc192c069	-18.34395
209	0xc0f5da5e	-7.682906
210	0xc107ec4a	-8.495188
211	0xc1044962	-8.267916
212	0xc134bd91	-11.296281
213	0xc0f5824a	-7.6721544
214	0xc1006712	-8.025164
215	0xc16476d4	-14.279011
216	0xc1787301	-15.528077
217	0xc099f1ab	-4.8107505
218	0x3fddd013	1.7329124
219	0xc00917d6	-2.1420798
220	0xc12ca7bf	-10.790954
221	0xbf9fe357	-1.2491254
222	0xc0e50d3c	-7.1578655
223	0xc00fdcde	-2.2478557
224	0xbf8025f1	-1.0011579
225	0xbf76c05c	-0.9638727
226	0x3f9afd3b	1.210853
227	0xc0d9d71c	-6.8075085
228	0xc11a99f3	-9.662585
229	0xbebf01dc	-0.37306106
230	0xc044d03c	-3.0752096
231	0x406fafaa	3.7450967
232	0xc0220ef5	-2.532163
233	0x40bb0768	5.844654
234	0xc03ba367	-2.9318483
235	0xc09a82a7	-4.828449
236	0xc0dd290a	-6.9112597
237	0x3f3d3ae8	0.7391801
238	0xc02c6e24	-2.6942225
239	0x3fffbdf7	1.9979848
240	0xc13459a4	-11.271885
241	0xc15b75ff	-13.716308
242	0x3f4f7020	0.81030464
243	0xc0c51d2f	-6.1598125
244	0xc0f33dc8	-7.6012917
245	0xc0fc9eb7	-7.8943744
246	0x403f5acf	2.9899175
247	0xc085be49	-4.179478
248	0xbf6c8440	-0.923893
249	0xc0dedb05	-6.964236
250	0xc0c1609c	-6.043043
251	0xc0db39f1	-6.850823
252	0xc115bdd2	-9.358843
253	0xc1116419	-9.086938
254	0xc1297c5b	-10.59286
255	0xc0d3ffa5	-6.6249566

_BaseModel__beta_s f4 [2]
0	0x4074d1ed	3.8253129
1	0xbfc07543	-1.5035785

_BaseModel__prior_b_sigma_s f4 [100]
0	0xc07a42a0	-3.9103165
1	0xc07a036a	-3.9064584
2	0xc079e5a5	-3.9046414
3	0xc079ed3d	-3.9051049
4	0xc079fa4b	-3.9059017
5	0xc07a1a7c	-3.9078665
6	0xc079dd07	-3.9041154
7	0xc079dbfa	-3.9040513
8	0xc079818d	-3.8985322
9	0xc07915a8	-3.8919468
10	0xc079325c	-3.8936987
11	0xc0799e27	-3.9002779
12	0xc079533e	-3.8957057
13	0xc0797610	-3.897831
14	0xc0799080	-3.8994446
15	0xc079bc58	-3.9021206
16	0xc079d9ca	-3.9039178
17	0xc079bc71	-3.9021266
18	0xc079e612	-3.9046674
19	0xc079de72	-3.904202
20	0xc079d9b2	-3.903912
21	0xc079b852	-3.901875
22	0xc0795d9f	-3.8963392
23	0xc07913ce	-3.8918338
24	0xc0795af5	-3.8961766
25	0xc079517d	-3.8955986
26	0xc0793263	-3.8937004
27	0xc0788eac	-3.883708
28	0xc078ae2e	-3.885631
29	0xc0782742	-3.877396
30	0xc0795fcb	-3.8964717
31	0xc07a2b77	-3.908903
32	0xc079be88	-3.902254
33	0xc0799813	-3.8999069
34	0xc079981c	-3.899909
35	0xc079e4b7	-3.9045846
36	0xc07a080f	-3.9067419
37	0xc079a610	-3.9007607
38	0xc0790b01	-3.8912966
39	0x4106291f	8.385039
40	0xc0779474	-3.8684359
41	0xc078daa8	-3.8883457
42	0xc079269c	-3.8929815
43	0xc0794755	-3.8949788
44	0xc079ebe7	-3.9050233
45	0xc079e306	-3.9044814
46	0xc079d57c	-3.903655
47	0xc079c78f	-3.902805
48	0xc079a23f	-3.9005277
49	0xc079c6df	-3.9027631
50	0xc079ca4e	-3.9029727
51	0xc07a2b43	-3.9088905
52	0xc07aa4c6	-3.916307
53	0xc07a9e87	-3.9159257
54	0xc07a846d	-3.9143326
55	0xc07a5b1d	-3.911811
56	0xc07a397d	-3.9097588
57	0xc07a6f36	-3.9130378
58	0xc07a6482	-3.9123845
59	0xc07a23d4	-3.9084368
60	0xc079d411	-3.9035685
61	0xc079c3e6	-3.9025817
62	0xc079e487	-3.9045732
63	0xc079be0a	-3.902224
64	0xc0798b0b	-3.8991115
65	0xc0794eb3	-3.8954284
66	0xc0795dc9	-3.8963492
67	0xc0796b79	-3.8971846
68	0xc07968f4	-3.8970308
69	0xc079739a	-3.8976808
70	0xc07870e9	-3.8818915
71	0xc077e0dc	-3.8730993
72	0xc078e6eb	-3.889094
73	0xc0795cd7	-3.8962915
74	0xc079d205	-3.9034436
75	0xc079f99b	-3.9058597
76	0xc079f56c	-3.9056044
77	0xc079d9c8	-3.9039173
78	0xc079ddca	-3.904162
79	0xc07a1427	-3.90748
80	0xc079ffc5	-3.906236
81	0xc0799ac3	-3.900071
82	0xc079beeb	-3.9022777
83	0xc079ed8e	-3.9051242
84	0xc079f569	-3.9056036
85	0xc079ca1b	-3.9029605
86	0xc079cc95	-3.9031117
87	0xc079c82a	-3.902842
88	0xc079b0dc	-3.9014196
89	0xc079abf9	-3.9011214
90	0xc0794d29	-3.8953345
91	0xc0790f35	-3.8915532
92	0xc078d0d3	-3.8877456
93	0xc0787a20	-3.882454
94	0xc078a5f1	-3.8851283
95	0xc077fb87	-3.874727
96	0xc077356f	-3.8626363
97	0x4106291f	8.385039
98	0xc0761bf9	-3.8454573
99	0xc0758a74	-3.8365755

_BaseModel__prior_c_sigma_s f4 [100]
0	0xc1297b88	-10.592659
1	0xc1297fab	-10.593669
2	0xc1295f9d	-10.585843
3	0xc1295801	-10.583985
4	0xc12973b5	-10.590749
5	0xc1297813	-10.591815
6	0xc1298807	-10.59571
7	0xc129627e	-10.586546
8	0xc1296a25	-10.588414
9	0xc1295fb1	-10.585862
10	0xc12965bc	-10.5873375
11	0xc1296814	-10.58791
12	0xc1296605	-10.587407
13	0xc1296cde	-10.589079
14	0xc1297e1b	-10.593287
15	0xc129760a	-10.591318
16	0xc1295273	-10.582629
17	0xc12959f1	-10.584458
18	0xc129560e	-10.583509
19	0xc1297c45	-10.592839
20	0xc1296a8d	-10.588513
21	0xc129370d	-10.57594
22	0xc1298c9a	-10.596827
23	0xc1295cf1	-10.585191
24	0xc12976b7	-10.591483
25	0xc129964d	-10.599195
26	0xc129844a	-10.594797
27	0xc1295a45	-10.584538
28	0xc12969bb	-10.588313
29	0xc12967f4	-10.587879
30	0xc1295ae8	-10.584694
31	0xc129522c	-10.5825615
32	0xc1296b48	-10.588692
33	0xc1296cab	-10.58903
34	0xc12971bd	-10.590268
35	0xc1296d31	-10.589158
36	0xc1292c1c	-10.573269
37	0xc129636e	-10.586775
38	0xc12963f7	-10.5869055
39	0xc1297789	-10.591683
40	0xc1299ea0	-10.601227
41	0xc1295c97	-10.585105
42	0xc12980cd	-10.5939455
43	0xc1298965	-10.596044
44	0xc129a011	-10.601579
45	0xc1297c84	-10.592899
46	0xc129988f	-10.599746
47	0xc12998a1	-10.599763
48	0xc1297e35	-10.593312
49	0xc1299d8c	-10.600964
50	0xc129650f	-10.5871725
51	0xc1297622	-10.591341
52	0xc1295e26	-10.585485
53	0xc12971d3	-10.590289
54	0xc1295b7c	-10.584835
55	0xc1297039	-10.589898
56	0xc1296c87	-10.588996
57	0xc129965d	-10.59921
58	0xc1295cb5	-10.585134
59	0xc1296a1a	-10.588404
60	0xc12986b0	-10.595383
61	0xc129945b	-10.59872
62	0xc1297895	-10.591939
63	0xc1293bb2	-10.577074
64	0xc1297cd7	-10.5929785
65	0xc1294efd	-10.581784
66	0xc1298721	-10.59549
67	0xc1296981	-10.588258
68	0xc1298278	-10.594353
69	0xc1295ac6	-10.5846615
70	0xc1294e37	-10.581595
71	0xc12942ff	-10.578856
72	0xc12985c9	-10.595162
73	0xc129737f	-10.590697
74	0xc129827f	-10.594359
75	0xc12944d2	-10.579302
76	0xc1295875	-10.584096
77	0xc12942a3	-10.578769
78	0xc12962a6	-10.586584
79	0xc12974b3	-10.590991
80	0xc1294355	-10.5789385
81	0xc1297214	-10.590351
82	0xc1296cd6	-10.589071
83	0xc12940aa	-10.578287
84	0xc12935e5	-10.575658
85	0xc1296a39	-10.588433
86	0xc129701d	-10.589871
87	0xc1295331	-10.58281
88	0xc12961bd	-10.586362
89	0xc1293a33	-10.576709
90	0xc1297f0e	-10.593519
91	0xc1298427	-10.594764
92	0xc1299549	-10.598947
93	0xc12993ea	-10.598612
94	0xc1299ad7	-10.600303
95	0xc129b875	-10.607533
96	0x414a0741	12.626771
97	0x414a0741	12.626771
98	0x414a0741	12.626771
99	0x414a0741	12.626771
