datasets/_synthetic_n=100_seed=16/_synthetic_n=100_seed=16.model (torch, 82424 bytes, 3 tensors)

x0_s f4 [100, 2]
00000000: cf99 fabf 11ab e4bf 1686 c6bf 5d84 98bf
00000010: 3fe8 e2bf b9b4 ddbf 73a8 edbf a5b4 8dbf
00000020: 1bda dabf d65c cdbf de14 debf defa 94bf
00000030: 3b97 c6bf f3f6 d9bf 5016 dcbf 6861 adbf
00000040: e3c5 b7bf de3a b9bf 8b51 b1bf 496c a6bf
00000050: a595 4140 fcf4 b8bf d195 5640 d6ad b7bf
00000060: 19b7 6640 c17c c9bf 1703 6240 2b00 56bf
00000070: e7ff 7640 0b4f 99bf a13f 5e40 81d8 96bf
00000080: 9c32 4640 f3ce 5fbf bd09 4640 90f3 aebf
00000090: 5b6d 5540 bb08 33bf a184 5d40 15cb 7bbf
000000a0: 392f 3dc0 d8a7 8c3e 6f4a 69c0 c470 143e
000000b0: 14d5 4fc0 db42 6f3e 0d8d 5cc0 6c42 c5be
000000c0: 7415 64c0 b288 d83e bd53 7ac0 4fe4 153e
000000d0: 65af 71c0 1cd5 34be 85f9 3dc0 7040 983d
000000e0: abc9 5ec0 dfef 3cbd eff6 77c0 08e5 133e
000000f0: 31e3 f93f f92d f1bf 7f22 1440 d726 04c0
00000100: 654f 0040 8545 ecbf d0d8 0640 0382 d0bf
00000110: 5155 2540 6819 04c0 e9d9 1140 33b5 c1bf
00000120: 8b8b 2740 bf9f 12c0 7ded 0940 17bc 04c0
00000130: b26c 0640 f71f 11c0 8647 0b40 0db0 b5bf
00000140: bcce 433f 526d 5b40 a42d c43d 6d71 5140
00000150: 58b0 293f 298f 5940 20fc 5c3f 3773 5040
00000160: 17f6 3b3d 7bfe 4540 3139 b93e 67fa 4040
00000170: 49f1 ed3e d1c2 5e40 3cdf 113f 7e9a 6340
00000180: ca0e 623e 9d44 4740 1c5c 043f 34a8 3e40
00000190: 6f6b 3740 369a b73f c834 3840 154a f13f
000001a0: 050a 5840 1afb c43f 0840 2e40 3db1 783f
000001b0: 58f4 3240 4b84 9a3f 2b81 2040 c28e 9c3f
000001c0: 776c 5340 809f c83f 7ef6 1b40 3dca d53f
000001d0: 3b9c 1c40 38e1 893f f455 1240 373f b23f
000001e0: 1e48 a740 f6df 12bb 3a98 9f40 4575 583e
000001f0: a8a8 ae40 2681 d63d eee1 a440 a8a9 3e3f
00000200: 5863 ac40 f39e 303e fcd5 b940 8f6c 263f
00000210: 19df a940 ecee 043f 0ce1 b540 8197 db3e
00000220: e7b1 ad40 d59c 323f e9bb a640 0848 c53e
00000230: 9905 2ac0 bada 1ec0 fc14 1dc0 aaf6 37c0
00000240: 45d0 36c0 d5c9 1ac0 966e 1ec0 e5aa 22c0
00000250: 5812 48c0 c7c8 22c0 5197 4ec0 b015 3ac0
00000260: 4d7b 0bc0 5a22 0fc0 5f10 27c0 6f15 10c0
00000270: f332 22c0 60b3 07c0 52a4 1fc0 6ec4 27c0
00000280: 6064 37bf 01d7 07bf a93d c2be 0501 78bf
00000290: ec01 94bf d7d3 1bbf 21ad 36bf 30b3 87bf
000002a0: 046d 9dbf 462f b7be 76d6 3bbf 4410 0fbf
000002b0: fbac 31bf 1f47 9ebc 8c5d 98bd 83c3 5dbf
000002c0: 7b07 6cbf 474f 53bf cf76 1bbf fcda 93bf
000002d0: 5e31 afc0 c30e 4d40 4b7a b8c0 c6d4 3140
000002e0: 38e9 a5c0 7c7c 1640 0ee6 adc0 7360 1040
000002f0: 2996 bcc0 3702 1a40 c8ae b4c0 7de9 0640
00000300: a811 b4c0 0c5e 3040 8797 c4c0 13ed f93f
00000310: b3c7 bac0 1a52 4540 d52d b2c0 d9bb 3140
-1.9578189 -1.7864705 -1.550967 -1.1915394 -1.7727126 -1.7320777 -1.8567032 -1.1070753
-1.709781 -1.6043956 -1.7350118 -1.1639059 -1.5514902 -1.7028488 -1.7194309 -1.3545351
-1.4357265 -1.447109 -1.385301 -1.3001796 3.0247586 -1.4449763 3.352894 -1.4349926
3.6049254 -1.5741197 3.5314386 -0.83594006 3.859369 -1.1977247 3.4726336 -1.1784822
3.096839 -0.87425154 3.0943444 -1.3668079 3.3347995 -0.69935197 3.46122 -0.98356754
-2.9560072 0.27471805 -3.645168 0.14496142 -3.2473803 0.23365347 -3.446109 -0.38527238
-3.5638094 0.4229179 -3.911361 0.14637874 -3.7763302 -0.1765942 -2.9683545 0.074341655
-3.4810588 -0.046127196 -3.8744466 0.14442837 1.9522458 -1.8842155 2.3146055 -2.0648706
2.0048459 -1.8458716 2.1069832 -1.6289676 2.5833323 -2.0640507 2.2789252 -1.5133423
2.617892 -2.2910001 2.1551201 -2.07398 2.1003842 -2.267576 2.1762404 -1.4194351
0.76487327 3.4285474 0.09579018 3.272548 0.66284704 3.3993628 0.8632221 3.2570322
0.045888986 3.0936573 0.36176446 3.0152833 0.46473148 3.4806406 0.56981254 3.5563045
0.22075954 3.1135628 0.5170305 2.9790163 2.8659322 1.4343936 2.8782215 1.8850733
3.3756115 1.538913 2.7226582 0.97145444 2.7961636 1.2071623 2.5078838 1.2231066
3.3034952 1.5673676 2.4369197 1.6702343 2.4470356 1.0771856 2.2864962 1.3925542
5.2275534 -0.0022411323 4.9873323 0.21138485 5.458088 0.10473852 5.1525793 0.74477625
5.387127 0.17248134 5.807371 0.650094 5.3084836 0.51927066 5.6837215 0.42889026
5.4279666 0.69770557 5.2104383 0.38531518 -2.6565917 -2.4821 -2.4544058 -2.8744302
-2.8564618 -2.4185688 -2.4754996 -2.5416806 -3.1261196 -2.5435045 -3.2279856 -2.9075737
-2.1794007 -2.2364717 -2.6103742 -2.2513082 -2.5343597 -2.1203232 -2.4944043 -2.621364
-0.71637535 -0.53062445 -0.37937668 -0.96876556 -1.1563087 -0.60870117 -0.71357924 -1.0601559
-1.2298894 -0.35778254 -0.73374116 -0.55884194 -0.6940457 -0.019321023 -0.07439718 -0.8662645
-0.92198914 -0.8254284 -0.6072816 -1.1551204 -5.4747763 3.204026 -5.7649283 2.7786117
-5.184719 2.351348 -5.434333 2.2558868 -5.89333 2.4063852 -5.6463356 2.108001
-5.6271553 2.7557402 -6.143497 1.9525474 -5.8368773 3.083136 -5.5680947 2.7770903

v_s f4 [100, 100, 2]
00000000: 74cf 6e3f f52f b141 6851 e33e f5f2 b341
00000010: 14be 1c3f 5b02 ad41 f4a6 7a3f 0721 ac41
00000020: 140c 303f 2390 af41 94be 243f 7dbf ad41
00000030: 3490 533f c5c4 aa41 f6c4 0a3c 1782 b041
00000040: 4f77 0d3e 8de5 ac41 14a0 303f c575 ae41
00000050: 6531 f641 796e 0640 af02 f541 a99b 0840
00000060: 1996 ef41 b91c 0840 9b71 ee41 c2bc f53f
00000070: ddf9 f041 727b fa3f a132 ef41 21cf 0040
00000080: 85d6 f441 82a0 fd3f 6b3b ef41 a269 d83f
00000090: fbae ef41 69a2 2d40 c162 f241 a2ef f43f
000000a0: 12f3 b3c1 4813 a43e 360a b3c1 f260 833f
000000b0: e533 b0c1 3120 45be 6b3f b2c1 2860 a63e
000000c0: 5048 b7c1 1861 86be 9ef8 b3c1 9805 bcbe
000000d0: 33de b5c1 710e 71be 9b43 b2c1 8fc4 2e3e
000000e0: fa8c b1c1 3833 f3be 5efe b1c1 b8fa afbe
000000f0: c42e 3dc2 9cff 9440 24f2 3cc2 a801 9c40
00000100: 254f 3ac2 0c7d ac40 a0ba 3dc2 e00a 9b40
00000110: 06eb 3cc2 58fb a840 41a6 3dc2 5c40 b240
00000120: 64c5 3dc2 7caf b140 1413 3ec2 b84b a840
00000130: 1d5c 3cc2 a053 8d40 3ace 3cc2 54b9 9640
00000140: a9ac 2bc1 cdca b341 a6ab 36c1 9db2 b341
00000150: 565a 2fc1 0d99 b141 ee12 2bc1 dbac b141
00000160: 69ea 2dc1 45c9 af41 635d 35c1 ef5f b041
00000170: c57c 33c1 79f0 b441 570f 2ec1 5767 b441
00000180: 31eb 31c1 eb73 b241 ddab 34c1 8137 b341
00000190: 405b 0f42 2a14 59c1 7e55 0d42 b87f 57c1
000001a0: 56e7 0d42 1565 5ec1 a144 0e42 2629 53c1
000001b0: c8b0 0d42 e60a 59c1 87d6 0d42 b2ac 58c1
000001c0: 0ffe 0d42 2473 54c1 4773 0e42 731c 5fc1
000001d0: 44cd 0f42 f194 56c1 58af 0d42 db05 50c1
000001e0: ad72 4d40 401d 3341 3dea 5240 baeb 2f41
000001f0: 256c 4f40 54b8 3741 5d56 3b40 fc99 3441
00000200: 25d6 5640 f0ba 3941 654f 4440 886f 2a41
00000210: 4d08 5340 9a4e 3d41 9d87 3d40 f276 3341
00000220: 9d70 3240 3274 3241 ed24 2840 68f3 3d41
00000230: 85e5 f141 a836 ad40 3395 f341 2880 bf40
00000240: b305 f641 0ca4 be40 29a2 f641 f87a b940
00000250: 3fe4 f241 d001 ba40 0175 f441 7c89 b940
00000260: 69f2 f141 e424 c540 cb6e ef41 3ca6 c440
00000270: 7b91 ef41 b49a cf40 b35c ef41 b40e b640
00000280: c656 3fc1 e0a6 10c2 64ea 44c1 4e26 11c2
00000290: d35d 40c1 6c5c 13c2 b026 41c1 39a7 11c2
000002a0: fcde 48c1 0498 11c2 acaf 45c1 4921 0fc2
000002b0: 3306 49c1 dc10 11c2 1e74 43c1 18fa 0fc2
000002c0: 3f0e 46c1 8e5f 10c2 11ed 3fc1 2a9a 0fc2
000002d0: 007e dcc0 1011 99c1 28bd d7c0 7a84 96c1
000002e0: 18a3 ddc0 893e 94c1 9401 cfc0 7409 98c1
000002f0: a066 cfc0 6761 95c1 6aff e7c0 392c 90c1
00000300: d807 e3c0 775e 9cc1 4457 dcc0 b795 96c1
00000310: 8894 d7c0 0e22 98c1 56ce d2c0 e569 94c1
00000320: de55 833f d7a9 dd41 e608 9a3f a725 db41
00000330: b3bc 6c3e 75a2 d941 ddef 763f f5b6 dc41
00000340: 2e40 953f 0a8e dc41 1d02 573f f628 dd41
00000350: 5a70 863e 0c5a df41 0d45 623f f087 dd41
00000360: 1e16 873f ed8b d941 bd27 343f c34b dd41
00000370: ce03 82c1 0c3e 2cc2 aa10 80c1 e6cc 2ac2
00000380: 3c33 6fc1 3f99 2ac2 7438 7ac1 0fb2 2bc2
00000390: ee1a 80c1 6eca 29c2 9a71 83c1 1a3c 2cc2
000003a0: fc64 81c1 e725 2bc2 de51 7bc1 5c65 2dc2
000003b0: 346a 7fc1 7f78 2cc2 cade 73c1 df92 2dc2
000003c0: 717b 2641 db8e 6a42 9806 2c41 83af 6b42
000003d0: d6ad 2941 fcbf 6942 514e 2b41 8535 6b42
000003e0: b91a 2541 b818 6c42 0cf0 2b41 fbc7 6942
000003f0: fffe 2f41 1d74 6942 0073 2441 a545 6a42
0.932853 22.148417 0.44398046 22.493631 0.61227536 21.62615 0.97911 21.516127
0.6876843 21.94538 0.643533 21.7185 0.8264191 21.346079 0.008469811 22.06352
0.13815044 21.612085 0.6899426 21.807505 30.774118 2.1004927 30.62631 2.1345007
29.94829 2.126753 29.805471 1.9198229 30.122004 1.9568923 29.899721 2.0126421
30.604746 1.9814608 29.904013 1.6907237 29.96044 2.7130377 30.29822 1.913563
-22.493687 0.3204596 -22.379986 1.026396 -22.02534 -0.19250561 -22.280966 0.32495236
-22.910309 -0.26245952 -22.496395 -0.36723018 -22.733496 -0.23540665 -22.28301 0.17067169
-22.193836 -0.47500014 -22.249203 -0.3437097 -47.29567 4.6562023 -47.236465 4.875202
-46.57729 5.3902645 -47.43225 4.8450775 -47.229515 5.2806816 -47.412357 5.5703564
-47.442764 5.5526714 -47.51863 5.259243 -47.089954 4.416458 -47.201393 4.710123
-10.729653 22.474024 -11.416906 22.462214 -10.959555 22.199732 -10.6921215 22.209402
-10.869729 21.973276 -11.3352995 22.046843 -11.217961 22.617418 -10.878745 22.550459
-11.11992 22.3066 -11.291959 22.402102 35.83911 -13.567423 35.33349 -13.468681
35.475914 -13.899678 35.56702 -13.197546 35.422638 -13.565161 35.4595 -13.542162
35.498104 -13.2781105 35.612576 -13.944446 35.950455 -13.411363 35.421234 -13.00143
3.2101243 11.194641 3.2955468 10.99505 3.2409756 11.482502 2.9271462 11.287594
3.3568203 11.608139 3.0673459 10.652229 3.2973816 11.83169 2.9614022 11.216539
2.7881234 11.153368 2.6272538 11.871925 30.23707 5.412922 30.447851 5.984394
30.752783 5.9575253 30.82918 5.796261 30.361448 5.8127213 30.55713 5.7980328
30.243364 6.1607533 29.929098 6.1452923 29.946035 6.4876347 29.920263 5.689295
-11.958685 -36.162964 -12.307224 -36.287407 -12.022906 -36.840256 -12.071945 -36.413303
-12.55444 -36.398453 -12.355389 -35.782505 -12.5640135 -36.266464 -12.215849 -35.994232
-12.378478 -36.093315 -11.995378 -35.90055 -6.890381 -19.133331 -6.7418404 -18.814686
-6.926159 -18.530535 -6.4689426 -19.004616 -6.4812775 -18.67256 -7.2499285 -18.021593
-7.0947075 -19.546125 -6.8856525 -18.823103 -6.7368813 -19.016628 -6.5876875 -18.551706
1.026058 27.70793 1.2033966 27.393385 0.23118858 27.204325 0.9645975 27.589334
1.1660211 27.569355 0.839876 27.645 0.26257592 27.918968 0.88386613 27.691376
1.0553625 27.193323 0.70373136 27.661993 -16.251858 -43.060593 -16.008137 -42.700096
-14.950008 -42.649654 -15.6387825 -42.923885 -16.01315 -42.447685 -16.43047 -43.058693
-16.174309 -42.787014 -15.707487 -43.348984 -15.9634285 -43.117672 -15.241892 -43.39343
10.405137 58.639507 10.75161 58.9214 10.60494 58.437485 10.70662 58.802265
10.319024 59.02414 10.746105 58.445293 10.999755 58.36339 10.278076 58.568012

beta_s f4 [2]
00000000: 0000 4040 0000 80be
3.0 -0.25
